notebooks/checkpoints/discriminator_epoch20.pth (torch, 13076 bytes, 5 tensors)

net.0.weight f4 [64, 6]
-0.37053254 -0.3677184 0.28545758 0.2661826 0.3085834 -0.29748794 0.3708958 0.040761296
-0.049167693 0.0740966 -0.09811945 -0.05355312 0.08758205 0.32711887 0.09763907 -0.4078922
0.20409401 0.24620107 0.15631016 0.4205333 -0.36114866 0.051537145 0.3371048 0.25144365
0.03097768 0.06676541 -0.13537964 -0.11380283 -0.17664027 -0.02460172 0.029997537 -0.14582355
-0.27763996 0.084792145 -0.2732968 0.048932835 -0.3986233 -0.29429382 -0.32119864 0.37657294
-0.22565919 -0.27977315 0.015599144 0.3256161 0.3833827 -0.31623363 -0.21401654 -0.20744382
0.3899953 0.16191976 0.08891986 -0.34725842 -0.22297505 0.19943862 0.17262594 0.27548462
0.0862593 0.28853816 0.38946605 -0.043874163 0.12053181 0.18735757 0.058331333 0.27197155
-0.38367802 -0.12719084 0.24324518 -0.37388176 -0.38629037 -0.020205768 -0.14743775 -0.24498841
0.030528408 -0.3311968 0.2108165 -0.39175603 -0.21591224 -0.08628609 -0.28247738 -0.32111213
-0.045258425 -0.24807413 0.08044151 -0.004803505 -0.38541612 -0.17192627 -0.090864 -0.077487305
-0.33763584 0.46037698 -0.101710364 -0.053969994 -0.0065317387 0.11773229 -0.28793073 -0.03044701
0.058375705 -0.2976499 -0.2455584 0.17126335 -0.34528008 -0.087361604 0.3761503 0.3305797
-0.19387956 -0.13638805 -0.31502652 -0.14464045 -0.04135463 -0.22337124 -0.10374836 0.41489086
-0.0047738496 -0.06912263 -0.344794 0.38116303 -0.08046893 0.037844934 -0.22929466 -0.28964192
0.34373948 0.25964892 0.18788284 0.32050005 0.3597554 -0.071596764 -0.13451046 -0.017521165
-0.29841766 -0.07554531 0.07649756 -0.21342084 0.26915592 -0.06952236 0.29810733 0.018112993
0.37627327 -0.124819465 -0.28410158 -0.09486642 -0.019829532 -0.21689491 0.32414216 -0.37239802
0.3273059 -0.00036144158 -0.37509754 0.12597497 -0.1967504 0.11435368 -0.17039497 0.15715717
0.22531845 0.27106276 -0.29091766 -0.04902529 -0.43183967 0.016521934 0.29705995 0.2871446
0.096658416 -0.31155935 0.09517812 -0.026601136 0.26477545 0.44651416 -0.22837369 -0.37512216
0.40580845 -0.04916413 -0.19176519 -0.25104487 -0.1288719 -0.32292962 0.043131392 0.020089552
0.12914898 -0.34937492 0.31320643 -0.23372616 -0.17175588 0.2501974 -0.03548026 -0.07647165
-0.20969807 -0.27681753 0.4216762 -0.059076056 0.28372088 -0.074156284 0.32142854 0.45891905
0.23054522 -0.16177432 -0.13275404 0.13645379 -0.21994565 0.29305762 0.3454535 -0.14502388
-0.31738684 -0.07574327 0.36280105 0.36047757 -0.15061446 -0.40883517 0.054028846 -0.19582476
-0.34065136 -0.4291096 -0.05013351 -0.20015867 0.06794831 -0.08050376 0.061911486 -0.2812263
-0.034049086 -0.106112726 0.18765499 0.11572387 -0.34303218 -0.07742368 0.14880319 -0.3746293
0.19400857 0.17152384 -0.31221902 0.1817259 -0.31089047 -0.034627844 0.047364607 -0.31357962
-0.34890795 -0.1491522 -0.32014406 -0.18508334 -0.29086962 -0.12141567 -0.043553 0.34259045
-0.40392074 0.23374058 0.3095223 -0.13566628 -0.19837657 -0.21852374 -0.18525882 0.35140812
-0.22611678 -0.15245008 0.17139825 0.14232208 -0.051572006 0.24336398 0.11274191 0.22753882
00000000: 71b6 bdbe 9645 bcbe 7f27 923e 1649 883e
00000010: a5fe 9d3e 5750 98be 0ee6 bd3e 51f5 263d
00000020: 1064 49bd f5bf 973d daf2 c8bd 845a 5bbd
00000030: 385e b33d 207c a73e fef6 c73d 3fd7 d0be
00000040: 05fe 503e 221c 7c3e c50f 203e 2450 d73e
00000050: 7ae8 b8be 9d18 533d 0099 ac3e 39bd 803e
00000060: e7c4 fd3c 4ebc 883d f6a0 0abe 7511 e9bd
00000070: 30e1 34be 8c89 c9bc 65bd f53c c552 15be
00000080: d326 8ebe 81a7 ad3d 8fed 8bbe cc6d 483d
00000090: 5a18 ccbe aead 96be 2674 a4be 2bce c03e
000000a0: 3413 67be 6d3e 8fbe 8d93 7f3c 27b7 a63e
000000b0: bd4a c43e 60e9 a1be 2727 5bbe 276c 54be
000000c0: 77ad c73e 4bce 253e 9e1b b63d dbcb b1be
000000d0: 9253 64be a339 4c3e dbc4 303e 520c 8d3e
000000e0: b7a8 b03d 46bb 933e 1868 c73e 65b5 33bd
000000f0: 62d9 f63d aada 3f3e d6ec 6e3d db3f 8b3e
00000100: 7271 c4be 513e 02be 4415 793e 6e6d bfbe
00000110: dac7 c5be 9186 a5bc ecf9 16be 3ede 7abe
00000120: b616 fa3c a192 a9be 48e0 573e 3f94 c8be
00000130: 1918 5dbe c3b6 b0bd e0a0 90be cf68 a4be
00000140: e660 39bd 2507 7ebe 85be a43d b866 9dbb
00000150: 4355 c5be 710d 30be e816 babd aab1 9ebd
00000160: 9bde acbe 88b6 eb3e 864d d0bd a40f 5dbd
00000170: 3208 d6bb a01d f13d a86b 93be 026c f9bc
00000180: 5d1b 6f3d 9165 98be a973 7bbe a95f 2f3e
00000190: 8dc8 b0be a4ea b2bd c696 c03e be41 a93e
000001a0: 5d88 46be 4fa9 0bbe 284b a1be a01c 14be
000001b0: 7963 29bd 6ebb 64be 057a d4bd 936c d43e
000001c0: f46d 9cbb 2a90 8dbd d788 b0be cd27 c33e
000001d0: e5cc a4bd 4a03 1b3d 38cc 6abe f24b 94be
000001e0: 9ffe af3e b4f0 843e 5c64 403e 9518 a43e
000001f0: dc31 b83e 53a1 92bd 1cbd 09be 8c88 8fbc
00000200: 33ca 98be 80b7 9abd c1aa 9c3d fe8a 5abe
00000210: cece 893e bd61 8ebd 86a1 983e b361 943c
00000220: e4a6 c03e 59a1 ffbd c375 91be 5349 c2bd
00000230: 8b71 a2bc b319 5ebe f6f5 a53e f4aa bebe
00000240: a494 a73e de7f bdb9 c90c c0be 95ff 003e
00000250: f078 49be 4332 ea3d 057c 2ebe cfed 203e
00000260: e1b9 663e bdc8 8a3e 29f3 94be bece 48bd
00000270: 171a ddbe 0259 873c 3e18 983e 9e04 933e
00000280: d9f4 c53d b584 9fbe bfec c23d a0ea d9bc
00000290: a690 873e 819d e43e cbda 69be 0310 c0be
000002a0: 20c6 cf3e 5460 49bd 185e 44be f488 80be
000002b0: fff6 03be 0857 a5be 8baa 303d d892 a43c
000002c0: a13f 043e 45e1 b2be 985c a03e e955 6fbe
000002d0: c6e0 2fbe e019 803e c053 11bd 2b9d 9cbd
000002e0: 17bb 56be 07bb 8dbe f1e5 d73e bcf9 71bd
000002f0: dd43 913e 40df 97bd 4892 a43e 70f7 ea3e
00000300: 0c14 6c3e 2ba8 25be adf0 07be 8bba 0b3e
00000310: 6f39 61be a60b 963e 48df b03e 2481 14be
00000320: 8780 a2be 4a1f 9bbd 0fc1 b93e 8490 b83e
00000330: ad3a 1abe d852 d1be 5a4d 5d3d 4986 48be
00000340: db69 aebe 41b4 dbbe cc58 4dbd 65f6 4cbe
00000350: 7c28 8b3d 28df a4bd e696 7d3d e5fc 8fbe
00000360: 0e77 0bbd a151 d9bd a128 403e a300 ed3d
00000370: eaa1 afbe 4e90 9ebd dd5f 183e 69cf bfbe
00000380: 2faa 463e f2a3 2f3e 2cdb 9fbe 5b16 3a3e
00000390: 092d 9fbe edd5 0dbd 6401 423d 828d a0be
000003a0: 10a4 b2be 5bbb 18be ece9 a3be 7d86 3dbe
000003b0: ddec 94be c7a8 f8bd a164 32bd 0468 af3e
000003c0: b3ce cebe b159 6f3e b579 9e3e 1aec 0abe
000003d0: 3a23 4bbe b0c4 5fbe 7db4 3dbe c4eb b33e
000003e0: 288b 67be e01b 1cbe 0683 2f3e e1bc 113e
000003f0: 2b3d 53bd 6834 793e 3be5 e63d f0ff 683e

net.0.bias f4 [64]
-0.29040644 0.41641766 -0.37508878 -0.1373009 0.1424969 0.035926316 0.47027627 0.073279254
-0.5606301 -0.43160468 0.33459312 -0.36312538 0.27026084 -0.29978445 0.10260936 -0.052776597
0.3011375 0.37814903 -0.54056346 -0.49292326 0.4759698 -0.5222792 0.24517344 -0.28322554
-0.46391225 0.38035387 0.363913 0.003523705 -0.24327043 -0.40545604 -0.012439429 0.10206508
-0.3815744 -0.46311855 -0.49520236 0.26789033 0.4876453 -0.36589837 -0.35610944 -0.6029889
0.47134116 -0.38560516 -0.12097379 0.23370071 -0.13117607 0.38121822 0.32489333 0.10110963
0.5769489 0.25082916 0.20236288 0.011105936 0.22084576 0.5715166 -0.49037567 0.032514695
0.14343634 0.16603023 -0.4867831 -0.4444123 -0.25636905 -0.46676213 0.07529432 0.3136466
00000000: 27b0 94be b234 d53e a30b c0be 9b98 0cbe
00000010: b5ea 113e 7927 133d 0dc8 f03e 6f13 963d
00000020: 7485 0fbf 4afb dcbe ca4f ab3e 92eb b9be
00000030: a15f 8a3e 597d 99be db24 d23d 462c 58bd
00000040: b22e 9a3e c09c c13e 5e62 0abf 7060 fcbe
00000050: 50b2 f33e 17b4 05bf bf0e 7b3e f002 91be
00000060: e885 edbe bebd c23e ce52 ba3e f6ed 663b
00000070: e21b 79be ef97 cfbe bfce 4bbc 7f07 d13d
00000080: b85d c3be e01d edbe 2a8b fdbe ec28 893e
00000090: a5ac f93e 0857 bbbe fa53 b6be 7b5d 1abf
000000a0: a153 f13e 0a6e c5be 1bc1 f7bd 3d4f 6f3e
000000b0: 0553 06be 092f c33e 6b58 a63e 9112 cf3d
000000c0: ecb2 133f ae6c 803e 3738 4f3e acf5 353c
000000d0: 6425 623e e94e 123f 8512 fbbe 212e 053d
000000e0: fae0 123e d403 2a3e a23b f9be 028a e3be
000000f0: ce42 83be 72fb eebe e933 9a3d 4a96 a03e

net.2.weight f4 [32, 64]
-0.04961941 0.06399233 -0.10823527 -0.044573914 -0.049354367 -0.00018449093 -0.07770972 0.032359116
0.06207224 0.10623276 -0.08464007 -0.043490272 -0.14403883 0.09098143 0.075904965 -0.012713992
0.09616845 -0.118648246 0.13150243 0.063557684 0.037359588 -0.006545072 -0.011808037 0.082917124
-0.068517916 0.091359325 0.0024372365 -0.03034506 0.025712928 0.040412374 -0.057472613 -0.14138457
-0.0802837 0.12598762 -0.0449847 -0.0811992 -0.0474623 0.06342105 -0.05587028 0.16626495
-0.15547341 -0.04224929 0.115566574 0.017280485 -0.07902756 -0.06392326 -0.13956697 -0.06367086
0.07435726 0.041307796 0.1156424 0.005336335 -0.17254189 0.07970779 0.088353805 -0.025745815
0.071199045 0.035401214 -0.08500327 0.035137754 0.023991829 0.09881943 0.003961831 0.0059461687
0.06375386 -0.10177974 0.07209521 0.11750712 -0.06644208 0.122154385 0.0498374 -0.11434396
-0.027083674 -0.06096452 0.11769746 -0.10195044 -0.03980163 0.033182196 -0.007541502 0.14504598
-0.1259547 -0.16851504 0.1848798 -0.045508545 -0.033516306 0.04008843 0.041614767 0.09810005
0.09008496 -0.11458963 -0.06705724 0.12437816 0.100482464 -0.06955891 -0.00074041786 -0.031168642
0.061588146 0.06674504 -0.049848348 0.030998014 -0.11756002 0.13957559 0.08767606 0.12978625
-0.11158754 0.06399636 0.12444927 -0.08558177 0.04532626 -0.11766324 0.06958685 0.06994995
-0.06500364 0.07337835 -0.09034539 -0.014054369 -0.13444833 -0.07065252 0.07376188 -0.090919554
0.07680302 -0.013993443 0.12955359 0.07642113 0.039956875 0.0011614041 -0.105789326 0.02052221
0.09572819 0.04397788 -0.005465989 0.10711918 -0.025837919 -0.07423761 0.18280807 0.0054838588
-0.16517818 -0.09768197 -0.045602974 -0.005060594 -0.0038428395 -0.04400299 0.13210586 -0.12228842
0.19201325 -0.051638156 -0.23127787 -0.059912775 0.1653709 -0.065681964 0.22164422 -0.11157055
-0.0046546697 0.011269374 0.053892657 -0.09313308 -0.11572329 -0.040501248 -0.0999105 0.16575758
-0.16082928 -0.031777818 -0.1967629 0.09909424 0.05251202 -0.12730446 -0.20390339 -0.10617012
0.021008622 -0.0026529578 -0.15802222 0.0046272557 0.014059862 0.14717175 -0.022661073 -0.072624184
0.08905506 0.14956492 0.03907673 -0.043711524 0.023146197 0.15567288 -0.10566363 0.005112838
0.0147027895 0.15324 -0.0646803 -0.04235018 0.11452992 -0.05012253 0.0046449937 0.060593367
0.08336951 -0.08606659 0.020192176 0.12722734 -0.01623028 -0.120200925 -0.031064095 -0.04643166
0.03296669 0.043648887 0.0041921255 -0.03330724 0.028304424 -0.099672996 0.025984287 0.085944355
-0.058707748 0.019331215 0.040701628 -0.05165801 -0.035936993 0.12576284 -0.031932455 0.10746983
0.040805873 -0.0752346 0.03049492 0.00980132 0.049988955 0.06544335 0.060127735 0.014440124
0.100669034 0.080007516 0.00526545 -0.14092994 0.018711336 -0.066187225 0.07751959 0.18314168
-0.11508381 0.16493273 0.16463476 0.044020258 -0.0056002648 -0.14349212 -0.08191019 0.084721915
-0.04616856 0.080608085 0.054708235 0.09296647 -0.023746474 0.0505074 0.055340365 -0.14219399
0.10833383 -0.043580938 -0.050428107 0.0702485 0.07427712 -0.0204315 -0.0089590475 -0.039418664
00000000: b93d 4bbd 690e 833d 74aa ddbd 2393 36bd
00000010: ce27 4abd e873 41b9 4626 9fbd fe8a 043d
00000020: 763f 7e3d 9090 d93d c657 adbd db22 32bd
00000030: ea7e 13be 7954 ba3d 1074 9b3d 594e 50bc
00000040: f7f3 c43d dafd f2bd 93a8 063e 882a 823d
00000050: 5e06 193d 0b78 d6bb 7f76 41bc 74d0 a93d
00000060: 1f53 8cbd 991a bb3d 0bba 1f3b 3496 f8bc
00000070: eba3 d23c 7287 253d 6768 6bbd 1ec7 10be
00000080: c86b a4bd e602 013e e041 38bd c44b a6bd
00000090: d467 42bd e5e2 813d 3cd8 64bd 5c41 2a3e
000000a0: 6c34 1fbe 970d 2dbd 2bae ec3d ce8f 8d3c
000000b0: 34d9 a1bd 33ea 82bd a5ea 0ebe de65 82bd
000000c0: 9e48 983d 5d32 293d ecd5 ec3d 6cdc ae3b
000000d0: d2ae 30be d63d a33d d7f2 b43d e3e8 d2bc
000000e0: ced0 913d dd00 113d 3216 aebd 9bec 0f3d
000000f0: 838a c43c d761 ca3d 3fd2 813b 14d8 c23b
00000100: 6291 823d e571 d0bd a7a6 933d 93a7 f03d
00000110: c912 88bd 142c fa3d 4d22 4c3d 2b2d eabd
00000120: 95de ddbc efb5 79bd 5e0b f13d 64cb d0bd
00000130: 0907 23bd 0eea 073d b41e f7bb ef86 143e
00000140: 45fa 00be 358f 2cbe 2151 3d3e 2b67 3abd
00000150: 6548 09bd c433 243d 3f74 2a3d aee8 c83d
00000160: 777e b83d f8ad eabd 4e55 89bd fab9 fe3d
00000170: c0c9 cd3d e774 8ebd 9a18 42ba 6155 ffbc
00000180: da43 7c3d a0b1 883d c82d 4cbd 8cef fd3c
00000190: 4fc3 f0bd e7ec 0e3e 828f b33d b0e6 043e
000001a0: 0288 e4bd 8610 833d 42df fe3d 7f45 afbd
000001b0: 07a8 393d 6df9 f0bd 8d83 8e3d eb41 8f3d
000001c0: a120 85bd 6347 963d 0107 b9bd 4c44 66bc
000001d0: d3ac 09be 45b2 90bd 7810 973d 0834 babd
000001e0: e74a 9d3d c144 65bc b2a9 043e ae82 9c3d
000001f0: d2a9 233d 413a 983a 13a8 d8bd 321e a83c
00000200: 240d c43d 2622 343d 0a1c b3bb 4d61 db3d
00000210: 0baa d3bc e309 98bd 0a32 3b3e f1b1 b33b
00000220: 7824 29be 7c0d c8bd 2fca 3abd 57d3 a5bb
00000230: 26d8 7bbb 7b3c 34bd c246 073e 5a72 fabd
00000240: 1f9f 443e 8882 53bd 1bd4 6cbe 1967 75bd
00000250: fd56 293e 4484 86bd b4f6 623e 1a7f e4bd
00000260: 3386 98bb 2ea3 383c 8cbe 5c3d 8ebc bebd
00000270: 5500 edbd a3e4 25bd e09d ccbd 5bbc 293e
00000280: 6eb0 24be 7529 02bd 377c 49be ecf1 ca3d
00000290: d816 573d 1a5c 02be 0dcc 50be b86f d9bd
000002a0: 461a ac3c 3fdd 2dbb 94d0 21be 3ca0 973b
000002b0: 565b 663c 31b4 163e b7a3 b9bc fdbb 94bd
000002c0: 8062 b63d 8c27 193e ec0e 203d db0a 33bd
000002d0: 189d bd3c b668 1f3e 2c66 d8bd 9889 a73b
000002e0: f8e3 703c f2ea 1c3e 1b77 84bd 6277 2dbd
000002f0: aa8e ea3d 484d 4dbd 0835 983b c030 783d
00000300: a2bd aa3d ae43 b0bd 106a a53c e247 023e
00000310: 5df5 84bc e72b f6bd 217a febc 202f 3ebd
00000320: 1408 073d 2dc9 323d 195e 893b 2c6d 08bd
00000330: aede e73c 5b21 ccbd 00dd d43c 9803 b03d
00000340: 8977 70bd 7f5c 9e3c c0b6 263d 5997 53bd
00000350: ab32 13bd f9c7 003e 9bcb 02bd 2419 dc3d
00000360: 0f24 273d 9914 9abd 7cd0 f93c b795 203c
00000370: 38c1 4c3d 2a07 863d 8048 763d 4596 6c3c
00000380: 912b ce3d fbda a33d cc89 ac3b f04f 10be
00000390: 8448 993c 2b8d 87bd 97c2 9e3d 7e89 3b3e
000003a0: 10b1 ebbd 20e4 283e 0496 283e 964e 343d
000003b0: 6d82 b7bb 99ef 12be 88c0 a7bd af82 ad3d
000003c0: 3e1b 3dbd da15 a53d be15 603d 3465 be3d
000003d0: f787 c2bc d9e0 4e3d 94ac 623d 4d9b 11be
000003e0: 21de dd3d ed81 32bd b48d 4ebd 72de 8f3d
000003f0: 9a1e 983d f65f a7bc f8c8 12bc 7775 21bd

net.2.bias f4 [32]
-0.06312205 0.0024353263 0.19979593 0.046219002 0.12705716 0.20125946 -0.256476 0.05075127
0.116169676 0.03937104 0.22922078 0.14649165 0.0012330946 0.2221478 -0.26451388 0.07223522
0.24829595 0.19510308 0.1703176 0.15645288 0.17111827 0.12952411 -0.23681635 -0.15722391
0.079908475 0.1527354 -0.104653865 0.25249648 0.01848298 -0.2713585 -0.039025288 0.22193122
00000000: 2246 81bd ff99 1f3b 4e97 4c3e 2350 3d3d
00000010: 461b 023e f616 4e3e d350 83be 90e0 4f3d
00000020: 5eea ed3d 8743 213d dab8 6a3e e801 163e
00000030: ca9f a13a b67a 633e 5d6e 87be 0ff0 933d
00000040: 4b41 7e3e 1ac9 473e bd67 2e3e 2f35 203e
00000050: a139 2f3e f8a1 043e fc7f 72be 4eff 20be
00000060: 0ea7 a33d ab66 1c3e c454 d6bd 3847 813e
00000070: 9e69 973c 80ef 8abe fbd8 1fbd f041 633e

net.4.weight f4 [1, 32]
0.075602345 0.0901513 -0.14600593 0.057190545 -0.20458366 -0.28410593 0.20192948 -0.25221574
-0.24487822 0.13950613 -0.14716111 -0.16578627 -0.14901444 -0.17540468 0.19482026 -0.21131591
-0.16511016 -0.17215887 -0.24733831 -0.04770971 -0.24344642 -0.2118228 0.21311438 0.1389542
-0.19308807 -0.18380982 0.11907723 -0.23981261 -0.0014498035 0.15088825 0.2178689 -0.2072143
00000000: 67d5 9a3d 3fa1 b83d 9482 15be a240 6a3d
00000010: 617e 51be 5576 91be 9ac6 4e3e 6c22 81be
00000020: 5bc1 7abe b2da 0e3e 67b1 16be e0c3 29be
00000030: 3e97 18be 499d 33be f67e 473e 3363 58be
00000040: a312 29be 6a4a 30be 4146 7dbe 426b 43bd
00000050: 054a 79be 13e8 58be a83a 5a3e 034a 0e3e
00000060: e1b8 45be a438 3cbe c3de f33d 7091 75be
00000070: 5507 beba 7382 1a3e 0619 5f3e fc2f 54be
