notebooks/checkpoints/discriminator_epoch100.pth (torch, 13150 bytes, 5 tensors)

net.0.weight f4 [64, 6]
-0.3789322 -0.367483 0.2803445 0.26162437 0.30145258 -0.29542372 0.37335053 0.015616902
-0.04200947 0.04957725 -0.09087725 -0.05822332 0.07930562 0.32360587 0.09568753 -0.42130664
0.19484784 0.2427038 0.13860376 0.43791914 -0.36153486 0.040963806 0.31901762 0.24209672
0.03159161 0.060664877 -0.1258 -0.10778159 -0.17758925 -0.025624294 0.06072979 -0.13932107
-0.1806437 0.08518767 -0.30701983 0.041776624 -0.39484733 -0.29403245 -0.32067937 0.3707216
-0.21689118 -0.27932924 0.025693696 0.33364072 0.4278313 -0.33340076 -0.22437207 -0.196551
0.38505378 0.14495516 0.08937666 -0.37156162 -0.23222192 0.19392155 0.098048106 0.26018548
0.16820672 0.33769673 0.27092156 -0.046889897 0.140065 0.18910101 0.1567575 0.25896567
-0.4029168 -0.13440894 0.24076557 -0.36521688 -0.39630014 -0.014133931 -0.15039456 -0.24255094
0.0351323 -0.33306673 0.21039021 -0.38494062 -0.20755821 -0.083245344 -0.27778432 -0.37835464
-0.030034557 -0.26350695 0.02990946 0.0007797975 -0.37596378 -0.19124421 -0.08627004 -0.081081055
-0.33588085 0.45938176 -0.08482384 0.008163703 0.11751487 0.1745695 -0.13012739 -0.042536385
0.06263172 -0.3020041 -0.24114832 0.1572433 -0.33580753 -0.08975069 0.37776586 0.31258383
-0.19003384 -0.13924184 -0.31469688 -0.15314092 -0.034171008 -0.24755995 -0.09149082 0.40993038
0.014970982 -0.07960887 -0.35584557 0.40432736 -0.084858626 0.045258593 -0.22739044 -0.28688115
0.38858417 0.28324416 0.12002893 0.29858482 0.51470685 -0.036460936 -0.13779557 -0.01644743
-0.30301493 -0.076204866 0.06786671 -0.2128632 0.2723506 -0.06645869 0.29641342 0.025228245
0.3897593 -0.12235639 -0.2801679 -0.084409274 -0.033399336 -0.20766242 0.3217322 -0.36918545
0.3234022 -0.0037722944 -0.37725675 0.12080021 -0.20605579 0.111046486 -0.123843126 0.21552368
0.31852585 0.30264553 -0.25944692 -0.013386207 -0.42754695 0.05118493 0.27497104 0.30654782
0.13121192 -0.3064186 0.09215622 -0.0073396857 0.26156092 0.46822378 -0.22860526 -0.36990145
0.40523008 -0.04424686 -0.19041114 -0.25132683 -0.1375314 -0.3214984 0.039307114 0.019211056
0.1258141 -0.35370377 0.30495873 -0.23315181 -0.17812414 0.2838429 3.774163e-06 -0.08038111
-0.23751014 -0.26556236 0.42855325 -0.061311748 0.28665242 -0.07342107 0.32645017 0.45783746
0.22668771 -0.16820796 -0.12552896 0.12654556 -0.23319346 0.28914562 0.3410793 -0.14468943
-0.32899272 -0.07478336 0.3621926 0.3567972 -0.15603247 -0.42090788 0.06479254 -0.2032965
-0.35705456 -0.42489973 -0.048641212 -0.209132 0.07141239 -0.080181964 0.065519504 -0.2764483
-0.025500044 -0.118381694 0.1953912 0.10337476 -0.33536622 -0.07821925 0.1485782 -0.41308135
0.19600724 0.15928744 -0.3267881 0.17308602 -0.3160466 -0.025834447 0.045121066 -0.31255114
-0.35518408 -0.14797547 -0.3251834 -0.18746762 -0.28938124 -0.12786587 -0.052234348 0.34006822
-0.40261072 0.23635961 0.31192115 -0.130974 -0.19025397 -0.21573155 -0.19340327 0.35048193
-0.23117256 -0.15900125 0.16067532 0.13968846 -0.055492625 0.2500362 0.10583367 0.23225515
00000000: 6703 c2be bb26 bcbe 5089 8f3e a1f3 853e
00000010: fe57 9a3e c741 97be cd27 bf3e 09de 7f3c
00000020: 1f12 2cbd 8411 4b3d da1d babd 937b 6ebd
00000030: fc6a a23d abaf a53e d3f7 c33d 81b5 d7be
00000040: 3186 473e 5887 783e 25ee 0d3e f036 e03e
00000050: 191b b9be aac9 273d 4756 a33e 34e8 773e
00000060: 3466 013d bc7b 783d b7d1 00be 98bc dcbd
00000070: f5d9 35be 0aea d1bc cdbf 783d 2faa 0ebe
00000080: a9fa 38be e076 ae3d b431 9dbe f71d 2b3d
00000090: 6e29 cabe 6c8b 96be 1630 a4be 39cf bd3e
000000a0: b918 5ebe 3e04 8fbe 967b d23c f5d2 aa3e
000000b0: b40c db3e 81b3 aabe cbc1 65be aa44 49be
000000c0: c525 c53e 206f 143e 1c0b b73d 533d bebe
000000d0: 95cb 6dbe 5f93 463e 72cd c83d 0837 853e
000000e0: 623e 2c3e 96e6 ac3e 3bb6 8a3e 9f0f 40bd
000000f0: 336d 0f3e b2a3 413e 0a85 203e 2697 843e
00000100: 1c4b cebe 7fa2 09be 408b 763e b5fd babe
00000110: dae7 cabe 0192 67bc 0801 1abe 465f 78be
00000120: e3e6 0f3d b987 aabe 8870 573e f016 c5be
00000130: 248a 54be 897c aabd bf39 8ebe b3b7 c1be
00000140: 080b f6bc 62ea 86be af04 f53c 536b 4c3a
00000150: 537e c0be 86d5 43be 59ae b0bd d30d a6bd
00000160: 93f8 abbe 1634 eb3e 1fb8 adbd 0dc1 053c
00000170: a3ab f03d 59c2 323e 1d40 05be a23a 2ebd
00000180: 0f45 803d 48a0 9abe 96ef 76be 6304 213e
00000190: f7ee abbe 36cf b7bd 876a c13e fd0a a03e
000001a0: 3b98 42be 6a95 0ebe f31f a1be f9d0 1cbe
000001b0: e6f6 0bbd 5b80 7dbe 8a5f bbbd 65e2 d13e
000001c0: da48 753c fa09 a3bd 6431 b6be ff03 cf3e
000001d0: 5cca adbd 1361 393d 0ad9 68be 16e2 92be
000001e0: 81f4 c63e 6105 913e bad1 f53d 1ce0 983e
000001f0: d4c3 033f 1058 15bd 481a 0dbe c3bc 86bc
00000200: c624 9bbe 4c11 9cbd b4fd 8a3d d0f8 59be
00000210: 8a71 8b3e 7e1b 88bd 80c3 973e 77ab ce3c
00000220: 888e c73e fd95 fabd 2b72 8fbe c5de acbd
00000230: becd 08bd 75a5 54be 15ba a43e e005 bdbe
00000240: f994 a53e 9938 77bb cc27 c1be 1a66 f73d
00000250: 4a00 53be 576c e33d 77a1 fdbd 3db2 5c3e
00000260: d215 a33e 5bf4 9a3e 3ad6 84be d251 5bbc
00000270: 6fe7 dabe 4aa7 513d 01c9 8c3e d6f3 9c3e
00000280: 6b5c 063e e6e2 9cbe 66bc bc3d bf81 f0bb
00000290: 50eb 853e 07bb ef3e 7f17 6abe b963 bdbe
000002a0: 517a cf3e 323c 35bd 23fb 42be e9ad 80be
000002b0: 08d5 0cbe 709b a4be 7f00 213d 8160 9d3c
000002c0: 69d5 003e a918 b5be 8d23 9c3e 59bf 6ebe
000002d0: 2d66 36be db53 913e a047 7d36 da9e a4bd
000002e0: dc35 73be caf7 87be 556b db3e 0722 7bbd
000002f0: 1bc4 923e c95d 96bd 7a24 a73e ac69 ea3e
00000300: d320 683e b53e 2cbe aa8a 00be 2995 013e
00000310: 44ca 6ebe e50a 943e f2a1 ae3e 7729 14be
00000320: bc71 a8be 0528 99bd 4f71 b93e 1fae b63e
00000330: fac6 1fbe 3d81 d7be f4b1 843d f52c 50be
00000340: dbcf b6be 758c d9be 023c 47bd b326 56be
00000350: a940 923d 7136 a4bd 172f 863d a28a 8dbe
00000360: 78e5 d0bc 1a72 f2bd a114 483e 25b6 d33d
00000370: 1fb5 abbe 6a31 a0bd e224 183e 667f d3be
00000380: 1fb6 483e 3f1c 233e c550 a7be 763d 313e
00000390: dcd0 a1be c3a2 d3bc ded0 383d b406 a0be
000003a0: b0da b5be e286 17be 707e a6be 83f7 3fbe
000003b0: c729 94be 45ef 02be aff3 55bd 6c1d ae3e
000003c0: fe22 cebe 4108 723e 21b4 9f3e 0c1e 06be
000003d0: f0d1 42be bbe8 5cbe 820b 46be 5e72 b33e
000003e0: 80b8 6cbe 39d1 22be 1288 243e 7e0a 0f3e
000003f0: 3c4c 63bd bf04 803e 53bf d83d 4bd4 6d3e

net.0.bias f4 [64]
-0.3254195 0.42980343 -0.444128 -0.15661281 0.17958054 0.058748186 0.49007586 0.07253462
-0.64067835 -0.39409214 0.3985556 -0.41515076 0.30113634 -0.3755973 0.14405423 -0.057016198
0.31507185 0.40603718 -0.5934928 -0.53598607 0.4689398 -0.5813518 0.27227613 -0.3016634
-0.5376738 0.44916216 0.3957049 -0.015595475 -0.28971592 -0.45682985 0.00092295633 0.1619198
-0.44248062 -0.53223854 -0.56123984 0.29021925 0.5012278 -0.45055428 -0.40804532 -0.6750394
0.49708664 -0.45644203 -0.17278478 0.3144982 -0.10738005 0.44323128 0.39589563 0.097132504
0.6454114 0.32773685 0.19575654 0.037959535 0.2817219 0.6378248 -0.55826145 0.079199135
0.18847153 0.1734897 -0.5455181 -0.48709753 -0.3144538 -0.541044 0.113637336 0.37634704
00000000: 629d a6be 320f dc3e bf64 e3be 1c5f 20be
00000010: f6e3 373e f0a1 703d 39eb fa3e 088d 943d
00000020: 7f03 24bf 72c6 c9be 7b0f cc3e a48e d4be
00000030: 8b2e 9a3e 4a4e c0be f482 133e d189 69bd
00000040: 1951 a13e 1be4 cf3e 25ef 17bf 6236 09bf
00000050: e118 f03e 79d3 14bf c767 8b3e a073 9abe
00000060: fda4 09bf 95f8 e53e d599 ca3e 2a84 7fbc
00000070: a555 94be 9ae5 e9be 8df2 713a 4ece 253e
00000080: d28c e2be c940 08bf 6aad 0fbf 9e97 943e
00000090: 7750 003f 0daf e6be 51eb d0be 62cf 2cbf
000000a0: 2482 fe3e c5b2 e9be 7eee 30be e805 a13e
000000b0: 12ea dbbd 36ef e23e d5b2 ca3e 68ed c63d
000000c0: ae39 253f 20cd a73e 6774 483e 757b 1b3d
000000d0: da3d 903e 7c48 233f 39ea 0ebf 2833 a23d
000000e0: aefe 403e 49a7 313e 13a7 0bbf d964 f9be
000000f0: 1700 a1be dc81 0abf b1ba e83d 8fb0 c03e

net.2.weight f4 [32, 64]
-0.035098206 0.05165342 -0.121923886 -0.054302104 -0.0738637 0.012573368 -0.066935025 0.020742819
0.051057275 0.15023601 -0.079024784 -0.03222013 -0.13811709 0.11358166 0.07395011 0.06813752
0.11688113 -0.13746661 0.2056582 0.059032656 0.045996938 -0.0012836414 -0.0032416424 0.08728563
-0.06629593 0.054778557 0.0069015883 -0.023582136 0.027893143 0.042575754 -0.06262667 -0.14296083
-0.07808135 0.12799594 -0.037892964 -0.07563565 -0.043775175 0.07832117 -0.056235615 0.168053
-0.1643154 -0.058290035 0.11531229 0.015508604 -0.088310786 -0.08305116 -0.1684051 -0.061391857
0.035596043 0.017197408 0.11504466 0.0016627646 -0.20864125 0.0913721 0.09844788 -0.024998533
0.07884753 0.0876126 -0.08634859 0.028375663 0.026996877 0.094892405 -0.011997609 -0.0025002393
0.06770752 -0.107657894 0.07072906 0.11605341 -0.06886296 0.12175096 0.05174169 -0.11370658
-0.027490687 -0.004366641 0.13426122 -0.09926024 -0.040327147 0.03631103 -0.010279376 0.214607
-0.124543175 -0.16696255 0.22007942 -0.04026522 -0.011442665 0.04455905 0.04325273 0.10093305
0.09103111 -0.11265796 -0.06460658 0.12762833 0.10246301 -0.066212766 0.0010300602 -0.03346137
0.060254745 0.06585026 -0.04727481 0.032428283 -0.12098754 0.14038524 0.09022498 0.12929025
-0.11162056 0.06392116 0.12771538 -0.08781718 0.04393663 -0.12163831 0.06526955 0.07307126
-0.07353135 0.06861512 -0.08921102 -0.015661012 -0.1384198 -0.08238075 0.07527317 -0.0938171
0.07512149 0.0044542714 0.12994316 0.08075629 0.038028363 0.0013781487 -0.08543325 0.015269004
0.09350203 0.049001288 -0.005925434 0.10683943 -0.022403963 -0.075213365 0.18272756 0.006476585
-0.16657518 -0.15606236 -0.06027338 -0.006026191 -0.0016403669 -0.045480758 0.13318613 -0.18942536
0.1924123 -0.05137716 -0.26547232 -0.06330835 0.14196126 -0.06846454 0.2215844 -0.11272524
-0.007251622 0.008095798 0.05319799 -0.09465709 -0.11603666 -0.042240385 -0.099983655 0.16632925
-0.16116248 -0.032601476 -0.1976356 0.099368095 0.056973666 -0.12973297 -0.20478849 -0.10735891
0.022744894 -0.004367041 -0.15958217 0.005196341 0.013722602 0.14942257 -0.020038795 -0.0740563
0.095730655 0.15257046 0.03968385 -0.043802697 0.025383128 0.16585675 -0.10887298 0.0063364743
0.014729407 0.13625 -0.06678005 -0.04488742 0.11479683 -0.052050605 -0.012533469 0.06414888
0.08776239 -0.08812769 0.018297894 0.1252144 -0.016725179 -0.121035434 -0.028557941 -0.045269024
0.032015238 0.09620533 0.020486243 -0.030032547 0.028590256 -0.09597091 0.022678833 0.15487342
-0.056251567 0.021213204 0.07385757 -0.046234857 -0.01500919 0.13080248 -0.029701201 0.1108854
0.04114342 -0.0743182 0.033275466 0.0133762 0.0525623 0.06935533 0.06246463 0.0115581695
0.098740205 0.07854604 0.0084146485 -0.13891754 0.017555078 -0.066029884 0.080633625 0.18209125
-0.114554144 0.1643354 0.16829558 0.041190684 -0.0076346137 -0.14788513 -0.08668862 0.08825031
-0.05498897 0.07533881 0.056383513 0.09076621 -0.028139584 0.039476685 0.05611611 -0.14563394
0.10606366 -0.027404277 -0.05061953 0.0748665 0.07174374 -0.0208723 0.009763865 -0.04512715
00000000: 23c3 0fbd 8992 533d 3bb3 f9bd e26b 5ebd
00000010: da45 97bd 8700 4e3c 3b15 89bd d8ec a93c
00000020: 6f21 513d 78d7 193e bfd7 a1bd 41f9 03bd
00000030: 916e 0dbe 809d e83d 2873 973d af8b 8b3d
00000040: 605f ef3d 0cc4 0cbe 1098 523e 3acc 713d
00000050: 4967 3c3d dc3f a8ba bc71 54bb cfc2 b23d
00000060: 29c6 87bd 7b5f 603d b826 e23b 532f c1bc
00000070: 2980 e43c ea63 2e3d 6942 80bd 5364 12be
00000080: 1de9 9fbd 5e11 033e a735 1bbd dde6 9abd
00000090: 994d 33bd d966 a03d 5157 66bd 1616 2c3e
000000a0: 4c42 28be 88c1 6ebd da28 ec3d cd17 7e3c
000000b0: 49dc b4bd ba16 aabd 6372 2cbe 0776 7bbd
000000c0: 28cd 113d 94e1 8c3c 899c eb3d 1ff1 d93a
000000d0: 0da6 55be 4c21 bb3d 0b9f c93d b9c9 ccbc
000000e0: d07a a13d 3c6e b33d 88d7 b0bd 1474 e83c
000000f0: 8e28 dd3c f356 c23d 9f91 44bc 0edb 23bb
00000100: 3eaa 8a3d be7b dcbd 66da 903d 69ad ed3d
00000110: 0608 8dbd 9158 f93d 18ef 533d ffde e8bd
00000120: 2634 e1bc 0a16 8fbb c67b 093e f448 cbbd
00000130: 142e 25bd e0ba 143d d46a 28bc f0c1 5b3e
00000140: 7e10 ffbd 3bf8 2abe 805c 613e 25ed 24bd
00000150: 047a 3bbc 8d83 363d c629 313d fdb5 ce3d
00000160: 856e ba3d 37b9 e6bd 7450 84bd 00b1 023e
00000170: 20d8 d13d 8f9a 87bd 1603 873a ca0e 09bd
00000180: aecd 763d 80dc 863d 3ba3 41bd 85d3 043d
00000190: 51c8 f7bd 26c1 0f3e e0c7 b83d aa64 043e
000001a0: 5299 e4bd 19e9 823d d2c7 023e 7ed9 b3bd
000001b0: e5f6 333d 821d f9bd 0bac 853d 62a6 953d
000001c0: 9b97 96bd 1686 8c3d 44b4 b6bd 864b 80bc
000001d0: ecbd 0dbe 3db7 a8bd d228 9a3d 2e23 c0bd
000001e0: 4cd9 993d 23f5 913b d20f 053e 8e63 a53d
000001f0: a1c3 1b3d ffa2 b43a a1f7 aebd d82a 7a3c
00000200: fe7d bf3d 93b5 483d 252a c2bb a2ce da3d
00000210: 8488 b7bc 7709 9abd ef1c 3b3e 8839 d43b
00000220: af92 2abe d0ce 1fbe 38e1 76bd 5b77 c5bb
00000230: 9401 d7ba 084a 3abd f261 083e b9f8 41be
00000240: bb07 453e db70 52bd fdeb 87be cfa7 81bd
00000250: 4b5e 113e 2337 8cbd 05e7 623e 7edc e6bd
00000260: 049f edbb 3da4 043c 23e6 593d 94db c1bd
00000270: a1a4 edbd 4104 2dbd 3bc4 ccbd 3752 2a3e
00000280: c707 25be 2089 05bd fd60 4abe 8081 cb3d
00000290: 385d 693d b8d8 04be 13b4 51be fdde dbbd
000002a0: 8053 ba3c 6519 8fbb 8269 23be 1146 aa3b
000002b0: c4d4 603c 3b02 193e 6628 a4bc d4aa 97bd
000002c0: 6f0e c43d 6e3b 1c3e 888b 223d 756a 33bd
000002d0: 47f0 cf3c 5ad6 293e ccf8 debd 33a2 cf3b
000002e0: 9c53 713c 1f85 0b3e fbc3 88bd dfdb 37bd
000002f0: 9a1a eb3d 0433 55bd 2e59 4dbc 7d60 833d
00000300: c5bc b33d 4a7c b4bd 77e5 953c 3438 003e
00000310: 3e03 89bc 6de1 f7bd 58f2 e9bc 036c 39bd
00000320: 6922 033d 4d07 c53d c4d2 a73c d106 f6bc
00000330: 1d36 ea3c 658c c4bd f6c8 b93c 2397 1e3e
00000340: 0b68 66bd 50c7 ad3c a342 973d c360 3dbd
00000350: 1be9 75bc 16f1 053e ef4f f3bc e217 e33d
00000360: 0186 283d 2434 98bd db4b 083d d927 5b3c
00000370: 914b 573d 2b0a 8e3d e9da 7f3d 7a5e 3d3c
00000380: 4e38 ca3d bfdc a03d 98dd 093c 6640 0ebe
00000390: abcf 8f3c ad3a 87bd 3e23 a53d 2176 3a3e
000003a0: 5d9b eabd 8a47 283e ad55 2c3e 90b7 283d
000003b0: c82b fabb 336f 17be ce89 b1bd 94bc b43d
000003c0: 1d3c 61bd 3c4b 9a3d 66f2 663d a2e3 b93d
000003d0: fc84 e6bc 4eb2 213d 02da 653d 1021 15be
000003e0: e737 d93d ef7e e0bc 6d56 4fbd 9c53 993d
000003f0: 62ee 923d 63fc aabc 9ef8 1f3c 3fd7 38bd

net.2.bias f4 [32]
-0.16886869 -0.061420545 0.25106832 0.011559835 0.16950484 0.23727517 -0.31078145 0.088244334
0.15355946 0.015931144 0.27985913 0.16224428 0.023794878 0.2626553 -0.3250537 0.10330356
0.294977 0.244142 0.20576803 0.19788203 0.21589155 0.16953436 -0.30158034 -0.079758495
0.12367977 0.19533487 -0.041382622 0.30058542 -0.015824253 -0.33613196 -0.10132939 0.25939816
00000000: eaeb 2cbe 1c94 7bbd 078c 803e 7665 3d3c
00000010: ad92 2d3e 43f8 723e bf1e 9fbe 72b9 b43d
00000020: b13e 1d3e 0882 823c b249 8f3e 5d23 263e
00000030: 7aed c23c c17a 863e 706d a6be d190 d33d
00000040: 3a07 973e 5c00 7a3e dbb4 523e 96a1 4a3e
00000050: ad12 5d3e 6a9a 2d3e bd68 9abe 6c58 a3bd
00000060: d24b fd3d dd05 483e d380 29bd 55e6 993e
00000070: dda1 81bc 7d19 acbe c985 cfbd d6cf 843e

net.4.weight f4 [1, 32]
0.13413353 0.088455826 -0.14944683 0.054193128 -0.18478717 -0.28160965 0.20136078 -0.253183
-0.24331842 0.28005013 -0.1359745 -0.14295532 -0.14289816 -0.1767939 0.19339347 -0.2048737
-0.16491143 -0.17899147 -0.24867609 -0.04734308 -0.23584199 -0.21231711 0.21266994 0.34212384
-0.19647416 -0.18854094 0.26093277 -0.24045116 -0.00035724507 0.15148905 0.21305324 -0.2075321
00000000: 4d5a 093e 5428 b53d 9708 19be 9df9 5d3d
00000010: d938 3dbe 242f 90be 8531 4e3e 34a1 81be
00000020: 7728 79be bb62 8f3e e63c 0bbe e162 12be
00000030: e553 12be 7609 35be f008 463e 69ca 51be
00000040: 8bde 28be 8a49 37be f2a4 7ebe d1ea 41bd
00000050: 9080 71be a869 59be 26c6 593e db2a af3e
00000060: 8630 49be e010 41be fb98 853e d438 76be
00000070: 9f4c bbb9 f21f 1b3e a12a 5a3e 4b83 54be
