notebooks/checkpoints/discriminator_epoch80.pth (torch, 13076 bytes, 5 tensors)

net.0.weight f4 [64, 6]
000000 b3 07 c7 be 24 20 bc be 54 b7 8f 3e 53 78 86 3e
       -0.38873062 -0.3674327 0.28069556 0.26263675
000010 3f 0a 9e 3e 9d 87 97 be 3c 1b c4 3e b4 ec 8f 3c
       0.30867192 -0.29595652 0.38302028 0.017568924
000020 ee a4 3d bd c8 74 49 3d 28 ee c4 bd 83 38 6f bd
       -0.046299867 0.049183637 -0.09615737 -0.058403503
000030 97 6d 8e 3d 8a 7f a5 3e fd 9b c7 3d d9 08 d7 be
       0.06954496 0.32323867 0.09746549 -0.41998938
000040 47 19 4e 3e da b9 78 3e 0e fb 05 3e bb d0 e2 3e
       0.2012683 0.24289647 0.13084051 0.44299874
000050 5f 8c c1 be fb a8 33 3d 03 85 aa 3e 17 be 78 3e
       -0.37802407 0.043862324 0.33304605 0.24291264
000060 6e f6 2a 3d 02 3e 80 3d f2 19 09 be 04 93 de bd
       0.04173892 0.06261827 -0.13388804 -0.10867885
000070 c1 a2 39 be ac 6b d4 bc d0 71 8f 3d 3b d0 00 be
       -0.18128492 -0.025930248 0.0700413 -0.12579434
000080 e9 48 4b be 03 dc bb 3d 20 a3 9c be 99 54 33 3d
       -0.19852032 0.09172823 -0.30593204 0.04378185
000090 68 03 c5 be 52 7e 97 be e7 7f a3 be 3a c1 bc 3e
       -0.3847916 -0.29588562 -0.3193352 0.3686617
0000a0 af 7b 66 be 34 0f 8f be 91 56 7f 3c 5f ff af 3e
       -0.22508119 -0.27941287 0.015584604 0.3437452
0000b0 68 2f cf 3e 9e 4d a7 be f9 3a 53 be 6d 9a 4a be
       0.40465856 -0.32676405 -0.20627965 -0.19785471
0000c0 54 ed bf 3e 68 f0 14 3e 13 d3 ba 3d 0c 70 bd be
       0.37485754 0.14544833 0.091222905 -0.36999547
0000d0 7c e7 66 be f1 a5 46 3e 09 85 c3 3d 6f 15 9b 3e
       -0.22549242 0.19399239 0.09546859 0.3028979
0000e0 1a 69 33 3d f5 cf a6 3e 63 cb ad 3e 22 f5 1b bd
       0.043801405 0.32580534 0.33944234 -0.038075574
0000f0 d6 8b 1f 3e 25 28 4e 3e f7 54 e2 3d 54 94 85 3e
       0.15580687 0.20132501 0.11051362 0.26089728
000100 88 d1 c2 be aa 0b 0a be 98 6c 6c 3e 1c 3d be be
       -0.38050485 -0.13481012 0.230883 -0.37155998
000110 46 de c3 be ab 1e 7f bc 64 32 19 be 50 84 78 be
       -0.3825552 -0.015571277 -0.14960629 -0.24269223
000120 df 28 37 3d f3 5e ab be 4f 51 5a 3e 34 f1 c5 be
       0.044716712 -0.33470878 0.2132008 -0.38660586
000130 6a 61 5d be 1e e2 aa bd 63 12 95 be 32 f7 be be
       -0.21619192 -0.0834391 -0.2911559 -0.3729797
000140 21 d7 c1 bc a2 1b 84 be 3f a1 15 3d 34 09 e0 b9
       -0.023662152 -0.25802332 0.03653073 -0.00042731466
000150 3e fd bb be e2 e9 41 be e4 93 b0 bd 18 99 a5 bd
       -0.36716646 -0.18936875 -0.08621958 -0.08085841
000160 1c 75 af be 6c 40 eb 3e 77 2e bf bd a6 7e 9b 3b
       -0.34269035 0.45947587 -0.09335034 0.0047453223
000170 5d 46 fa 3d 2c b9 31 3e f9 d3 00 be 22 cd 2e bd
       0.12220452 0.17355794 -0.12580861 -0.0426761
000180 c0 4b 94 3d 2a e1 9a be 25 c5 76 be 4b 50 1f 3e
       0.07241011 -0.30249912 -0.24098642 0.15557973
000190 1c b8 af be 92 20 b8 bd 9f eb c6 3e bd c2 9f 3e
       -0.34320152 -0.08990587 0.3885164 0.3120326
0001a0 c0 00 48 be f4 b5 10 be 65 e5 a3 be f8 ee 1c be
       -0.19531536 -0.1413191 -0.32010952 -0.15325534
0001b0 71 2f 2e bd e2 c3 7f be 2c f0 b4 bd d9 d5 d0 3e
       -0.042525712 -0.24977067 -0.08834872 0.40788153
0001c0 dd 16 9f 3c 54 dc a4 bd 10 02 bb be 5f 07 ce 3e
       0.019420082 -0.08049837 -0.3652501 0.4024
0001d0 18 c2 a8 bd 7b d0 38 3d 8e a2 62 be 5c ea 92 be
       -0.082401454 0.045120697 -0.22132322 -0.28694427
0001e0 11 65 c9 3e 19 fa 83 3e 34 7a 3b 3e df ec 9d 3e
       0.3933492 0.25776747 0.18308336 0.3084478
0001f0 2d de f4 3e 68 2a 18 bd 30 67 17 be 60 bb a2 bc
       0.47825757 -0.037149817 -0.14785457 -0.019864738
000200 ef b5 96 be 88 3d 9c bd 05 f3 91 3d 19 0b 5a be
       -0.2943568 -0.07628924 0.071264304 -0.21293296
000210 e1 7c 90 3e ca f3 8a bd 68 a0 98 3e 59 e9 c0 3c
       0.28220275 -0.0678478 0.2980988 0.023548769
000220 ce 59 c3 3e 60 a0 fa bd d8 90 94 be 32 6d ba bd
       0.38154453 -0.1223762 -0.29016757 -0.091028586
000230 85 86 9a bc 2c 84 56 be 0d 19 a5 3e 9c 1d bd be
       -0.018862972 -0.20948857 0.32245675 -0.36936653
000240 b7 83 a0 3e 30 b0 d7 bb 2b 28 bd be fe 08 f8 3d
       0.3135049 -0.0065822825 -0.36944708 0.1211109
000250 9c 50 4f be a5 09 e4 3d ef 6b e7 bd bb 8f 4e 3e
       -0.20245594 0.11134652 -0.112998836 0.20172016
000260 ef 4a a5 3e f1 e5 95 3e 65 f4 89 be e8 e1 8a bc
       0.32283732 0.29276994 -0.2694427 -0.016953424
000270 50 26 d5 be 77 18 21 3d 18 5c 94 3e 70 d5 98 3e
       -0.41630793 0.039329972 0.28976512 0.2985034
000280 45 35 ee 3d 71 fa 9c be ff b3 a8 3d c0 cf 27 bc
       0.11631254 -0.30659822 0.082374565 -0.010242403
000290 42 15 89 3e df 98 ef 3e 32 97 65 be 7f 84 bd be
       0.2677403 0.4679632 -0.22420958 -0.3701515
0002a0 5e 61 ca 3e 7b 24 3d bd 2a 58 3d be fa 57 80 be
       0.3952741 -0.04617737 -0.18490663 -0.2506712
0002b0 c0 f1 07 be 99 a3 a4 be ff 9c ef 3c 67 5d 91 3c
       -0.13275814 -0.32156065 0.029249666 0.017744733
0002c0 58 95 05 3e 1f c6 b4 be 29 e0 9e 3e 2b ee 6e be
       0.13045251 -0.35307404 0.31030396 -0.23333041
0002d0 a3 51 3e be e5 d6 96 3e 75 3a 0c bd 1e 45 99 bd
       -0.1858583 0.29460827 -0.034235436 -0.07483886
0002e0 cb 08 5d be 75 99 88 be d6 86 e0 3e 08 4b 7c bd
       -0.21585386 -0.26679578 0.43852872 -0.061594993
0002f0 c5 b2 92 3e 8f b1 97 bd 47 40 a3 3e ca 9d ea 3e
       0.28652015 -0.074069135 0.31884977 0.45823509
000300 b2 d5 5d 3e de 13 2b be 44 d8 fe bd 1f 3d 04 3e
       0.2166355 -0.16706797 -0.12443593 0.12913941
000310 b7 ec 67 be e3 45 94 3e 8c 78 a9 3e 1d b7 18 be
       -0.22648893 0.2895957 0.33099782 -0.14913602
000320 0b 2e a2 be 8a 76 9a bd ed 5c ba 3e 16 f5 b6 3e
       -0.31675753 -0.07542141 0.36399022 0.3573386
000330 e1 da 2a be 60 e8 d5 be 0e 75 80 3d 41 24 4d be
       -0.16685058 -0.4177885 0.062723264 -0.20033361
000340 04 55 b2 be 20 fa d9 be 83 d8 20 bd bf c9 52 be
       -0.34830487 -0.42573643 -0.03926898 -0.20584773
000350 13 c0 84 3d e6 ab a3 bd 93 c5 7b 3d 95 e3 8d be
       0.06481948 -0.079917714 0.06146772 -0.27712694
000360 ab e3 83 bc f9 4f f2 bd 8e 8c 48 3e e0 23 d2 3d
       -0.016099771 -0.1183166 0.19584867 0.10260749
000370 4a 86 af be a6 6a a0 bd d0 81 0d 3e 79 ee d3 be
       -0.34282142 -0.078328416 0.13819051 -0.41392878
000380 93 39 4f 3e 6c 23 24 3e 6c e6 a4 be 11 5f 31 3e
       0.20236807 0.16029137 -0.32207048 0.17321421
000390 91 c4 a6 be b6 fa e7 bc 26 18 4b 3d a0 0a a0 be
       -0.32571843 -0.02831779 0.049583577 -0.31258106
0003a0 ad 35 b3 be 22 ac 17 be 54 99 ab be 5f ed 3f be
       -0.3500189 -0.14811757 -0.33515418 -0.18742894
0003b0 89 1a 93 be bc 88 01 be a0 45 3b bd 04 35 ae 3e
       -0.28731182 -0.12649816 -0.045720696 0.34024823
0003c0 a5 0d c9 be 3b e2 71 3e 54 84 9e 3e b6 74 07 be
       -0.39268222 0.23621456 0.30960333 -0.13228115
0003d0 a3 5b 49 be 32 23 5d be 06 32 50 be 53 85 b2 3e
       -0.19663863 -0.21595457 -0.20331582 0.34867343
0003e0 85 70 67 be 16 09 22 be e1 98 29 3e 6e 5a 0f 3e
       -0.22601517 -0.15823779 0.16562225 0.1399934
0003f0 55 10 86 bd 52 4d 7d 3e 02 49 e6 3d d9 92 6d 3e
       -0.06546084 0.24736527 0.11244394 0.23200549

net.0.bias f4 [64]
000000 92 f5 a7 be 2e 6e dd 3e 52 93 e4 be b2 9b 29 be
       -0.32804543 0.43248123 -0.44643646 -0.165633
000010 f4 be 37 3e 80 49 83 3d 67 eb fb 3e 6e 83 8c 3d
       0.17943937 0.064105034 0.49203035 0.06861006
000020 4f 5c 24 bf 34 b6 d9 be fb 29 c0 3e 88 3d d5 be
       -0.6420335 -0.42521822 0.3753203 -0.41648507
000030 cc eb 9b 3e 7b 07 bb be 61 71 19 3e 60 3c 7e bd
       0.30453336 -0.36529145 0.14984657 -0.062069297
000040 92 9f a2 3e 35 3b cf 3e 2c 05 19 bf a0 49 0a bf
       0.31762367 0.4047486 -0.59773517 -0.5401859
000050 66 a0 f8 3e f4 27 15 bf 74 d3 8c 3e 87 22 9b be
       0.48559874 -0.5826409 0.27505076 -0.3029978
000060 f7 f9 09 bf 6a 1b de 3e bf 73 c9 3e d0 ea 94 bc
       -0.5389704 0.4338029 0.3934612 -0.018178374
000070 14 1d 95 be 90 c0 ea be 40 63 28 bc 19 03 29 3e
       -0.29123747 -0.4585004 -0.010277569 0.16505088
000080 8a eb e2 be d8 6f 08 bf 73 ac 0f bf fd 37 96 3e
       -0.44320327 -0.5329566 -0.5612251 0.2933959
000090 61 54 01 3f a7 af e6 be c3 88 d2 be 1c 44 2d bf
       0.50519377 -0.45055887 -0.41119966 -0.6768205
0000a0 aa 59 ff 3e 35 9e ea be 51 2b 33 be 14 b3 9f 3e
       0.49873096 -0.45823827 -0.17496993 0.31191313
0000b0 91 b0 0b be c4 e1 e3 3e a0 05 ca 3e e4 af b7 3d
       -0.13641573 0.44508183 0.39457417 0.08969095
0000c0 24 13 25 3f 87 53 a8 3e 80 a1 41 3e a4 e4 74 3c
       0.6448233 0.32876226 0.18909264 0.01494709
0000d0 92 02 90 3e 5d e8 23 3f 52 91 0f bf 29 5e ae 3d
       0.2812696 0.64026433 -0.56081116 0.085140534
0000e0 55 5e 45 3e 3c 98 39 3e e6 03 0d bf ed ab fa be
       0.19274266 0.18124479 -0.55084074 -0.48959294
0000f0 a0 f1 a0 be 4f b8 0a bf 26 a3 c5 3d 01 3d c2 3e
       -0.31434345 -0.5418748 0.09650259 0.37937167

net.2.weight f4 [32, 64]
000000 ed d5 0d bd 61 18 4f 3d 35 7b f9 bd 0d 1a 61 bd
       -0.034627844 0.05056036 -0.12181703 -0.054956485
000010 49 78 97 bd 7f e5 38 3c 92 06 89 bd 99 52 b0 3c
       -0.073959894 0.011285185 -0.06690706 0.02152376
000020 5a 51 51 3d 9b e1 02 3e 99 ef a2 bd 6c 5a 03 bd
       0.051102974 0.12781374 -0.07955856 -0.032068655
000030 c4 1e 0c be c4 ef f0 3d 9f 33 97 3d ae 1d 8c 3d
       -0.13683611 0.11764482 0.07382893 0.068415985
000040 ca 9a ee 3d 6f f7 0c be cc 68 51 3e 28 d3 72 3d
       0.116506174 -0.13766263 0.20450133 0.059283406
000050 fd 09 fd 3c 17 9f 82 ba de 02 4b bb 78 c6 b3 3d
       0.030888552 -0.0009965625 -0.003097705 0.08778089
000060 18 fa 89 bd 83 c9 53 3d 1c 62 ea 3b eb b3 c0 bc
       -0.06737155 0.05170585 0.007152809 -0.023523292
000070 0f ba e6 3c bc ee 30 3d be 02 7f bd c0 ae 12 be
       0.028164892 0.043196425 -0.062258475 -0.14324474
000080 51 ba a0 bd 49 ab 02 3e 2c 08 19 bd 30 1c 9a bd
       -0.07848037 0.12760653 -0.03736131 -0.075249076
000090 ff b1 31 bd a4 26 a0 3d 3c 35 62 bd 99 01 2c 3e
       -0.04338264 0.0781987 -0.05522655 0.16797484
0000a0 59 96 27 be 39 93 6f bd 51 6b ec 3d ab 15 7a 3c
       -0.16365947 -0.05849001 0.115439065 0.015263955
0000b0 d1 3b b6 bd 65 f5 aa bd ed 8e 2d be 2f 4a 7c bd
       -0.08898128 -0.083475865 -0.16949053 -0.061594184
0000c0 bd fc 04 3d 4d 82 95 3c 11 66 eb 3d d8 83 a4 3a
       0.032467593 0.018250609 0.11494077 0.00125515
0000d0 19 61 56 be 3b 54 b6 3d 4f c7 c7 3d de cc ce bc
       -0.20935477 0.089027844 0.09754812 -0.025244173
0000e0 d8 be a0 3d 33 90 b8 3d 9e 59 b1 bd 1a 7d ec 3c
       0.078489006 0.09011879 -0.08659671 0.028868247
0000f0 21 40 de 3c 72 fa c1 3d 55 bd 3b bc ce f4 3a bb
       0.027130188 0.09471597 -0.0114587145 -0.0028527263
000100 24 04 8b 3d 43 e6 de bd 7e 0d 91 3d f4 e7 ed 3d
       0.06787899 -0.10883763 0.070826516 0.11616507
000110 9f 9e 8f bd 30 a0 f8 3d de c3 53 3d e7 78 e9 bd
       -0.070126764 0.12139928 0.051700465 -0.114000134
000120 50 2d e2 bc f6 31 43 bc 4d e0 08 3e f5 aa cb bd
       -0.027609497 -0.011913767 0.13366814 -0.09944717
000130 e8 7a 26 bd 47 37 1a 3d d6 cf 24 bc db 89 5c 3e
       -0.040644556 0.037650373 -0.010059318 0.21536963
000140 5a cc ff bd 14 c5 2b be ab 16 62 3e 98 84 25 bd
       -0.12490149 -0.16774398 0.2207896 -0.040409654
000150 2a 1b 49 bc 5d 21 36 3d 97 f9 2f 3d da 93 ce 3d
       -0.012274543 0.04446541 0.042962637 0.10086794
000160 5d 64 ba 3d 28 8f e8 bd d8 60 84 bd f8 91 02 3e
       0.09101174 -0.1135543 -0.06463784 0.12750995
000170 bf 38 d1 3d cf e8 87 bd b2 d2 5a 3a ab 93 08 bd
       0.102159016 -0.066362016 0.0008347436 -0.033343952
000180 56 92 77 3d 00 3d 87 3d 3b 19 42 bd e9 17 04 3d
       0.06044229 0.06603432 -0.047387343 0.032249365
000190 d0 73 f8 bd f0 1b 10 3e f3 9d b8 3d bf b9 04 3e
       -0.121314645 0.14073157 0.090145014 0.12961482
0001a0 36 fd e4 bd e1 5f 83 3d 8e 9f 02 3e 58 4b b3 bd
       -0.11181109 0.06414772 0.12756178 -0.08754605
0001b0 1f 49 34 3d 65 ff f8 bd 0f d6 84 3d 02 35 95 3d
       0.044015046 -0.12158088 0.06486141 0.07285501
0001c0 85 44 98 bd 69 8b 8c 3d 6a 3f b7 bd b0 c2 7c bc
       -0.07434944 0.06862528 -0.08947642 -0.0154272765
0001d0 c1 27 0e be a1 aa a8 bd d8 ad 9a 3d 8d dc bf bd
       -0.13882352 -0.0823567 0.07552689 -0.093682386
0001e0 c7 8e 9a 3d 81 73 73 3b 0a 74 05 3e 6b 06 a5 3d
       0.07546764 0.0037147703 0.13032547 0.08057865
0001f0 37 4d 1d 3d 1d 0a e9 3a b8 74 b0 bd 4d 23 78 3c
       0.038403716 0.0017779503 -0.08616012 0.015145135
000200 5a b3 be 3d 02 ae 4c 3d 4b 58 be bb 20 04 db 3d
       0.09311552 0.049970634 -0.005808865 0.10694146
000210 e2 e3 ae bc db e3 98 bd 99 ef 3a 3e 08 d3 d6 3b
       -0.021348897 -0.07465335 0.18255462 0.0065559186
000220 21 3b 2a be 6a 01 18 be 98 52 75 bd c4 55 c6 bb
       -0.16624118 -0.1484429 -0.05989322 -0.0060527045
000230 db 39 c9 ba 17 a5 40 bd 6e 60 08 3e 79 f8 42 be
       -0.0015352325 -0.047032442 0.13318035 -0.19040097
000240 1e 2e 45 3e 16 1c 50 bd bf 64 88 be ad cc 81 bd
       0.19255874 -0.050808035 -0.26639363 -0.06337867
000250 52 5a 12 3e 87 76 8c bd ec fa 62 3e cf 2a e7 bd
       0.14292267 -0.06858545 0.22166032 -0.11287462
000260 6f ed e5 bb 72 71 17 3c d7 25 59 3d e6 0d c2 bd
       -0.0070168297 0.009243356 0.053014603 -0.09475307
000270 3e 75 ed bd 7c 48 2d bd 36 ce cc bd a5 6b 2a 3e
       -0.11594628 -0.042305455 -0.10000269 0.16642626
000280 ab 00 25 be 34 69 05 bd a5 7b 4a be 02 6f cb 3d
       -0.16113536 -0.032571033 -0.19773729 0.099332824
000290 95 d4 69 3d 2f fb 04 be 41 d7 51 be fb 18 dc bd
       0.0570875 -0.12986444 -0.20492269 -0.10746952
0002a0 b9 20 ba 3c f9 88 8f bb 81 79 23 be d4 65 a8 3b
       0.022720682 -0.004380342 -0.15964319 0.005139092
0002b0 bb 08 63 3c fb 2a 19 3e 62 0f 9f bc bf a9 97 bd
       0.013857062 0.14957802 -0.019416515 -0.074054234
0002c0 3c 29 c6 3d db 70 1c 3e 85 c1 22 3d 16 81 33 bd
       0.096758336 0.15277426 0.039735336 -0.043824278
0002d0 aa fd d4 3c 36 08 2a 3e 69 0d df bd 6e 41 d2 3b
       0.025999863 0.16604695 -0.1089123 0.006416491
0002e0 22 29 6f 3c 4c 0f 0c 3e ac 1c 89 bd e5 02 38 bd
       0.014597209 0.1367771 -0.06694922 -0.044924635
0002f0 04 c6 ea 3d b3 f6 55 bd b0 9f 44 bc 3d 12 84 3d
       0.1146355 -0.052237224 -0.012000963 0.06448791
000300 82 ea b3 3d 48 11 b7 bd 4b 60 97 3c 62 6b 00 3e
       0.08784963 -0.08938843 0.018478533 0.12540963
000310 03 09 94 bc 9a 6e f8 bd cd f7 ea bc 3a f8 3a bd
       -0.018070703 -0.121304706 -0.028682614 -0.045646884
000320 69 fd 02 3d 03 c1 b5 3d f7 48 a2 3c 37 3d f8 bc
       0.031979952 0.08874705 0.019810183 -0.030302627
000330 45 ed e6 3c 07 fb c1 bd e9 45 bc 3c 44 49 1f 3e
       0.02818931 -0.09471708 0.022982555 0.15555292
000340 c0 35 68 bd c4 b2 a6 3c 9f 8c 98 3d 66 50 3e bd
       -0.056691885 0.020348914 0.07448696 -0.046463393
000350 48 3e 81 bc 8f c2 05 3e ce 5e f6 bc c2 c9 e2 3d
       -0.015776768 0.130625 -0.030074503 0.110736385
000360 67 ca 28 3d 46 d6 99 bd 65 d3 07 3d 6f d8 57 3c
       0.04120865 -0.075115725 0.033160586 0.01317416
000370 28 b5 55 3d cb 8f 8d 3d fd b5 7e 3d 04 ab 40 3c
       0.052174717 0.06912192 0.062185276 0.011759523
000380 86 c6 ca 3d 57 69 a1 3d d0 a5 06 3c 2d 85 0e be
       0.099011466 0.0788142 0.008218244 -0.1391799
000390 38 73 8c 3c 2e 59 86 bd 09 cd a4 3d 2e e1 3a 3e
       0.017144784 -0.065599784 0.0804692 0.18249962
0003a0 7b 2b eb bd 96 98 28 3e 6b 17 2c 3e a5 2b 2a 3d
       -0.114829026 0.16464457 0.16805808 0.04154553
0003b0 1a df f4 bb 54 4a 17 be d1 33 b2 bd 6b 1f b4 3d
       -0.007472885 -0.14774448 -0.087012894 0.08795055
0003c0 30 3d 64 bd 9a 7b 9a 3d 74 84 65 3d b2 89 ba 3d
       -0.055722415 0.075431064 0.05603452 0.091082945
0003d0 e3 25 e9 bc 87 25 22 3d 9a 3c 67 3d cf e7 14 be
       -0.028460449 0.03958657 0.05645428 -0.14541553
0003e0 63 19 da 3d d6 3b e7 bc 15 6e 4d bd 39 ca 98 3d
       0.106493734 -0.028226774 -0.05015381 0.07460446
0003f0 cc de 93 3d 8a 07 a7 bc e0 d0 12 3c f3 00 39 bd
       0.072202295 -0.020389337 0.0089609325 -0.04516692

net.2.bias f4 [32]
000000 17 20 26 be 31 d5 80 bd cc 67 81 3e f5 49 26 3c
       -0.16223179 -0.06290663 0.25274503 0.010149469
000010 cd 3e 2f 3e 7e a2 74 3e 2e eb 9f be bb 1b b8 3d
       0.171138 0.23890111 -0.31234115 0.08989664
000020 08 ef 1e 3e da 57 11 3c 79 20 90 3e 42 b2 2a 3e
       0.1552087 0.008871043 0.28149775 0.16669562
000030 90 9d cf 3c d2 55 87 3e 88 39 a7 be ee f3 d6 3d
       0.025343686 0.26432663 -0.3266108 0.10495745
000040 07 dd 97 3e 8e b2 7b 3e 40 65 54 3e 37 7f 4c 3e
       0.29660818 0.24579832 0.20741749 0.19970404
000050 c7 bf 5e 3e 6a 4d 2f 3e 99 35 9b be 95 b5 d3 bd
       0.21752845 0.17119375 -0.3031433 -0.103373684
000060 5b 59 00 3e 05 aa 49 3e 16 60 b9 bd 09 bd 9a 3e
       0.12534086 0.19693764 -0.0905153 0.30222347
000070 d7 c9 56 bc 3b e3 ac be 9a ae d2 bd 52 a9 85 3e
       -0.013109646 -0.33767113 -0.10287209 0.26105744

net.4.weight f4 [1, 32]
000000 30 b4 11 3e 00 28 b7 3d 4c 40 1a be 3d 88 61 3d
       0.14228892 0.08943176 -0.1506359 0.055061568
000010 e2 be 44 be 7c c8 92 be 78 e4 4e 3e 21 64 82 be
       -0.19213441 -0.28668582 0.20204341 -0.25467017
000020 7c a5 7b be 2c cc 7a 3e b3 ca 10 be ca c4 14 be
       -0.24574846 0.24491948 -0.14139824 -0.14528194
000030 37 2f 13 be 26 d6 35 be e5 c1 46 3e 4b 2f 54 be
       -0.1437348 -0.17757472 0.19409902 -0.20721166
000040 67 fb 2d be c5 3b 39 be 3f 23 80 be 9e f5 43 bd
       -0.16990434 -0.18089207 -0.2502689 -0.04784166
000050 97 4f 76 be 61 ba 5a be 45 42 5a 3e 73 dd ab 3e
       -0.24053799 -0.2136016 0.21314342 0.3356739
000060 6e b9 4a be 35 c0 43 be 14 23 84 3e 48 9b 7a be
       -0.19797298 -0.1911629 0.25808012 -0.24473298
000070 d5 a6 fd 3a 61 d5 1b 3e 6f 57 5b 3e 58 fc 55 be
       0.0019352088 0.15218116 0.21420072 -0.20897043
