notebooks/checkpoints/generator_epoch40.pth (torch, 25324 bytes, 6 tensors)

net.0.weight f4 [64, 16]
0	0xbd85081a	-0.06495686
1	0x3e82e03d	0.25561705
2	0xbe816b91	-0.2527738
3	0xbe8de3eb	-0.2771295
4	0x3e3c8af9	0.18412389
5	0xbdedc634	-0.1161007
6	0x3ef31daf	0.47483584
7	0x3e8de6d2	0.27715164
8	0xbe56652c	-0.20937032
9	0xbec73d15	-0.3891379
10	0xbecb371b	-0.3969048
11	0x3d8356d5	0.06413046
12	0xbeba9ae3	-0.36446294
13	0x3f00627e	0.5015029
14	0x3dd9845a	0.10620947
15	0x3e8bcc01	0.2730408
16	0xbeeafe24	-0.4589702
17	0xbd2bed44	-0.04197432
18	0xbef995c5	-0.48747078
19	0xbedf22b0	-0.43581152
20	0xbedab97c	-0.42719638
21	0xbe4d8ec1	-0.20073988
22	0x3ecf9158	0.40540576
23	0xbe2a89a8	-0.16654074
24	0x3e553ccd	0.20823975
25	0x3eb80dbc	0.35947978
26	0x3e90f934	0.28315127
27	0x3d8638e1	0.065538175
28	0x3f01a069	0.5063539
29	0x3eb38d19	0.35068586
30	0x3d8002bc	0.062505215
31	0xbe059036	-0.13043293
32	0x3ef288b1	0.47369912
33	0xbedc58a5	-0.4303638
34	0x3e8464cf	0.2585816
35	0xbf04186d	-0.5159977
36	0xbf0842ce	-0.53226936
37	0x3e960eee	0.29308265
38	0x3eeb335c	0.45937622
39	0xbdd5f098	-0.1044628
40	0x3ec0e6ac	0.3767599
41	0xbe8228f5	-0.25421873
42	0x3ed9b0c0	0.42517662
43	0xbebd360d	-0.369553
44	0x3e23a029	0.15979065
45	0xbe8b73d6	-0.27236813
46	0xbe94d630	-0.29069662
47	0xbe4c6509	-0.19960417
48	0xbef57dcd	-0.4794754
49	0xbee88349	-0.45412663
50	0x3ef26d5c	0.4734906
51	0xbefe59a8	-0.49677777
52	0xbeae55f4	-0.34049952
53	0x3ec32c6e	0.38119835
54	0xbce5ceae	-0.028052654
55	0xbeecf23d	-0.46278563
56	0x3e731de0	0.23741865
57	0x3dd58e23	0.10427501
58	0x3d8c1e1a	0.06841679
59	0x3e5e88f3	0.2173193
60	0x3e5f14c1	0.2178526
61	0x3dbacee9	0.09121496
62	0x3e3e60e1	0.18591644
63	0x3ede8cc7	0.4346678
64	0x3ee915e0	0.45524502
65	0xbedccfc5	-0.43127266
66	0xbd84ba81	-0.06480885
67	0x3cdf5dd6	0.027266424
68	0x3e8b8afd	0.27254477
69	0x3ef17bb6	0.47164696
70	0x3e402138	0.18762672
71	0xbef717fd	-0.4826049
72	0xbee79ba7	-0.4523594
73	0x3dfbb42c	0.122902244
74	0xbebad3e7	-0.36489794
75	0xbef89636	-0.48552102
76	0xbe5ee3c4	-0.21766573
77	0xbe623466	-0.22090301
78	0xbed800ca	-0.42188102
79	0xbebe4d55	-0.37168375
80	0x3ee71d26	0.45139426
81	0xbedc19c8	-0.4298842
82	0xbebefb5a	-0.3730114
83	0xbde138b0	-0.109971404
84	0xbed824e3	-0.42215642
85	0x3ecc0f9d	0.39855662
86	0x3e6294f1	0.22127129
87	0xbea4abf2	-0.32162434
88	0xbee685fd	-0.450241
89	0x3e26b6fb	0.16280739
90	0x3e56a95f	0.20963047
91	0xbe716e3f	-0.23577212
92	0x3e8b5cbc	0.27219188
93	0xbea3f8e4	-0.32025826
94	0xbebca10b	-0.36841616
95	0xbe8a3963	-0.26996908
96	0x3ef199f3	0.47187766
97	0xbf003699	-0.5008331
98	0xbea4fc54	-0.3222376
99	0x3d2e6d6f	0.042584833
100	0x3e419982	0.18906215
101	0xbee14b48	-0.44002748
102	0x3d900cd2	0.07033695
103	0xbeac4a4a	-0.33650428
104	0xbe403677	-0.18770777
105	0xbe97a5f5	-0.29618803
106	0xbe38dade	-0.18052241
107	0xbec64683	-0.3872567
108	0x3ead4d27	0.33847925
109	0xbe6b5452	-0.22981384
110	0xbdba07e1	-0.09083534
111	0xbe7b946e	-0.2456834
112	0xbe796b28	-0.24357283
113	0x3ea7c013	0.32763728
114	0xbf04fe52	-0.5195056
115	0x3e954e38	0.2916124
116	0xbef04dea	-0.46934444
117	0x3ef5019e	0.47852796
118	0xbc3bebe2	-0.011469813
119	0x3e8ad277	0.27113697
120	0x3e3ca2ef	0.18421529
121	0xbc58087c	-0.013185617
122	0x3ea7f0d2	0.3280092
123	0xbedebf2e	-0.43505234
124	0x3e8ec4b4	0.27884448
125	0xbe855a89	-0.26045635
126	0xbdb62607	-0.08893972
127	0x3ee38e53	0.44444522
128	0x3e50a01e	0.2037358
129	0xbec1b634	-0.37834322
130	0xbebce1ed	-0.36891118
131	0xbe1ee843	-0.15518288
132	0x3ee03b09	0.4379504
133	0x3e5ededb	0.217647
134	0xbe64085c	-0.22268814
135	0xbea20060	-0.3164091
136	0xbea6f35c	-0.32607543
137	0xbe82c9e5	-0.25544658
138	0x3e7a395c	0.24435943
139	0xbeea2418	-0.45730662
140	0xbd418d68	-0.047253996
141	0xbed3e770	-0.4138751
142	0x3ed0593b	0.40693077
143	0x3ed24b36	0.41073006
144	0xbc2fb94c	-0.010725331
145	0xbedd1a44	-0.43184102
146	0x3ed054e7	0.40689775
147	0xbe800863	-0.250064
148	0x3eceee32	0.40416104
149	0xbca2e3c2	-0.019883994
150	0x3ee7f3d9	0.45303228
151	0x3e998e34	0.29991305
152	0xbea33dfe	-0.31883234
153	0xbebf3998	-0.37348628
154	0x3d759cde	0.059964053
155	0xbb8acdc9	-0.0042359573
156	0xbef12859	-0.47101095
157	0x3efae35a	0.4900158
158	0x3e472492	0.19447544
159	0x3ee4c970	0.44684935
160	0xbe17cf1f	-0.14825104
161	0xbe8e9fde	-0.27856344
162	0xbe959a1a	-0.29219133
163	0x3dd40316	0.10352151
164	0xbeda66d0	-0.42656565
165	0x3f00b9a0	0.5028324
166	0xbcbd0cad	-0.023077333
167	0xbec1b993	-0.37836894
168	0x3ed00b45	0.40633598
169	0x3ec58875	0.3858067
170	0xbe9524db	-0.2912968
171	0xbd1c1e7c	-0.03811501
172	0xbde22088	-0.11041361
173	0x3e0e7119	0.13910331
174	0x3ed5e6fe	0.41777796
175	0x3f028101	0.50978094
176	0xbe8d29ba	-0.27570897
177	0x3ea42da7	0.3206608
178	0xbf06d9bf	-0.52676004
179	0xbee49dd3	-0.4465166
180	0xbd4bdbaa	-0.049770035
181	0xbeeadbfe	-0.45870966
182	0xbf089629	-0.53354126
183	0x3e498d21	0.19682743
184	0x3ee7ef44	0.45299733
185	0xbcf5f5cc	-0.030024432
186	0xbe7ce4fc	-0.24696726
187	0x3f00c810	0.5030527
188	0xbf00ea84	-0.5035784
189	0xbe91c0a1	-0.28467277
190	0x3f00f5ce	0.5037507
191	0xbe9fd375	-0.31216016
192	0x3ee21ca9	0.4416249
193	0x3e433022	0.1906133
194	0x3d45a0fb	0.048249226
195	0xbe78e7ad	-0.24307127
196	0x3de758ef	0.112962596
197	0x3dcefea8	0.101071656
198	0x3e9a4b5f	0.3013563
199	0x3ede132c	0.43374002
200	0xbdd4ea62	-0.103962675
201	0xbec3dd63	-0.38254842
202	0x3ed43feb	0.41455016
203	0xbeaf2617	-0.34208748
204	0xbeb5034c	-0.35354078
205	0x3ecad3cd	0.39614716
206	0xbe88bd33	-0.26706848
207	0xbed031c0	-0.40662956
208	0x3e6e1a73	0.23252277
209	0x3ef9351f	0.4867334
210	0x3dc79b6b	0.097464405
211	0x3cda53ea	0.026651341
212	0xbeb3a2f6	-0.35085267
213	0x3eeeb19b	0.46619877
214	0xbec32bca	-0.38119346
215	0x3ed407be	0.41412157
216	0x3e822191	0.25416234
217	0xbdf2cc02	-0.11855318
218	0xbea7a55f	-0.32743356
219	0x3e877a74	0.26460612
220	0xbeec96ac	-0.46208704
221	0xbe4c9b99	-0.19981231
222	0xbd7c34fa	-0.06157396
223	0xbe86468c	-0.26225698
224	0xbe56de62	-0.2098327
225	0x3da71d23	0.08159854
226	0x3eb0c021	0.34521583
227	0x3d83ee6f	0.06441962
228	0x3efc264c	0.49247968
229	0x3e51f797	0.20504604
230	0x3e316336	0.17323002
231	0x3e68fdba	0.22753039
232	0xbec73cff	-0.38913724
233	0x3e92d202	0.28675848
234	0x3ea1370e	0.31487316
235	0xbed16eda	-0.40904886
236	0x3ec5ad1c	0.38608634
237	0x3ee8f4f7	0.45499393
238	0xbef07237	-0.4696214
239	0x3ecc0b16	0.39852208
240	0x3ebade90	0.36497927
241	0xbeeaaf7d	-0.45837012
242	0x3ee0b99f	0.43891618
243	0xbecccdd2	-0.40000778
244	0xbe787c2f	-0.24266122
245	0xbe658398	-0.2241348
246	0x3ee10388	0.43948007
247	0xbe0935ae	-0.13399383
248	0xbeddd16f	-0.43323848
249	0x3ee814a0	0.45328236
250	0x3e259192	0.16168812
251	0x3e861d87	0.26194403
252	0x3dca292a	0.09871133
253	0xbea037a0	-0.31292439
254	0xbea5840c	-0.32327306
255	0xbed38c7b	-0.41318116

net.0.bias f4 [64]
0	0x3f18ce87	0.59690136
1	0x3ebc45a3	0.3677188
2	0x3ea0ecbe	0.3143062
3	0x3efb368c	0.49065053
4	0x3e351d80	0.17687035
5	0x3f0d5cb8	0.552196
6	0x3efa1db2	0.4885078
7	0x3f0e9d3b	0.55708665
8	0x3efe1d5c	0.49631774
9	0x3ed31a5b	0.41231045
10	0x3f0fb700	0.5613861
11	0x3eb02e43	0.34410295
12	0x3ef3e070	0.4763217
13	0x3f0771b1	0.52907854
14	0x3f0869bb	0.5328633
15	0x3eca6934	0.3953339
16	0x3efde8d4	0.49591696
17	0x3e89e0ac	0.26929224
18	0x3edee04a	0.43530494
19	0x3f10cfd1	0.565671
20	0x3ee4affb	0.44665512
21	0x3e87dc78	0.26535392
22	0x3f0170a9	0.5056253
23	0x3e82cbec	0.25546205
24	0x3e4d40a5	0.20044191
25	0x3ef27d49	0.4736121
26	0x3ed12a31	0.40852502
27	0x3f132c9b	0.5748994
28	0x3ecd95b0	0.40153265
29	0x3e66a97b	0.22525589
30	0x3e9ab6e8	0.3021767
31	0x3ef7bef8	0.48387885
32	0x3e1ff674	0.15621358
33	0x3e7519ec	0.2393567
34	0x3e0cd98a	0.1375486
35	0x3f0d634c	0.5522964
36	0x3e635587	0.22200595
37	0x3edded77	0.43345234
38	0x3e70c92c	0.23514241
39	0x3e8b30be	0.27185625
40	0x3ec811be	0.39076036
41	0x3f0f0187	0.55861706
42	0x3ecedd03	0.40402994
43	0x3ef512cb	0.478659
44	0x3e242da7	0.1603304
45	0x3e8b162d	0.27165356
46	0x3f1f248c	0.6216514
47	0x3f0b7277	0.54471534
48	0x3ea02110	0.31275225
49	0x3eafb958	0.34321094
50	0x3f08dcdd	0.5346201
51	0x3f07dba8	0.53069544
52	0x3f024f40	0.50902176
53	0x3f1c9379	0.61162525
54	0x3ef76c8f	0.4832501
55	0x3ed477c7	0.41497633
56	0x3efbb69e	0.49162763
57	0x3f0fe826	0.56213605
58	0x3e3e758a	0.18599525
59	0x3ead4718	0.33843303
60	0x3f14b788	0.58092546
61	0x3f1b7453	0.6072437
62	0x3f1cbb1e	0.6122302
63	0x3ec5e51e	0.38651365

net.2.weight f4 [64, 64]
0	0xbcd238d7	-0.025661869
1	0x3d774577	0.06036898
2	0xbb9a8c92	-0.0047164643
3	0x3dcc921b	0.09988805
4	0xbd7f713d	-0.06236385
5	0x3da8caea	0.08241828
6	0x3dabd481	0.08390141
7	0x3d69a97b	0.057046395
8	0x3d2231f8	0.039598435
9	0xbdb0c0f8	-0.08630556
10	0x3df00948	0.1172052
11	0x3d85d6ab	0.06535085
12	0x3c40c868	0.011766531
13	0x3d58c996	0.052926622
14	0xbdeaabb5	-0.11458532
15	0xbc90d773	-0.01768086
16	0xbdb1f8c5	-0.08690027
17	0x3dd7733a	0.105200246
18	0x3937df78	0.00017535489
19	0x3c296369	0.010338643
20	0x3dbd87f8	0.092544496
21	0xbda13cdd	-0.07872937
22	0x3dc016ce	0.0937935
23	0x3da60f6f	0.081084125
24	0x3d78dcda	0.060757495
25	0xbdbe51a3	-0.09292915
26	0xbdece8b1	-0.1156782
27	0xbdc273c3	-0.09494736
28	0x3de40ac6	0.11134867
29	0x3dd42f6f	0.1036061
30	0x3d7ddd74	0.061978772
31	0x3de62be1	0.11238838
32	0xbe16fb60	-0.1474433
33	0x3ddad2f2	0.10684766
34	0x3bd41c38	0.0064730905
35	0x3dda3873	0.10655298
36	0xbd55a4cf	-0.052159127
37	0xbc1d9768	-0.009618618
38	0xbdb8319f	-0.089938395
39	0xbcecf1bc	-0.028923862
40	0x3e1eeedd	0.15520807
41	0xbd46118f	-0.04835659
42	0xbdb87919	-0.090074725
43	0x3d9dc4a5	0.077035226
44	0x3c85190c	0.016247295
45	0xbd8db926	-0.0692008
46	0xbc8df2b8	-0.017327651
47	0xbd67b381	-0.056567673
48	0x3d36f865	0.04467048
49	0xbdcce3c8	-0.10004383
50	0xbda0e5d9	-0.0785634
51	0x3cdbebe7	0.026845885
52	0xbdc7de24	-0.09759167
53	0x3da4d1eb	0.08047851
54	0xbc62caca	-0.013842294
55	0x3d2713ef	0.040790495
56	0xbdc5765d	-0.09641717
57	0xbb98a1f2	-0.0046579773
58	0x3d0faecf	0.03507882
59	0x3de53ec2	0.11193611
60	0x3d3faf82	0.046798237
61	0xbdff83bd	-0.12476299
62	0x3c2a83ce	0.010407401
63	0x3d51a160	0.05117929
64	0x3e6145b6	0.21999249
65	0x3eaa9f0e	0.33324474
66	0x3e1341ff	0.14380644
67	0x3de77ad1	0.11302722
68	0x3e70936f	0.23493741
69	0x3e6374f3	0.22212581
70	0x3e8457fa	0.2584837
71	0x3e0502a2	0.12989286
72	0x3e15b3c0	0.1461935
73	0x3e8ab7ad	0.27093259
74	0x3e04b882	0.12961009
75	0x3e47805a	0.19482556
76	0x3eaa56e1	0.33269408
77	0x3e239207	0.15973674
78	0x3e82bfc7	0.2553694
79	0x3e675943	0.22592644
80	0x3df73d6b	0.120722614
81	0x3e5bdce9	0.2147099
82	0x3e90f252	0.28309876
83	0x3eb2151f	0.3478174
84	0x3e96e268	0.2946961
85	0x3e69defc	0.22838968
86	0x3eac8ef0	0.33702803
87	0x3e0b0347	0.13575469
88	0x3e22afb4	0.15887338
89	0x3ea68a8f	0.32527587
90	0x3e7a7217	0.24457584
91	0x3e000496	0.1250175
92	0x3e393a9e	0.18088767
93	0x3e88c06c	0.26709306
94	0x3e22ce91	0.15899111
95	0x3ea5c62d	0.3237776
96	0x3e38e9c5	0.18057926
97	0x3e35a1be	0.17737481
98	0x3e3a2e9e	0.18181846
99	0x3e798012	0.24365261
100	0x3e2b8df3	0.16753368
101	0x3ea52b03	0.32259378
102	0x3eb0378b	0.34417376
103	0x3e65edf9	0.2245406
104	0x3e295653	0.16536836
105	0x3e9554e2	0.29166323
106	0x3e6067f2	0.21914652
107	0x3eaf5dfc	0.34251392
108	0x3e24fe60	0.16112661
109	0x3e2ef105	0.17084129
110	0x3eabcc0a	0.33554107
111	0x3e88ec45	0.2674276
112	0x3e8c6bd4	0.27426016
113	0x3e1da2b8	0.15394104
114	0x3e0d4b54	0.13798267
115	0x3e2d8128	0.169438
116	0x3e98b18f	0.29822966
117	0x3e3650a7	0.17804204
118	0x3e9a75e9	0.30168083
119	0x3e2f5834	0.1712349
120	0x3e0b8474	0.13624746
121	0x3dec5495	0.1153957
122	0x3de24e15	0.11050049
123	0x3e3e0949	0.1855823
124	0x3e37460c	0.17897815
125	0x3e9b4141	0.30323222
126	0x3dd74ead	0.10513053
127	0x3e939541	0.2882481
128	0x3d974ed6	0.07388084
129	0x3da97a9c	0.08275339
130	0x3e2e3017	0.17010532
131	0x3dba3f3b	0.090940915
132	0x3e200170	0.15625548
133	0x3e36fd92	0.17870167
134	0x3e452077	0.19250666
135	0x3e62e304	0.22156912
136	0x3e00527f	0.1253147
137	0x3e4ea7d6	0.20181212
138	0x3e42e06e	0.19030926
139	0x3e45fdf4	0.19335157
140	0x3e9ba8ea	0.3040231
141	0x3e470e6c	0.19439095
142	0x3dad932d	0.08475337
143	0x3e6875bd	0.22701164
144	0x3d895122	0.06704928
145	0x3e5769c8	0.21036446
146	0x3da0d7cc	0.0785366
147	0x3ddfca8d	0.10927305
148	0x3d9dabc3	0.076987766
149	0x3e078090	0.13232636
150	0x3e8b7088	0.27234292
151	0x3e6f85c5	0.23390873
152	0x3e89cfbe	0.26916307
153	0x3e6de28a	0.23230949
154	0x3e908e2a	0.28233463
155	0x3e0d7bf2	0.13816813
156	0x3e957e5a	0.2919796
157	0x3dcdd989	0.10051257
158	0x3e99741d	0.299714
159	0x3e7f6353	0.24940233
160	0x3e34102c	0.17584294
161	0x3e9cd688	0.30632424
162	0x3e712bd4	0.23551875
163	0x3e32078f	0.17385696
164	0x3e0671e2	0.1312938
165	0x3e85563d	0.26042357
166	0x3e5647f6	0.20925888
167	0x3df5b5d2	0.1199757
168	0x3e368c18	0.17826879
169	0x3e20754b	0.15669744
170	0x3e0cd128	0.13751662
171	0x3df2cb26	0.11855154
172	0x3e5b74f5	0.21431334
173	0x3e06e9a5	0.13175066
174	0x3d3bed7e	0.045880787
175	0x3e89e6ec	0.26933992
176	0x3e8ab370	0.27090025
177	0x3e1dce2c	0.1541068
178	0x3e4a0dba	0.19731799
179	0x3e3bfb0c	0.18357486
180	0x3e09842c	0.13429326
181	0x3e6b515d	0.22980256
182	0x3e6da635	0.23207934
183	0x3e66fc95	0.2255729
184	0x3d8366a0	0.064160585
185	0x3d85e52e	0.06537853
186	0x3e5a274a	0.2130405
187	0x3e6f9a14	0.2339862
188	0x3e6d58b1	0.23178364
189	0x3dbde694	0.09272495
190	0x3dfcf66a	0.12351687
191	0x3e1a2891	0.15054537
192	0x3e7db9c4	0.24777895
193	0x3eb2d487	0.3492777
194	0x3ea41811	0.3204961
195	0x3e3c8f95	0.18414147
196	0x3e488042	0.19580176
197	0x3ea716e7	0.3263466
198	0x3e76747f	0.24067877
199	0x3e18f466	0.1493698
200	0x3e9142c5	0.28371254
201	0x3ea10e7c	0.31456363
202	0x3eaa1971	0.33222535
203	0x3e9821eb	0.29713377
204	0x3e9b6ae1	0.3035498
205	0x3e099cc9	0.13438715
206	0x3e6ac6bd	0.22927375
207	0x3e6364c6	0.22206411
208	0x3e6feee2	0.2343097
209	0x3e8f320c	0.2796787
210	0x3e912cf5	0.28354612
211	0x3de20c07	0.1103745
212	0x3e2d1f29	0.16906418
213	0x3e57ae85	0.21062668
214	0x3e92b10d	0.28650704
215	0x3df74d95	0.120753445
216	0x3e5e6133	0.21716766
217	0x3e210587	0.15724765
218	0x3dfcda2a	0.12346299
219	0x3e99ac45	0.30014244
220	0x3e55a56a	0.20863882
221	0x3e896b29	0.2683957
222	0x3e4bc2dd	0.19898553
223	0x3df26cb9	0.118371435
224	0x3e506a0a	0.2035295
225	0x3ea66ba3	0.32503995
226	0x3e53b7bd	0.2067556
227	0x3e0881c7	0.13330756
228	0x3df1b374	0.11801806
229	0x3e8207ef	0.25396678
230	0x3e0fe9e6	0.14054069
231	0x3e76a595	0.24086602
232	0x3dd8cbda	0.105857566
233	0x3df4983c	0.11943099
234	0x3ea307c8	0.31841874
235	0x3e92746e	0.28604454
236	0x3e8706dd	0.26372424
237	0x3e654668	0.22390139
238	0x3e8dbc3d	0.27682677
239	0x3e48be50	0.19603848
240	0x3e1090f4	0.14117795
241	0x3eb7f371	0.3592792
242	0x3e7958e2	0.24350312
243	0x3ea8ad46	0.32944697
244	0x3e2f1e1e	0.17101333
245	0x3eaec353	0.34133396
246	0x3e89a2b8	0.26881957
247	0x3ea31f36	0.3185975
248	0x3e9597e7	0.29217455
249	0x3e2866b4	0.16445428
250	0x3e377dd2	0.1791909
251	0x3e4bb46a	0.19893041
252	0x3e10847d	0.1411304
253	0x3e713514	0.23555404
254	0x3e27cea6	0.16387424
255	0x3e5c0e7d	0.21489902

net.2.bias f4 [64]
0	0x3ddfdfc5	0.109313525
1	0x3ea74f3b	0.32677636
2	0x3e1fcd36	0.15605626
3	0x3debc409	0.11512
4	0xbd5a5f25	-0.053313393
5	0x3eb64887	0.3560221
6	0x3e71faec	0.23630875
7	0x3d4cd3d1	0.05000669
8	0x3cceb2f3	0.025231814
9	0x3d9cbd9f	0.07653355
10	0x3e0da2cd	0.13831635
11	0x3e70187e	0.23446843
12	0x3e93a858	0.28839374
13	0x3e687414	0.2270053
14	0x3d7a9c6b	0.061184328
15	0x3e55e643	0.20888619
16	0x3e5c8937	0.21536718
17	0x3be3a0f4	0.0069466773
18	0x3df51998	0.11967772
19	0x3e5f896a	0.21829763
20	0x3e41d942	0.18930534
21	0x3e4bc6d4	0.19900066
22	0x3d80bb47	0.0628572
23	0x3ea22d0c	0.31674993
24	0x3e4e57ce	0.20150682
25	0x3c0e497b	0.008684511
26	0x3d27925f	0.040911075
27	0x3c1c4119	0.009537005
28	0x3e6c08ec	0.23050278
29	0x3ec2884b	0.37994608
30	0xbcc05681	-0.023478748
31	0xbca7b187	-0.020470394
32	0x3e744a8a	0.2385656
33	0x3de02b6a	0.109457806
34	0x3e075e87	0.13219653
35	0x3e826099	0.25464323
36	0xbdbe78a3	-0.093003534
37	0x3b92515c	0.004465265
38	0x3dd2f113	0.102998875
39	0xbcaa683c	-0.020801656
40	0x3ddb5120	0.10708833
41	0x3aa98b79	0.0012935243
42	0x3cee9bda	0.02912705
43	0x3e430366	0.19044265
44	0x3e556470	0.20839095
45	0x3dc0a030	0.09405553
46	0x3e19936d	0.14997645
47	0x3e9b52e8	0.3033669
48	0x3e3243ad	0.17408629
49	0x3da3d550	0.079996705
50	0x3e1f1958	0.15537012
51	0x3e45ef67	0.19329606
52	0x3e073a02	0.13205722
53	0x3e9c71e4	0.30555642
54	0x3ea1cc9d	0.3160142
55	0xbc9cb396	-0.019128602
56	0x3e66254f	0.2247517
57	0x3e8e8a0c	0.27839696
58	0x3db864b1	0.0900358
59	0xbb8e91b9	-0.0043508676
60	0x3d18e4ce	0.03732758
61	0x3e5ece55	0.21758397
62	0x3db90ffc	0.09036252
63	0x3dab4ebf	0.08364629

net.4.weight f4 [6, 64]
0	0x3d99fcb6	0.07518904
1	0x3de3dfb0	0.111266494
2	0x3d3f78b4	0.04674597
3	0x3df3bebb	0.11901613
4	0xbdfa9809	-0.1223603
5	0x3d82d738	0.06388706
6	0x3dfcfea0	0.12353253
7	0x3b928f1a	0.0044726254
8	0xbd3f507e	-0.046707623
9	0xbe2767cf	-0.16348194
10	0x3e03b460	0.12861776
11	0xbdbf56f0	-0.09342754
12	0xbdd09db3	-0.10186329
13	0x3e03f13c	0.12884992
14	0x3d9a7698	0.07542151
15	0x3c77c655	0.01512297
16	0x3de43197	0.11142271
17	0x3d035f56	0.03207334
18	0x3e02bd5a	0.12767544
19	0x3dba168c	0.09086332
20	0x3e04f9c2	0.129859
21	0xbe01e432	-0.12684706
22	0x3dd3c0a3	0.10339477
23	0xbdc8a4d5	-0.09797064
24	0x3c1246b9	0.008927994
25	0x3d575e03	0.05257989
26	0xbcc0ff07	-0.023559107
27	0x3cefc33c	0.0292679
28	0x3bcaca31	0.006188654
29	0x3d20abfd	0.03922652
30	0xbe18774a	-0.14889255
31	0xbe077104	-0.13226706
32	0x3cc8cbb5	0.024511198
33	0xbe15ad0a	-0.1461679
34	0xbd494228	-0.049135357
35	0xbc914576	-0.017733317
36	0xbd2876dd	-0.04112898
37	0x3dbdefcd	0.09274254
38	0x3d159eb7	0.036528315
39	0xbcc886d6	-0.024478357
40	0xbcf918a2	-0.030407254
41	0xbc95e600	-0.01829815
42	0xbd66fac0	-0.056391478
43	0x3debe514	0.115183026
44	0xbddc6c2e	-0.10762821
45	0xbdc507d4	-0.09620634
46	0xbe3060a2	-0.17224362
47	0x3d9f6b5d	0.0778415
48	0xbe17cf6f	-0.14825223
49	0xbc9355e2	-0.017985288
50	0xbdcbdec0	-0.099545956
51	0xbdf3eeff	-0.11910819
52	0xbda553c7	-0.0807262
53	0xbe1f9b0d	-0.15586491
54	0xbe14dfc9	-0.14538492
55	0x3c5692d9	0.013096535
56	0x3dec4993	0.11537471
57	0x3ca018dd	0.019543106
58	0x3de7ce88	0.113186896
59	0xbdfbb3b3	-0.12290134
60	0xbe133447	-0.14375411
61	0xbde29539	-0.11063618
62	0x3b2a6bae	0.0026004124
63	0xbdaa56d9	-0.08317346
64	0x3e66872b	0.225125
65	0xbdbcea6b	-0.09224399
66	0x3cfb5601	0.030680658
67	0x3c79cb2e	0.015246196
68	0xbc5ab808	-0.0133495405
69	0x3dd9890e	0.10621844
70	0x3da8dd48	0.08245331
71	0xbd14ffd4	-0.03637679
72	0xbddeaf10	-0.10873234
73	0x3bb1e476	0.005428846
74	0xbd3e9080	-0.046524525
75	0xbd4c9f33	-0.04995651
76	0x3cc27a11	0.023739846
77	0x3d47f9d9	0.048822258
78	0x3e21c3e3	0.15797381
79	0x3cc95ee1	0.024581375
80	0x3cb96ed0	0.022635847
81	0x3df03079	0.117279954
82	0x3e102292	0.14075688
83	0x3e026005	0.12731941
84	0x3e0689d0	0.13138509
85	0xbb8be5f7	-0.0042693573
86	0xbc98d0f4	-0.018654324
87	0xbddf6a68	-0.10908967
88	0x3e0a3961	0.13498451
89	0xbc61a8c4	-0.013773147
90	0x3e339de2	0.17540696
91	0xbda9c543	-0.08289578
92	0xbd3f39ca	-0.04668597
93	0x3d9b5899	0.07585258
94	0xbcb18fd8	-0.021675035
95	0x3d65bf77	0.0560908
96	0xbdd5d0f4	-0.10440245
97	0xbe075579	-0.13216199
98	0xbd843d4c	-0.06457004
99	0xbde41b83	-0.1113806
100	0x3e1b1c7b	0.15147583
101	0x3dedea8d	0.11617003
102	0xb9ccbadd	-0.00039049136
103	0x3caa6aa4	0.020802803
104	0xbdd81ad0	-0.10551989
105	0x3e5067b0	0.20352054
106	0x3c4687b2	0.012117313
107	0x3d4ba6d0	0.04971963
108	0x3dfd01e5	0.12353877
109	0xbd215579	-0.039388154
110	0x3d65b589	0.05608133
111	0xbcb29489	-0.021799343
112	0x3d7ed014	0.062210158
113	0xbd0402c3	-0.032229196
114	0x3c291602	0.0103201885
115	0x3d68c9eb	0.05683319
116	0x3d498a1d	0.04920398
117	0xbcc78324	-0.024354525
118	0x3d0534ba	0.032520987
119	0xbc01dc91	-0.007926122
120	0x3df2b27c	0.118504494
121	0xbd9eded8	-0.07757348
122	0xbd599231	-0.053117935
123	0xbe022201	-0.12708284
124	0x3d1607bf	0.03662848
125	0x3dd0fef2	0.10204877
126	0x3e1b2096	0.1514915
127	0xbdd94f16	-0.106107876
128	0xbdf06336	-0.11737673
129	0x3b92d01c	0.004480375
130	0x3ca04f58	0.019569084
131	0xbc71b55a	-0.01475271
132	0xbc416866	-0.011804676
133	0xbd074e57	-0.033033695
134	0xbc99d191	-0.018776687
135	0x3d7f329d	0.062304128
136	0xbc510f27	-0.01275996
137	0x3d1b81dd	0.037965644
138	0x3b1a1ee9	0.002351696
139	0xbd9a5739	-0.07536168
140	0xbd29be5d	-0.04144131
141	0x3d129b70	0.035792768
142	0xbdec9f73	-0.1155385
143	0x3cdb9927	0.026806427
144	0x3d2f7e1f	0.042844888
145	0x3dc3844e	0.095467195
146	0x3d3bbb55	0.04583295
147	0x3d2a1bed	0.04153054
148	0x3d462317	0.048373308
149	0x3d4957e8	0.0491561
150	0xbb8d93cc	-0.0043205973
151	0x3d0a9660	0.033834815
152	0x3d287eb6	0.041136466
153	0xbd338a8e	-0.043833308
154	0xbdb00aa8	-0.085957825
155	0xbe1c51e8	-0.1526562
156	0xbcd0046e	-0.025392737
157	0x3d142c96	0.036175333
158	0x3a73892a	0.00092901534
159	0xbda7d2ac	-0.08194479
160	0x3d3723fc	0.04471205
161	0xbdcaff6a	-0.099119976
162	0x3dcfef0d	0.10153017
163	0x3e08215a	0.13293973
164	0xbda959fc	-0.08269116
165	0x3db670ed	0.08908258
166	0xbdf0b070	-0.11752403
167	0xbd286af4	-0.041117623
168	0x3e3719b5	0.178809
169	0xbdece4b8	-0.11567062
170	0xbce1b50d	-0.027552152
171	0xbd57e869	-0.052711878
172	0xbdc0182e	-0.09379612
173	0xbca4375d	-0.02004593
174	0xbdaaf07e	-0.083466515
175	0xbbc6fe2b	-0.0060727797
176	0x3d2d3318	0.042285055
177	0xbd2362cc	-0.039889142
178	0xbd905f8f	-0.07049476
179	0xbd4cf6a0	-0.050039887
180	0xbd1c3cd2	-0.03814394
181	0x3c5a59e4	0.013327096
182	0x3ddc2cdd	0.107507445
183	0x3e0111af	0.12604402
184	0xbd9d0e65	-0.07668761
185	0x3cfba35f	0.03071755
186	0x3deb4298	0.11487311
187	0xbc8e9202	-0.017403606
188	0xbdbabafd	-0.091176964
189	0xbda6eaab	-0.08150228
190	0xbcda63ff	-0.02665901
191	0x3e010985	0.12601288
192	0x3ce5da3c	0.028058164
193	0x3d4d550b	0.05012993
194	0x3dd6575e	0.10465883
195	0xbda42a1f	-0.080158465
196	0xbd7586e7	-0.059943106
197	0x3dd8fa5e	0.10594629
198	0xbcc8879b	-0.024478724
199	0xbe05456a	-0.1301476
200	0x3cf7d710	0.030253917
201	0x3dd12c8e	0.10213576
202	0xbd9c9693	-0.07645907
203	0x3c5b095a	0.013368929
204	0x3e001ca2	0.12510923
205	0x3e211673	0.1573122
206	0x3d24fa87	0.040277984
207	0x3d1be9dd	0.038064826
208	0x3c6ec4e2	0.014573308
209	0x3c96d352	0.018411312
210	0xbe3d1c48	-0.1846782
211	0xbdb637cd	-0.08897362
212	0x3daeff67	0.08544808
213	0xbce26933	-0.027638054
214	0x3dcf2b94	0.10115734
215	0x3e244049	0.16040148
216	0x3e14cfdb	0.14532416
217	0xbd4d46f1	-0.050116483
218	0x3daf2ae6	0.08553104
219	0xbd79e38d	-0.061008025
220	0x3c842b92	0.016134057
221	0x3da07bcc	0.078361124
222	0xbdc757fa	-0.09733577
223	0xbdd6f8ae	-0.10496651
224	0x3e1839cd	0.14865799
225	0xbd60ccdb	-0.054882865
226	0x3d14fd73	0.03637452
227	0x3def9419	0.11698169
228	0x3e0d48e3	0.13797335
229	0x3c558e3a	0.013034398
230	0x3d858ff1	0.06521595
231	0xbcd57f92	-0.026061807
232	0x3e148286	0.14502916
233	0x3d9fcba9	0.07802517
234	0xbcc8bd56	-0.024504345
235	0x3e073548	0.13203919
236	0x3d55ed6c	0.052228376
237	0x3d4ebbfc	0.050472245
238	0x3e364235	0.17798693
239	0xbd09c777	-0.03363749
240	0x3d982afe	0.07430075
241	0xbd0e4643	-0.034734976
242	0x3dec9139	0.115511365
243	0x3da2c71c	0.07948133
244	0xbd77d70a	-0.06050781
245	0x3d5f3b53	0.054499935
246	0x3d23a2b2	0.03995008
247	0xbc0f68d7	-0.008753023
248	0xbe009d10	-0.12559915
249	0x3dad68cb	0.08467253
250	0xbd23ce63	-0.039991748
251	0xbd469436	-0.04848119
252	0xbe0e03b3	-0.13868599
253	0xbcd842f3	-0.026399111
254	0x3bb0a962	0.0053912858
255	0xbd32131c	-0.043475255

net.4.bias f4 [6]
0	0xbd1babb3	-0.038005542
1	0x3b5685cf	0.0032733565
2	0xbd7fba32	-0.06243343
3	0xbd4d5ea4	-0.050139084
4	0x3d955b8f	0.07292854
5	0x3e6bfd36	0.23045811
