notebooks/checkpoints/generator_epoch50.pth (torch, 25324 bytes, 6 tensors)

net.0.weight f4 [64, 16]
0	0xbdb2171c	-0.08695814
1	0x3e9ab091	0.30212834
2	0xbe8b1295	-0.27162614
3	0xbe9fc754	-0.31206763
4	0x3e5b0b76	0.21391091
5	0xbe1b634c	-0.15174598
6	0x3f088e4f	0.53342146
7	0x3ea37eee	0.31932777
8	0xbe7a5a94	-0.24448615
9	0xbee414fd	-0.44547263
10	0xbee604f1	-0.44925645
11	0x3da119d4	0.078662544
12	0xbed20fab	-0.4102758
13	0x3f0cc536	0.5498842
14	0x3df30040	0.11865282
15	0x3ea0290e	0.31281322
16	0xbf054b6a	-0.520682
17	0xbd28b819	-0.041191194
18	0xbf0af09f	-0.5427341
19	0xbefb3c25	-0.49069324
20	0xbefb83ec	-0.49124086
21	0xbe6fc848	-0.23416245
22	0x3ee8d35b	0.4547375
23	0xbe48989c	-0.19589466
24	0x3e78fb0d	0.24314518
25	0x3ed46e4e	0.41490406
26	0x3ea42702	0.3206101
27	0x3d958513	0.073007725
28	0x3f1196de	0.5687083
29	0x3eca35cf	0.39494178
30	0x3d825071	0.06362999
31	0xbe1ddfe6	-0.15417442
32	0x3f058868	0.52161264
33	0xbef2d1b0	-0.47425604
34	0x3e987266	0.2977478
35	0xbf1174ce	-0.56818855
36	0xbf1859d3	-0.5951206
37	0x3ea99569	0.33121803
38	0x3f03086e	0.5118474
39	0xbdf4c727	-0.11952048
40	0x3ed9ba10	0.42524767
41	0xbe93aceb	-0.28842863
42	0x3ef2be38	0.4741075
43	0xbed3501b	-0.41272053
44	0x3e458b82	0.192915
45	0xbea12adb	-0.3147801
46	0xbeab35fb	-0.3343962
47	0xbe6c0c62	-0.23051599
48	0xbf0a8acd	-0.54118043
49	0xbf009701	-0.50230414
50	0x3f07a381	0.5298386
51	0xbf0ccc88	-0.5499959
52	0xbecc6757	-0.39922592
53	0x3edd5f84	0.43236935
54	0xbd204a82	-0.039133556
55	0xbf0550ee	-0.52076614
56	0x3e8c5c3c	0.2741412
57	0x3df95e0f	0.121761434
58	0x3d9d5aa9	0.07683308
59	0x3e828e8d	0.25499383
60	0x3e873c28	0.26413083
61	0x3dd36f71	0.1032399
62	0x3e54537d	0.20734973
63	0x3ef94687	0.4868662
64	0x3f033551	0.5125323
65	0xbef76be5	-0.48324504
66	0xbd9656f8	-0.07340807
67	0x3d26b5aa	0.040700592
68	0x3e9eb307	0.30995962
69	0x3f083e91	0.5322047
70	0x3e5cd8b9	0.21567048
71	0xbf0c0414	-0.5469372
72	0xbf0207ee	-0.5079335
73	0x3e1177ac	0.14205807
74	0xbed6cd0b	-0.4195331
75	0xbf0aa083	-0.5415117
76	0xbe803f6d	-0.2504839
77	0xbe88e7e7	-0.26739427
78	0xbef7f32c	-0.48427713
79	0xbedd5a1b	-0.43232808
80	0x3f005bca	0.5014006
81	0xbef246e8	-0.47319722
82	0xbed79814	-0.42108214
83	0xbdf78f4c	-0.120878786
84	0xbef954a5	-0.4869739
85	0x3ee7f69a	0.4530533
86	0x3e806503	0.25077066
87	0xbeba9ed3	-0.36449298
88	0xbf0133b2	-0.50469506
89	0x3e42c4a5	0.19020326
90	0x3e715e2c	0.2357108
91	0xbe88f800	-0.2675171
92	0x3ea444fa	0.32083875
93	0xbebda276	-0.3703801
94	0xbed886ac	-0.42290246
95	0xbe9e6a00	-0.30940247
96	0x3f05c1b3	0.52248687
97	0xbf0d3c3b	-0.5517003
98	0xbeb602d9	-0.35549048
99	0x3d6f42a2	0.058413155
100	0x3e5e2d15	0.21696885
101	0xbf001471	-0.5003119
102	0x3da2d787	0.07951265
103	0xbec47d65	-0.38376918
104	0xbe5eb960	-0.21750402
105	0xbeafc389	-0.3432887
106	0xbe5848c1	-0.21121503
107	0xbedeead4	-0.43538535
108	0x3ec6de6b	0.38841566
109	0xbe8cbde1	-0.27488616
110	0xbddd425b	-0.10803672
111	0xbe905968	-0.28193212
112	0xbe939eb9	-0.28832033
113	0x3ec1dee2	0.3786536
114	0xbf15614a	-0.58351576
115	0x3eab1f97	0.3342254
116	0xbf0c2413	-0.54742545
117	0x3f0acada	0.54215777
118	0xbc942638	-0.01808463
119	0x3e9f2b25	0.31087604
120	0x3e62cd2a	0.22148576
121	0xbc0d47e9	-0.008623102
122	0x3ebd2d7e	0.3694877
123	0xbef9bbf9	-0.48776224
124	0x3ea715c4	0.32633793
125	0xbe992d0e	-0.29917186
126	0xbde8594d	-0.11345158
127	0x3eff09b3	0.49812087
128	0x3e6b65af	0.22988008
129	0xbed86e9c	-0.42271888
130	0xbed4b05f	-0.4154081
131	0xbe332518	-0.17494619
132	0x3ef9d5b4	0.48795855
133	0x3e7de19c	0.24793094
134	0xbe8503e8	-0.25979543
135	0xbebae789	-0.36504772
136	0xbec1201a	-0.37719804
137	0xbe9aa082	-0.30200583
138	0x3e8eb545	0.27872673
139	0xbf03de56	-0.5151113
140	0xbd36b214	-0.044603422
141	0xbef6bf7a	-0.4819296
142	0x3eecd08b	0.46252856
143	0x3eecfe4d	0.46287766
144	0xbcb4b6db	-0.022059849
145	0xbeef628a	-0.46754867
146	0x3eef88a1	0.46783927
147	0xbe89cde8	-0.26914907
148	0x3eeade55	0.4587275
149	0xbd4b2623	-0.049596917
150	0x3f012b52	0.50456727
151	0x3eacfc7c	0.3378638
152	0xbeb9e61e	-0.36308378
153	0xbedb2fb8	-0.42809844
154	0x3d955710	0.072919965
155	0x3abe9369	0.0014539781
156	0xbf042752	-0.516225
157	0x3f07447c	0.52838874
158	0x3e5f7319	0.2182125
159	0x3efe55c2	0.49674803
160	0xbe3a13a9	-0.18171562
161	0xbe9e596d	-0.309276
162	0xbeabb5bd	-0.33537093
163	0x3dfc3260	0.12314296
164	0xbefd0d2d	-0.49424115
165	0x3f1011b6	0.56277025
166	0xbd0bd54c	-0.034138963
167	0xbedb1bd7	-0.42794678
168	0x3eed1288	0.463032
169	0x3ee11600	0.43962097
170	0xbeabddd8	-0.3356769
171	0xbd21d3f6	-0.039508782
172	0xbde4a27d	-0.11163805
173	0x3e21eb38	0.15812385
174	0x3eee3e4f	0.46531913
175	0x3f0f8780	0.5606613
176	0xbea4f98f	-0.32221648
177	0x3ec0ab35	0.3763062
178	0xbf153ceb	-0.5829608
179	0xbf017c8d	-0.50580674
180	0xbda23804	-0.079208404
181	0xbf043952	-0.51649964
182	0xbf1a412f	-0.6025571
183	0x3e6941ca	0.22779003
184	0x3f02e26e	0.51126754
185	0xbcffd87a	-0.031231154
186	0xbe969c55	-0.29416147
187	0x3f0fff5c	0.5624902
188	0xbf0f38aa	-0.5594584
189	0xbeabce71	-0.3355594
190	0x3f1066fa	0.5640713
191	0xbeb8e010	-0.36108446
192	0x3efa200d	0.48852578
193	0x3e6a9594	0.22908622
194	0x3d874586	0.066050574
195	0xbe8b3b18	-0.27193522
196	0x3e0050a6	0.12530765
197	0x3de2067e	0.110363945
198	0x3eb032af	0.3441367
199	0x3ef8833b	0.4853762
200	0xbdf51c10	-0.11968243
201	0xbedd07a1	-0.43169883
202	0x3eedca9b	0.46443638
203	0xbec63328	-0.38710904
204	0xbecbdde5	-0.3981773
205	0x3ee0f378	0.43935752
206	0xbea0eef6	-0.31432313
207	0xbeeb5eb7	-0.459707
208	0x3e85ab03	0.26107034
209	0x3f0e6bf8	0.556335
210	0x3e0085e3	0.12551074
211	0x3d087f67	0.033324625
212	0xbed196e3	-0.4093543
213	0x3f054bec	0.5206897
214	0xbee0a1d8	-0.43873477
215	0x3ef073e9	0.46963432
216	0x3e947152	0.28992707
217	0xbe1170de	-0.14203212
218	0xbec1a993	-0.37824687
219	0x3e9c89ef	0.30573985
220	0xbf03b5ad	-0.5144909
221	0xbe78bdb8	-0.24291122
222	0xbd9e0645	-0.077160396
223	0xbe9ae7c9	-0.30254963
224	0xbe7cbdc2	-0.24681762
225	0x3dd88ae8	0.10573369
226	0x3ed05ded	0.4069666
227	0x3daf7d4b	0.085688196
228	0x3f0dd444	0.55402017
229	0x3e54412a	0.20727983
230	0x3e50cf06	0.20391473
231	0x3e848491	0.2588239
232	0xbedf991b	-0.43671498
233	0x3e9e1531	0.30875543
234	0x3eb7914b	0.35853037
235	0xbee66a35	-0.45002905
236	0x3edfbcab	0.4369863
237	0x3efd383f	0.49456975
238	0xbf066ae9	-0.5250688
239	0x3ee5d93a	0.44892293
240	0x3ecfe6f5	0.40605894
241	0xbf012049	-0.5043989
242	0x3efe9ed3	0.49730548
243	0xbee57446	-0.44815272
244	0xbe91ae70	-0.28453398
245	0xbe872022	-0.26391703
246	0x3efc4c33	0.49276885
247	0xbe1c27fd	-0.1524963
248	0xbef9ce06	-0.48789996
249	0x3f01ee57	0.507543
250	0x3e3f358c	0.1867277
251	0x3e9d7453	0.3075281
252	0x3dfdf15a	0.1239955
253	0xbebb5014	-0.36584532
254	0xbebdcd81	-0.3707085
255	0xbeedb0a1	-0.4642382

net.0.bias f4 [64]
0	0x3f2e0904	0.67982507
1	0x3ee6adfa	0.4505461
2	0x3eca2f7f	0.39489362
3	0x3f1322e7	0.5747513
4	0x3e87a793	0.26495036
5	0x3f22ab69	0.635428
6	0x3f110360	0.56645775
7	0x3f257706	0.6463474
8	0x3f14ef19	0.58177334
9	0x3ef86156	0.4851176
10	0x3f24eac6	0.64420736
11	0x3edf28b7	0.4358575
12	0x3f0e0b5f	0.554861
13	0x3f1d4cc7	0.6144528
14	0x3f1c5631	0.6106902
15	0x3ef4ffca	0.47851402
16	0x3f135667	0.57553715
17	0x3eb95978	0.36201072
18	0x3f0417c6	0.51598775
19	0x3f268e50	0.650609
20	0x3f0983ac	0.5371654
21	0x3eb1dd0b	0.34738955
22	0x3f14726a	0.5798708
23	0x3eb6b533	0.3568512
24	0x3e9447a2	0.28960901
25	0x3f0ed694	0.5579617
26	0x3efd4905	0.49469772
27	0x3f2949fd	0.6612852
28	0x3efa5573	0.48893318
29	0x3e9ff6f5	0.312431
30	0x3ec79a5c	0.38984954
31	0x3f11b428	0.5691552
32	0x3e7cfc36	0.24705586
33	0x3ea4e84a	0.32208472
34	0x3e6c58d9	0.23080768
35	0x3f229232	0.63504326
36	0x3e9e9929	0.30976227
37	0x3f04f135	0.5193055
38	0x3ea34d95	0.31895128
39	0x3eb61562	0.3556319
40	0x3ef76228	0.48317075
41	0x3f277367	0.65410465
42	0x3ef4b14a	0.4779151
43	0x3f0fcc05	0.56170684
44	0x3e789d46	0.24278745
45	0x3eaf87fe	0.3428344
46	0x3f3232c2	0.696087
47	0x3f2046f1	0.6260825
48	0x3ecb9fc8	0.3977034
49	0x3edb1583	0.4278985
50	0x3f1d7c44	0.6151774
51	0x3f1b50a4	0.6066992
52	0x3f187616	0.59555185
53	0x3f324584	0.6963732
54	0x3f0e99b3	0.55703276
55	0x3ef9c42f	0.4878249
56	0x3f124196	0.57131326
57	0x3f240627	0.6407189
58	0x3e8c486c	0.27399004
59	0x3eda2abe	0.42610735
60	0x3f2b35f7	0.6687922
61	0x3f2e7a60	0.6815548
62	0x3f316b5c	0.6930444
63	0x3ef2f61b	0.4745339

net.2.weight f4 [64, 64]
0	0xba136352	-0.0005622405
1	0x3dee7502	0.11643411
2	0x3d25bf89	0.040465865
3	0x3e15c3ab	0.14625423
4	0xbc909030	-0.017646879
5	0x3e0dd687	0.13851367
6	0x3deb2184	0.11481002
7	0x3ddc2410	0.10749066
8	0x3d8d63de	0.06903814
9	0xbd99720f	-0.07492458
10	0x3e325446	0.1741496
11	0x3dd95ed2	0.10613789
12	0x3d24d5e5	0.04024305
13	0x3dcb9727	0.099409394
14	0xbdb58405	-0.08863071
15	0x3c91c509	0.017794149
16	0xbd2d50b9	-0.04231331
17	0x3e2aa79d	0.16665502
18	0x3ce4bd12	0.027922187
19	0x3d596c5d	0.05308186
20	0x3e1a1f0a	0.15050903
21	0xbd4ccaa2	-0.049997933
22	0x3de9a249	0.114079066
23	0x3e16af7e	0.14715382
24	0x3dbbc909	0.09169204
25	0xbd4096d2	-0.047018833
26	0xbda9cdc7	-0.08291202
27	0xbd9b8511	-0.0759374
28	0x3e308e90	0.17241883
29	0x3e1b12f3	0.15143947
30	0x3dcbe671	0.099560626
31	0x3e17cafd	0.14823528
32	0xbe088761	-0.13332893
33	0x3e1f521f	0.1555867
34	0x3d885100	0.066560745
35	0x3e0dcefb	0.13848488
36	0x3c76cd8e	0.0150636565
37	0x3c9b5a21	0.018963875
38	0xbd69650e	-0.05698114
39	0x3ca2c6c5	0.019870171
40	0x3e5d1fc0	0.21594143
41	0x3c084d60	0.008319229
42	0xbd64156a	-0.055684485
43	0x3df5a51b	0.11994382
44	0x3d122938	0.03568384
45	0xbd2862a0	-0.04110968
46	0xbbb1ec85	-0.0054298067
47	0xbd3f4dfe	-0.04670524
48	0x3d98ecbe	0.0746703
49	0xbd9d555f	-0.07682299
50	0xbd502b63	-0.050822627
51	0x3d3fa340	0.046786547
52	0xbd57c234	-0.05267544
53	0x3e04388d	0.12912197
54	0x3ca4c712	0.020114455
55	0x3d5912b5	0.052996356
56	0xbd935026	-0.071930215
57	0x3d231b11	0.039820734
58	0x3d9fa875	0.077958025
59	0x3e1e3c05	0.15452583
60	0x3dae94e0	0.085244894
61	0xbdd2afd5	-0.102874435
62	0x3d3a524d	0.045488644
63	0x3dbaaaae	0.09114586
64	0x3e84a1f6	0.25904816
65	0x3eb88886	0.3604166
66	0x3e35694c	0.17715949
67	0x3e12bc1d	0.14329572
68	0x3e8b4ffa	0.27209455
69	0x3e802f0d	0.25035897
70	0x3e9888b3	0.29791793
71	0x3e20445d	0.15651079
72	0x3e3d01cf	0.18457721
73	0x3ea1aab4	0.3157555
74	0x3e1a529f	0.1507058
75	0x3e675596	0.22591242
76	0x3ebe9e52	0.37230164
77	0x3e409f65	0.18810804
78	0x3e98fc7d	0.29880133
79	0x3e880173	0.26563606
80	0x3e1dc06c	0.15405434
81	0x3e73054a	0.23732486
82	0x3ea5b979	0.32368067
83	0x3ec216bc	0.3790797
84	0x3ea24735	0.31694952
85	0x3e88e3f0	0.26736403
86	0x3ec20465	0.37893978
87	0x3e1ee7b3	0.15518074
88	0x3e49ad6f	0.19695066
89	0x3eb65c44	0.35617268
90	0x3e920b26	0.2852413
91	0x3e2d2aa4	0.16910797
92	0x3e512412	0.20423916
93	0x3e98871b	0.29790577
94	0x3e44fb78	0.19236553
95	0x3eb81dc1	0.359602
96	0x3e699146	0.22809324
97	0x3e533585	0.20625885
98	0x3e59c983	0.21268277
99	0x3e8fa910	0.28058672
100	0x3e437965	0.19089277
101	0x3ebb2608	0.36552453
102	0x3ec3b8c9	0.38226917
103	0x3e8208df	0.25397393
104	0x3e3f66cb	0.18691556
105	0x3ea1b186	0.31580752
106	0x3e83920d	0.25697365
107	0x3ebf98d9	0.374213
108	0x3e51f719	0.20504417
109	0x3e57e808	0.21084607
110	0x3ec274de	0.37979788
111	0x3ea0bf77	0.31396076
112	0x3ea10158	0.31446338
113	0x3e49181f	0.19638108
114	0x3e3616c6	0.17782125
115	0x3e58c197	0.21167599
116	0x3ea935f8	0.33048987
117	0x3e5369eb	0.20645873
118	0x3eadd78a	0.33953506
119	0x3e5eab32	0.21744993
120	0x3e371ac2	0.17881301
121	0x3e174cc1	0.14775373
122	0x3e100904	0.14065939
123	0x3e61dacb	0.22056119
124	0x3e5baa73	0.2145174
125	0x3eb0debe	0.3454494
126	0x3e10b96d	0.14133234
127	0x3ea52740	0.32256508
128	0x3df84d9a	0.12124176
129	0x3e094519	0.13405265
130	0x3e619d31	0.2203262
131	0x3e0f75cc	0.1400978
132	0x3e547dff	0.20751189
133	0x3e6a1485	0.2285939
134	0x3e768a1e	0.24076125
135	0x3e8bb133	0.2728363
136	0x3e320831	0.17385937
137	0x3e7e26c2	0.24819472
138	0x3e759541	0.23982717
139	0x3e7b5cd9	0.24547137
140	0x3eb50b63	0.3536025
141	0x3e7c8f9d	0.24664159
142	0x3e0682b3	0.13135795
143	0x3e8d8b8e	0.27645534
144	0x3deffaed	0.11717782
145	0x3e86e0b3	0.26343307
146	0x3e01bcec	0.12669724
147	0x3e22e288	0.15906727
148	0x3e040a27	0.12894498
149	0x3e38e387	0.18055545
150	0x3ea38a30	0.31941366
151	0x3e93ad33	0.28843078
152	0x3ea31a92	0.3185621
153	0x3e9027c1	0.2815533
154	0x3eaa5ac4	0.33272374
155	0x3e3e4779	0.18581952
156	0x3eb0b3d6	0.34512204
157	0x3e1c603c	0.15271086
158	0x3eb38656	0.35063428
159	0x3e97c1af	0.29639956
160	0x3e69c887	0.22830401
161	0x3eb774ac	0.358312
162	0x3e93d20d	0.28871194
163	0x3e62d524	0.22151619
164	0x3e3e496e	0.18582699
165	0x3e9e522c	0.30922067
166	0x3e853fa5	0.2602512
167	0x3e31b3dc	0.17353767
168	0x3e6b73dd	0.22993417
169	0x3e550509	0.20802702
170	0x3e3ed20e	0.18634817
171	0x3e2b614e	0.16736338
172	0x3e86dc48	0.26339936
173	0x3e37a082	0.17932323
174	0x3dbd2ef9	0.09237475
175	0x3ea2a2ac	0.31764734
176	0x3ea3d332	0.31997067
177	0x3e505589	0.20345129
178	0x3e7b8e29	0.24565949
179	0x3e6c88b9	0.2309903
180	0x3e3bef12	0.18352917
181	0x3e8ece43	0.2789174
182	0x3e8eef6b	0.27917036
183	0x3e8c0778	0.27349448
184	0x3de6bea6	0.11266832
185	0x3de9e450	0.114205
186	0x3e87be20	0.2651224
187	0x3e91c585	0.28471008
188	0x3e8f83fe	0.2803039
189	0x3e0e9350	0.13923383
190	0x3e2e595f	0.1702628
191	0x3e4d8481	0.20070077
192	0x3e6c1d11	0.23057963
193	0x3ea2fe85	0.31834808
194	0x3e97291b	0.29523548
195	0x3e21f7ba	0.15817156
196	0x3e305bdc	0.17222542
197	0x3e97d245	0.2965261
198	0x3e64ae08	0.22332013
199	0x3df526c8	0.119702876
200	0x3e87fc30	0.2655959
201	0x3e9be337	0.3044679
202	0x3e98a6df	0.29814813
203	0x3e88fd1a	0.267556
204	0x3e91cf6d	0.28478566
205	0x3dd3ac85	0.1033564
206	0x3e5e82c6	0.21729574
207	0x3e4f4a64	0.20243222
208	0x3e56e75e	0.20986697
209	0x3e7acbb7	0.24491774
210	0x3e881dac	0.26585138
211	0x3dad6e86	0.08468346
212	0x3e09b457	0.134477
213	0x3e44aed0	0.1920731
214	0x3e8c33a1	0.2738314
215	0x3da29bd5	0.07939879
216	0x3e48dda6	0.19615802
217	0x3e061d88	0.13097203
218	0x3dd6c366	0.10486488
219	0x3e941837	0.28924724
220	0x3e329d2e	0.17442772
221	0x3e759e96	0.23986277
222	0x3e32b786	0.17452821
223	0x3dcb3fbc	0.09924266
224	0x3e43f331	0.19135739
225	0x3e965212	0.2935949
226	0x3e33c1cc	0.17554396
227	0x3de65dce	0.112483606
228	0x3da4921f	0.08035683
229	0x3e73660b	0.23769395
230	0x3df26163	0.11834981
231	0x3e581bd9	0.21104373
232	0x3d8df5e1	0.06931663
233	0x3db16c2b	0.086632095
234	0x3e9977f6	0.29974335
235	0x3e85ad43	0.2610875
236	0x3e80fe23	0.2519389
237	0x3e5455fe	0.20735928
238	0x3e885345	0.2662603
239	0x3e3f9e4b	0.18712728
240	0x3df96c02	0.12178804
241	0x3eb1833d	0.3467044
242	0x3e673d9f	0.225821
243	0x3ea2c592	0.3179136
244	0x3e13bc28	0.14427245
245	0x3ea0f402	0.31436163
246	0x3e80cde7	0.2515709
247	0x3e9db5dc	0.3080281
248	0x3e8eca7e	0.27888864
249	0x3e0eaf96	0.13934168
250	0x3e183b80	0.14866447
251	0x3e34149b	0.17585985
252	0x3df36833	0.11885109
253	0x3e649374	0.22321874
254	0x3e148082	0.14502147
255	0x3e4414c8	0.19148552

net.2.bias f4 [64]
0	0x3e0fdbc5	0.14048679
1	0x3eb70ec2	0.35753447
2	0x3e49f567	0.1972252
3	0x3dc7bb3c	0.09752509
4	0xbd64df75	-0.055877168
5	0x3eceec36	0.4041459
6	0x3e71036e	0.23536465
7	0x3d4cc201	0.049989704
8	0x3cd27918	0.025692508
9	0x3dfd013d	0.12353752
10	0x3df98ca8	0.12185031
11	0x3e7ba47a	0.24574462
12	0x3eae4bc6	0.34042186
13	0x3e8f7a07	0.28022787
14	0x3dafc324	0.08582142
15	0x3e7eb7d0	0.24874806
16	0x3e66b994	0.2253173
17	0x3d1ad28a	0.037798442
18	0x3dbf966d	0.09354863
19	0x3e53f9f6	0.20700821
20	0x3e6bbeed	0.23022051
21	0x3e49df5a	0.19714108
22	0x3dbbbfb8	0.09167427
23	0x3eb69ebb	0.35667977
24	0x3e8145e4	0.25248635
25	0x3c026aa3	0.0079599945
26	0x3dbe5841	0.09294177
27	0x3bb92613	0.0056502908
28	0x3e809ad8	0.25118136
29	0x3ed8f2f8	0.4237287
30	0xbd308ca2	-0.043102868
31	0xbd1e94be	-0.03871607
32	0x3e8cd7cc	0.2750839
33	0x3dcbe45c	0.099556655
34	0x3e2779e9	0.16355099
35	0x3e935cc2	0.28781706
36	0xbcc61b29	-0.024182873
37	0x3ca1392d	0.019680584
38	0x3dd39eef	0.103330486
39	0xbc38066b	-0.011231999
40	0x3e108055	0.14111455
41	0x3d2ecd22	0.0426761
42	0x3cdbb61b	0.026820233
43	0x3e80c06c	0.25146806
44	0x3e7793c2	0.24177459
45	0x3e4f73ae	0.20258972
46	0x3e53bece	0.20678255
47	0x3e97b9ae	0.2963385
48	0x3e6938f2	0.22775629
49	0x3da39b1c	0.07988569
50	0x3e5bd93b	0.21469586
51	0x3e76c8b5	0.24100001
52	0x3df11c7f	0.11773013
53	0x3ea849d4	0.32868826
54	0x3eb19003	0.34680185
55	0xbc9dbc42	-0.019254807
56	0x3e51a3b9	0.20472611
57	0x3ea98535	0.3310944
58	0x3dbaf66c	0.091290325
59	0xbca2d90c	-0.019878887
60	0x3c8bec84	0.017080553
61	0x3e65c8cb	0.22439878
62	0x3de1acd4	0.110192925
63	0x3da1428a	0.078740194

net.4.weight f4 [6, 64]
0	0x3d93c542	0.07215358
1	0x3de27414	0.110572964
2	0x3d34b370	0.044116437
3	0x3df0916d	0.11746488
4	0xbdfb4401	-0.1226883
5	0x3d7eb9e5	0.062189
6	0x3df7a0d7	0.12091225
7	0x3b937181	0.0044996147
8	0xbd3f0fb7	-0.046645846
9	0xbe28e0e6	-0.16492042
10	0x3e0167fc	0.12637323
11	0xbdc232db	-0.09482356
12	0xbdd5e77c	-0.10444543
13	0x3e01e0cc	0.1268341
14	0x3d96a151	0.073549874
15	0x3c5a1d9f	0.013312726
16	0x3ddeb01c	0.10873434
17	0x3d687654	0.05675347
18	0x3e08bdae	0.13353607
19	0x3db59ff5	0.088684
20	0x3e0347f1	0.12820412
21	0xbe04d30b	-0.12971132
22	0x3dcf51f6	0.10123055
23	0xbdcd3862	-0.1002052
24	0x3bcd2ca2	0.006261424
25	0x3d574678	0.05255744
26	0xbcd50974	-0.026005484
27	0x3bbe17a5	0.0058011585
28	0x3bc8a3d7	0.006123047
29	0x3d1a4ae7	0.03766909
30	0xbe19b657	-0.15010963
31	0xbe084023	-0.13305716
32	0x3cb8159e	0.022471245
33	0xbe16d179	-0.14728345
34	0xbd4b8a39	-0.049692366
35	0xbca284ef	-0.019838778
36	0xbd383751	-0.04497463
37	0x3db6b665	0.08921508
38	0x3d17426b	0.036928575
39	0xbcca09fb	-0.024662962
40	0xbd03f159	-0.03221259
41	0xbca3a514	-0.019976176
42	0xbd6a2ca3	-0.057171475
43	0x3de93c43	0.11388447
44	0xbde157d7	-0.11003082
45	0xbda64e20	-0.0812037
46	0xbe3320e5	-0.17493017
47	0x3d9a3594	0.075297505
48	0xbe19bdd0	-0.15013814
49	0xbc9380a3	-0.018005675
50	0xbdcd9c33	-0.10039558
51	0xbdf7b3a0	-0.120948076
52	0xbdac2091	-0.08404649
53	0xbe225c85	-0.15855606
54	0xbe171611	-0.14754511
55	0x3c58ab97	0.013224504
56	0x3de8b20b	0.11362084
57	0x3c96e6e7	0.01842065
58	0x3de622de	0.11237119
59	0xbe06bb5d	-0.13157411
60	0xbe13113d	-0.14362045
61	0xbde5b0aa	-0.112153366
62	0xb83bc8e0	-4.4771354e-05
63	0xbdaf04d6	-0.08545844
64	0x3e838f43	0.25695238
65	0xbd9db479	-0.07700438
66	0x3d5077b8	0.050895423
67	0x3cd906f5	0.026492575
68	0xbc68a067	-0.014198399
69	0x3dff9dbc	0.12481257
70	0x3dc79cf8	0.09746736
71	0xbd1585f2	-0.036504693
72	0xbdde5d59	-0.108576484
73	0x3cdef9c7	0.027218712
74	0xbd065a0d	-0.032800723
75	0xbd12848f	-0.03577095
76	0x3d3099c2	0.043115385
77	0x3d8d660a	0.06904228
78	0x3e31817f	0.17334555
79	0x3d2d48b9	0.04230568
80	0x3d1e1027	0.038589623
81	0x3e30b2d1	0.17255713
82	0x3e0e7c63	0.13914637
83	0x3e12029e	0.14258811
84	0x3e19c533	0.15016632
85	0x3c449a3b	0.011999662
86	0xba9edf24	-0.0012120944
87	0xbdbbad2f	-0.091638915
88	0x3e212ea0	0.15740442
89	0xbc5d4b79	-0.013506764
90	0x3e4f97c8	0.20272744
91	0xbdbdba31	-0.09264029
92	0xbd0a46e0	-0.033758998
93	0x3dc10b95	0.09426037
94	0xbc25e01b	-0.010124232
95	0x3d8243ac	0.06360564
96	0xbdb4493e	-0.08803032
97	0xbdfcb12c	-0.1233848
98	0xbd422c10	-0.047405303
99	0xbdbda873	-0.09260645
100	0x3e4104c7	0.18849479
101	0x3e0e0644	0.13869578
102	0xbb290cb0	-0.0025794916
103	0x3d11c79e	0.03559076
104	0xbdaa4abe	-0.08315037
105	0x3e6728e8	0.22574198
106	0x3c553203	0.013012412
107	0x3d8b7e77	0.06811231
108	0x3e131bca	0.1436607
109	0xbce34fb2	-0.027747963
110	0x3da2c339	0.07947392
111	0xbbe2f2a6	-0.0069258986
112	0x3daf8567	0.08570366
113	0xbd02baee	-0.03191655
114	0x3cfc2564	0.030779548
115	0x3da60178	0.08105749
116	0x3d80a6e6	0.06281833
117	0xbbd5c83c	-0.006524114
118	0x3d54fbaa	0.051997818
119	0xbbfe6050	-0.007762946
120	0x3e05872d	0.13039847
121	0xbd73767c	-0.059439167
122	0xbd20a3b7	-0.03921863
123	0xbdf4f5a7	-0.11960917
124	0x3d31b7be	0.04338812
125	0x3df076c4	0.11741403
126	0x3e2e0cfe	0.16997144
127	0xbdba55b1	-0.090983756
128	0xbde60690	-0.112317204
129	0x3c527d5c	0.012847271
130	0x3d0d67e1	0.034522895
131	0xbc095de1	-0.008384199
132	0xbc248e84	-0.010043744
133	0xbcc4954e	-0.023996975
134	0xbc1b9e31	-0.009498165
135	0x3d7f266e	0.06229251
136	0xbc47cbc8	-0.012194581
137	0x3d45d2b2	0.048296638
138	0x3c27b16f	0.010235175
139	0xbd89dddf	-0.06731772
140	0xbce9d117	-0.028542085
141	0x3d46ced0	0.048537076
142	0xbdd959f8	-0.10612863
143	0x3d162e86	0.036665462
144	0x3d5e7adf	0.054316398
145	0x3e048f35	0.12945254
146	0x3cf50a60	0.029912174
147	0x3d463b04	0.048396125
148	0x3d6bda39	0.05758116
149	0x3d74f81b	0.059806924
150	0x3c5cba6a	0.013472179
151	0x3d3c8ebb	0.046034556
152	0x3d5f1236	0.054460727
153	0xbd32c3a8	-0.043643624
154	0xbd96aed3	-0.07357564
155	0xbe4689a6	-0.19388446
156	0xbc9efcbf	-0.019407628
157	0x3d383853	0.04497559
158	0x3ba08800	0.004899025
159	0xbdad1231	-0.08450735
160	0x3d6c6725	0.057715554
161	0xbdbbcca6	-0.09169893
162	0x3de09958	0.10966748
163	0x3e158ab7	0.14603697
164	0xbd7703b3	-0.060306262
165	0x3dd027e7	0.10163861
166	0xbdf122b4	-0.11774197
167	0xbd18bd74	-0.03729005
168	0x3e47e1f7	0.19519792
169	0xbdd9749e	-0.10617946
170	0xbcd64f91	-0.026160987
171	0xbd3098f0	-0.043114603
172	0xbda8c836	-0.08241312
173	0x3d7a49fb	0.06110571
174	0xbd89b75b	-0.067244254
175	0x3b60853a	0.0034259097
176	0x3d606304	0.05478193
177	0xbd26d52c	-0.04073064
178	0xbd6b3efe	-0.05743312
179	0xbd1fd21b	-0.03901873
180	0xbce31995	-0.02772216
181	0x3cceef89	0.025260704
182	0x3df04283	0.11731436
183	0x3e00e972	0.12589052
184	0xbd91aad6	-0.071126625
185	0x3d27331b	0.040820222
186	0x3df74181	0.12073041
187	0x3b96b603	0.004599334
188	0xbdbebb28	-0.09313041
189	0xbd98e6a9	-0.0746587
190	0xbc89b853	-0.016811525
191	0x3e0ad54a	0.13557926
192	0x3dc97d27	0.09838324
193	0x3e01013d	0.12598129
194	0x3e3c31ad	0.18378325
195	0xbc4f5847	-0.012655324
196	0xbd63b551	-0.05559284
197	0x3e379a0b	0.17929856
198	0x3d3a150c	0.045430228
199	0xbe04fa63	-0.1298614
200	0x3d001d95	0.03127821
201	0x3e3869f2	0.18009165
202	0xbbd503e4	-0.006500708
203	0x3db25d7a	0.087092355
204	0x3e501b02	0.20322803
205	0x3e70ed36	0.23527989
206	0x3de66792	0.11250223
207	0x3de5dd4f	0.11223852
208	0x3db3aab1	0.08772791
209	0x3d6bd8f7	0.05757996
210	0xbe2eed7c	-0.1708278
211	0xbcc16faf	-0.023612825
212	0x3e216eed	0.15764971
213	0x3d30bc90	0.043148577
214	0x3e3e74a4	0.18599182
215	0x3e722d80	0.2365017
216	0x3e61d8c2	0.22055343
217	0xbd49e17e	-0.04928731
218	0x3e2a8814	0.16653472
219	0x3c73db11	0.0148837725
220	0x3db83891	0.08995164
221	0x3e1a56dd	0.15072198
222	0xbcf2b5c6	-0.029627692
223	0xbd361e27	-0.04446235
224	0x3e67960c	0.22615832
225	0x3ca1b352	0.019738827
226	0x3de24d88	0.11049944
227	0x3e474d08	0.19462979
228	0x3e700af4	0.23441678
229	0x3daaa2ca	0.08331831
230	0x3d8aeb8d	0.06783209
231	0x3d3bf634	0.045889094
232	0x3e691f22	0.22765782
233	0x3e1e61bc	0.1546697
234	0xbca6f474	-0.020380236
235	0x3e55a585	0.20863922
236	0x3e041a66	0.12900695
237	0x3e79c317	0.24390827
238	0x3e86762f	0.26262042
239	0x3d1a21a1	0.037629727
240	0x3e1de604	0.15419775
241	0xbcf677c6	-0.03008641
242	0x3e4e9769	0.20174946
243	0x3e247880	0.16061592
244	0x3c0be2ff	0.008538007
245	0x3e04866e	0.12941906
246	0x3de50503	0.111825965
247	0xbc0b38c5	-0.008497422
248	0xbd7806fe	-0.060553543
249	0x3e2669fa	0.16251364
250	0x3cf47b7d	0.02984404
251	0x3d149df6	0.036283456
252	0xbda09902	-0.07841684
253	0x3d32ed1f	0.043683168
254	0x3d9bb598	0.07602996
255	0x3cdf962b	0.027293285

net.4.bias f4 [6]
0	0xbd27e10a	-0.0409861
1	0x3c6e94c7	0.0145618385
2	0xbd6640e2	-0.05621422
3	0x3bae1913	0.0053130477
4	0x3da928df	0.08259749
5	0x3e6ad7a6	0.22933826
