notebooks/checkpoints/generator_epoch10.pth (torch, 25324 bytes, 6 tensors)

net.0.weight f4 [64, 16]
00000000: 9c27 f8bb 71cf c63d f508 ebbd 1248 dcbd
00000010: a7db 833d b348 cabc 0df3 583e a69e d33d
00000020: 5f81 90bd 587b 24be 3cd8 32be 2b25 ec3c
00000030: 7c8b 1ebe 8465 723e c101 043d fddf f03d
00000040: a9c5 4abe ddb0 fabc d7ac 58be 165b 40be
00000050: eb4f 2cbe 67b7 74bd e16e 223e 0ebb 24bd
00000060: 1029 7b3d 7678 103e e182 c63d dbb3 a63c
00000070: cbe6 6d3e d63b f23d ae81 bf3b bad3 0abd
00000080: e226 693e 1347 48be 49d1 d43d 237a 8abe
00000090: fee3 87be 124c 003e c29d 5b3e 57ce 26bd
000000a0: 6420 2d3e 171f d0bd 3780 4b3e f15a 20be
000000b0: e678 8a3d e6da f3bd 2367 fabd 0b70 96bd
000000c0: b13e 7fbe 1aec 64be fba3 803e fae5 88be
000000d0: 296b 14be 86c0 3a3e 4830 543a 4aba 6dbe
000000e0: f73e d43d cad6 723d 72b8 fd3c 6426 ce3d
000000f0: 507b c53d 5491 f93c a5ad 953d b53e 573e
00000100: 4fee 473e 3a41 3abe 4e27 fcbc 2e95 083c
00000110: 1365 bc3d 6cdf 583e 0d75 573d 0b04 5dbe
00000120: c7a1 4bbe 02cf 1c3d dbf2 0abe 2474 58be
00000130: 0388 9bbd 0c76 a6bd 1e9e 2cbe a514 0ebe
00000140: 0c38 643e 7f39 49be 1aad 31be 1afa 3cbd
00000150: e577 41be e99c 3e3e 66ea ac3d 1aa0 13be
00000160: ab47 5fbe 58d2 733d 4a1c b33d eb6a c5bd
00000170: 2724 ef3d a0d9 24be d8ab 23be 0778 e6bd
00000180: abe5 783e 64e9 85be 3cc1 13be f438 723c
00000190: 6f26 a53d e1db 5cbe df12 c03c 1899 16be
000001a0: 88e3 a0bd 3968 02be a04c 94bd 8c05 39be
000001b0: a970 293e b207 dabd f2ec 11bd b58b d0bd
000001c0: bda8 bcbd defd 143e 4248 86be f6a2 f53d
000001d0: cf22 6fbe 0c95 7b3e d9be 5b3c f2a0 f83d
000001e0: 4851 943d 45fd 3bbc 6639 183e b528 5abe
000001f0: 0d17 f63d c6b1 08be cfd4 3cbd a169 633e
00000200: 3e4b c73d 355a 36be 6853 37be f31a 8ebd
00000210: c1ce 6c3e 14c3 be3d 1a56 c3bd e646 1ebe
00000220: 7330 20be e80e f4bd 61f1 d33d 3c56 73be
00000230: d426 7abc b92b 5ebe 25f1 573e c45d 4f3e
00000240: 9d5f d03b 3a94 61be d12b 433e 95ce e7bd
00000250: 31e4 573e 12a2 583a cda2 6e3e 38b5 f53d
00000260: fd23 0dbe 823f 32be e61e ec3c a0e0 1c3c
00000270: cef7 7fbe 62ca 853e 03bb ae3d b318 693e
00000280: b6db 46bd 5e3e efbd d2fd f4bd c9e4 193d
00000290: 82bc 46be 2179 843e 4fe5 f7b9 aace 31be
000002a0: 9a09 3d3e e944 3d3e 8d65 f6bd 5f07 29bb
000002b0: 7ff3 42bd c642 353d 3a8f 573e b74e 8c3e
000002c0: 8879 f1bd bf2a 103e 791a 8fbe 3b96 5fbe
000002d0: e6e5 13bc edcb 6bbe 081e 93be fcd7 993d
000002e0: fbe5 603e e97f 06ba a5de d8bd 5e4d 843e
000002f0: 041a 84be e6bd 0dbe 5eff 853e f835 1abe
00000300: 0503 533e a9b9 8d3d c906 903c a122 c5bd
00000310: 432f 233d 2b68 263d e991 e13d 8352 453e
00000320: 5356 8bbc 26cf 27be d521 3b3e 2bb5 12be
00000330: a24a 12be c1c2 2b3e 0d76 cbbd ef99 37be
00000340: e152 d33d 4c3b 723e 3ecb ce3c c1d2 8f3c
00000350: d4d6 0fbe f0ff 623e d723 2ebe 36c7 383e
00000360: bbdd e43d 840c 13bd bc5c 0dbe 5204 e93d
00000370: b5a4 68be 4bbe babd e5ef cabc 6b71 dcbd
00000380: 35ab 92bd 45e9 fb3c 4c34 0f3e ffee a53c
00000390: 4a81 733e 7869 c83d 2ff8 793d 0eda a43d
000003a0: a2a5 25be a411 0b3e f63b f83d b65f 37be
000003b0: 67a9 303e c77b 5d3e 25cc 63be 4bc3 383e
000003c0: 0da3 1c3e bcad 5abe b85f 583e 920c 3cbe
000003d0: 318c bebd deb6 b3bd aeb5 4d3e 023f 4ebd
000003e0: 5c31 51be 8b31 603e 1b5f 693d 0e62 e03d
000003f0: 8dbc 1b3d 2037 13be 6dac 0bbe 3112 45be
-0.007573081 0.09707535 -0.11476318 -0.10755934 0.0643838 -0.024692869 0.21186467 0.10332994
-0.070559256 -0.16062677 -0.174653 0.028826317 -0.15482897 0.23671538 0.032228235 0.117614724
-0.19801964 -0.030601913 -0.21159683 -0.18784747 -0.16827361 -0.05974522 0.1586261 -0.04021745
0.061318457 0.14108452 0.09692932 0.020349434 0.23232572 0.11827819 0.0058443164 -0.033893324
0.22768739 -0.19558363 0.103914805 -0.27046308 -0.26541132 0.12529019 0.21446899 -0.040724125
0.16906887 -0.1016218 0.19873129 -0.15659691 0.06761341 -0.11906986 -0.12226703 -0.07345589
-0.24926259 -0.2235569 0.25125107 -0.26737958 -0.14494003 0.18237504 0.00080943527 -0.23215595
0.10363572 0.05928687 0.03097174 0.10065916 0.096426606 0.030464806 0.07308511 0.21020015
0.19524501 -0.18188944 -0.03078046 0.008336348 0.09198966 0.21178979 0.052601863 -0.21583574
-0.19885932 0.038283356 -0.13569205 -0.21138054 -0.075943016 -0.081279844 -0.16857192 -0.13875063
0.22287005 -0.1965084 -0.1735119 -0.046136953 -0.18893392 0.18614544 0.084431455 -0.14416543
-0.21804683 0.05952677 0.0874563 -0.096395336 0.116768174 -0.16098642 -0.15983522 -0.11253362
0.24306361 -0.26154625 -0.14429182 0.0147840865 0.08063971 -0.21568252 0.023446498 -0.14706838
-0.07855898 -0.1273507 -0.072411776 -0.18068522 0.16546883 -0.10645999 -0.03562636 -0.10182897
-0.09211872 0.14549968 -0.26227003 0.11993973 -0.23353122 0.24568576 0.013412201 0.12140073
0.07242066 -0.011473958 0.14865646 -0.21304591 0.12016115 -0.13349065 -0.046101388 0.22208263
0.09731148 -0.17807849 -0.1790291 -0.06938734 0.23125745 0.09314552 -0.09537907 -0.15456733
-0.15643482 -0.11916906 0.10348774 -0.23763365 -0.015268046 -0.21696366 0.21088083 0.20250612
0.0063590542 -0.220292 0.19059683 -0.11318699 0.21083142 0.00082638965 0.23304291 0.11997455
-0.1378326 -0.17407039 0.028823327 0.009575039 -0.24996874 0.26130968 0.085317634 0.22763328
-0.048549376 -0.116818175 -0.11962475 0.037571702 -0.19407848 0.25873664 -0.0004728236 -0.17363992
0.18460694 0.18483318 -0.12031088 -0.0025791747 -0.047595497 0.044253133 0.2105073 0.27403805
-0.11790758 0.14078806 -0.27949885 -0.21834652 -0.00902698 -0.2302701 -0.2873385 0.07511899
0.2196273 -0.00051307544 -0.10589341 0.25840276 -0.25801098 -0.13841972 0.26171392 -0.1505965
0.2060662 0.069201775 0.01758136 -0.096257456 0.039839994 0.040626686 0.11014158 0.19269757
-0.017008936 -0.16387615 0.18274625 -0.14326923 -0.14286283 0.16773511 -0.09934626 -0.17929815
0.10318542 0.23655432 0.025243398 0.01755655 -0.14046794 0.22167945 -0.1700586 0.18044743
0.11175104 -0.035900608 -0.13804907 0.11377777 -0.22719081 -0.09118327 -0.024772594 -0.1076382
-0.071615614 0.03075088 0.13984793 0.020255564 0.23779789 0.097857416 0.061027702 0.08049403
-0.16176465 0.13580948 0.12120812 -0.17907605 0.17252122 0.21629249 -0.22245844 0.18043248
0.15296574 -0.21355337 0.21130264 -0.1836417 -0.09304083 -0.087751135 0.20088837 -0.050353058
-0.20428985 0.21893899 0.056975465 0.109562024 0.038021613 -0.14376497 -0.13639994 -0.1924522

net.0.bias f4 [64]
00000000: 5a62 743e eee6 75b9 da80 01bd aec0 263e
00000010: 4c35 48be be0f 563e 4f4a 2f3e 492e 623e
00000020: aa9e 3b3e 0f60 bf3d e153 673e 52e7 9139
00000030: 20a0 073e cc55 403e 25b4 343e a45a 603d
00000040: 885e 303e 82af a2bd c992 b03d efa4 5a3e
00000050: 7f37 e13d 4639 99bd 89be 2b3e f068 bebd
00000060: 1675 16be f441 f73d 92a4 673d ff44 6b3e
00000070: 6eb4 533d 1840 02be 2ff0 4ebd 671c 223e
00000080: 132a 5fbe 8ca5 9fbd f7b5 69be 5640 553e
00000090: 3f0e e9bd a4d5 903d c891 ddbd 9e73 4cbd
000000a0: 3cb3 7c3d ba78 673e 8f0d 783d 0258 1a3e
000000b0: ee45 53be 4b07 14bd 314e 8f3e 43c8 493e
000000c0: aece 24bd 39ab 24bd 30a4 5a3e d489 433e
000000d0: 5b38 143e b76e 893e 6f65 343e 9628 8b3d
000000e0: 0fb6 1e3e f79f 663e 1b25 19be b055 f3bc
000000f0: 01dc 623e 0db1 803e eaa5 883e 0583 803d
0.23865643 -0.00023451049 -0.031617023 0.16284439 -0.19551581 0.20904443 0.1711819 0.22087969
0.18322244 0.093444936 0.22590591 0.00027828902 0.13244677 0.18782729 0.17646845 0.05477394
0.17223561 -0.07943632 0.08621747 0.2135198 0.10996913 -0.07481627 0.16771902 -0.09297359
-0.14693102 0.120731264 0.05655343 0.22975539 0.051685743 -0.12719762 -0.050522026 0.15831147
-0.21793394 -0.077952474 -0.2282332 0.20825323 -0.1137967 0.07071999 -0.10818821 -0.04991495
0.06169437 0.22604647 0.060559805 0.15072635 -0.20632145 -0.036139768 0.27989343 0.197053
-0.040236168 -0.040202353 0.21351695 0.19095546 0.14474623 0.2684228 0.17616819 0.067948505
0.15499137 0.22521959 -0.14955561 -0.029703945 0.22154237 0.2513508 0.26689082 0.0627499

net.2.weight f4 [64, 64]
00000000: 6009 d1bc d42f 713c 0798 fabc 85a0 9d3d
00000010: 0a23 c7bd f672 163d 6f1c 983d f3bc d23c
00000020: d52c fe3c 2001 91bd c323 983d 4bd0 523d
00000030: 5b26 c43b 1c11 1f3d 3934 f4bd 407c 05bd
00000040: 2bdc e8bd 8c54 563d 98f8 d3bb 8ac5 0cbc
00000050: c41c 3e3d 8cd0 c4bd 7df7 db3d fcb5 983c
00000060: 6dfe 553d 1c67 febd 6bc0 fdbd 6ce6 babd
00000070: 90ae 703d 6abd 983d 58f0 663d 7dbc bc3d
00000080: 5336 08be 72e0 a03d c3ff 58bd 0448 d63d
00000090: 3a33 edbd d212 63bc c72f c6bd 72e5 4abd
000000a0: 089e d13d a576 b7bd 04c0 cabd dd35 393d
000000b0: a39f ec3c 4a8e b2bd d449 0b3c bb4b 00bd
000000c0: a00a 0b3d 931f cabd c41c a8bd 0d93 0b3d
000000d0: 18a6 f2bd 9f71 453d d7ed cabc 93e0 703d
000000e0: 89e2 d1bd 041e d3bc 3eab 6e3c 113b b13d
000000f0: 3093 b83c 7fb2 e6bd 06fb 9dbb a7fc 0a3d
00000100: 5c26 873b 79a4 f63d ba5a a9bd 53af debd
00000110: 2bf4 f23b 6d01 293c a1dc 073d d095 acbd
00000120: dda3 a4bd 2ca4 3d3d 8ad9 89bd 76ff 15bd
00000130: 8372 dd3d 3f23 77bd b6d6 003d 3422 d5bb
00000140: 0256 dabd fd9a 933b a634 543d 6c96 fa3d
00000150: 76bf c73d f6c2 623b 88c7 df3d fb79 89bd
00000160: 7943 90bd 6177 ee3d 8b21 a4ba 19a7 ddbd
00000170: 2841 2bbd 1065 133d 59ba 96bd 863e f03d
00000180: 8f5f b9bd 39dd 25bd 8e3e 0dbd 1695 c73c
00000190: 5a38 4cbd 89c4 ad3d cf42 ea3d 67f7 72bc
000001a0: bcb8 e8bc 700c b03d e1e4 adbc ddf7 ff3d
000001b0: dc8b c7bd 689b 4cbd d691 d73d d4ac b93c
000001c0: 2a8a 5d3d 2fab b9bd 59cb c0bd 2a90 80bd
000001d0: b4dc a23d cef0 01bd 587d b13d c4ff 7fbd
000001e0: 31b8 d0bd fb07 e7bd a36d eebd 6627 3bbd
000001f0: c745 27bd ad85 8b3d 98a4 f1bd 1fde 653d
00000200: 4ada 84bd 0fb2 8bbd db4e b63c 8dfc 40bd
00000210: b034 41bb 5da7 263d 7b99 653d 20b9 ba3d
00000220: 73f9 b6bb 84e5 853d 6668 5a3d 6092 553d
00000230: ceaa 253e daba 5e3d 6de0 5cbd 12dc a73d
00000240: 8e08 90bd 6c66 653d 7638 83bd eb48 e0bc
00000250: d829 86bd 7e9c 73bc ef2b 0a3e 8c1c a53d
00000260: 9279 e93d 7b56 c83d 0949 0f3e e667 f73b
00000270: 7979 153e c428 7cbd 4478 213e a5fa ec3d
00000280: 1f54 8c3c 7a95 233e a16e 913d b9c1 213d
00000290: dcd9 59bc bf8f df3d 3c23 723d a071 b6bc
000002a0: acd2 143d 12b9 bc3c 3f7f cabb b857 91bc
000002b0: 2a36 803d 21b2 91bb 6d86 aebd 925f 0a3e
000002c0: 88f8 fe3d d6db e53b e4b7 883d 65c6 433d
000002d0: 2764 00bc a511 c63d 220b cc3d 29a4 a63d
000002e0: 1780 91bd e86b 94bd 5502 803d 5d8e b03d
000002f0: 557f bc3d 97df 30bd 8f03 3cbc 7e77 da3b
00000300: 6b1e 7e3d 69de 133e fbc2 f73d 8db3 d3b9
00000310: ce79 57bc 6530 093e 86de 543d 271f 47bd
00000320: bd01 ce3d e960 073e 2d92 173e 2b6c e43d
00000330: 43c1 de3d 76ce 5cbd 7cbc ed3c 4bc8 e03c
00000340: d75d 183d 7dc1 a43d 9225 bf3d 1ff6 92bd
00000350: e839 9bbc f509 893c 28e4 b33d 170e 91bd
00000360: 334e d03c c987 f9bc e36f 81bd 9d57 e03d
00000370: 6fec 2f3b 6073 783d 0a43 e3bb 9aa4 a2bd
00000380: 926e a5ba b3ba 083e 450f bfbb f79a 46bd
00000390: 02ab 92bd b63f 583d 52ac 5dbd 07dc 173d
000003a0: e6a4 afbd b4ee 84bd b6ab 053e 2963 c73d
000003b0: 7684 6d3d aad4 0e3d 7785 c93d fc77 0b3c
000003c0: 0887 54bd 728b 1d3e a2f5 7b3d da35 153e
000003d0: 9824 aebc ef32 1a3e 5d56 a53d 55df 003e
000003e0: e865 de3d b3b7 9ebc c6d5 43bc 1e46 b43b
000003f0: 5cac 25bd 097b 2a3d 28bb c3bc e011 cb3c
-0.025517166 0.014720876 -0.03059007 0.07696632 -0.0972348 0.03673073 0.07427298 0.025724864
0.031027237 -0.07080293 0.07428696 0.051468175 0.0059860176 0.038834676 -0.11924023 -0.032589197
-0.11370119 0.052326724 -0.0064688437 -0.008592019 0.04641415 -0.0961009 0.10740564 0.018641464
0.052244592 -0.1242201 -0.123902164 -0.09125981 0.058760226 0.07458003 0.056381553 0.09215639
-0.13301973 0.078553095 -0.05297829 0.10462955 -0.11582036 -0.013859468 -0.096770816 -0.049535222
0.1023522 -0.089581765 -0.09899905 0.045217384 0.028884714 -0.08718546 0.008501489 -0.031322222
0.03394568 -0.098693036 -0.082086116 0.034075785 -0.11848086 0.04820406 -0.024771614 0.05880792
-0.10248286 -0.025771149 0.0145671945 0.08653844 0.022531122 -0.11264514 -0.004821184 0.033932354
0.004124446 0.120430894 -0.08269258 -0.10873284 0.007414361 0.010315281 0.033169392 -0.08427012
-0.08039067 0.046299145 -0.067309454 -0.03662058 0.10812857 -0.060336348 0.031454764 -0.0065043215
-0.10660936 0.00450456 0.051808022 0.12235722 0.09753315 0.003460107 0.109267294 -0.06712719
-0.070441194 0.116438635 -0.0012522204 -0.10822887 -0.041810185 0.035985053 -0.07359762 0.117306754
-0.090514295 -0.040494177 -0.034483485 0.024363082 -0.04985843 0.08484752 0.11438524 -0.014829493
-0.0284084 0.08596122 -0.021227302 0.12498448 -0.09743473 -0.049952894 0.10525863 0.022665419
0.05408684 -0.09065854 -0.094137855 -0.06277497 0.07952252 -0.03172379 0.086664855 -0.062499776
-0.10191382 -0.11280819 -0.11642005 -0.04569187 -0.04083803 0.06812606 -0.11798972 0.056120034
-0.06486948 -0.06821071 0.022254398 -0.04711585 -0.0029480867 0.040686954 0.056054574 0.09117341
-0.005583936 0.06537917 0.05332222 0.052141547 0.16178438 0.054377414 -0.053924967 0.08196272
-0.07032882 0.05600588 -0.064072534 -0.02737852 -0.0655095 -0.014868854 0.13493322 0.080620855
0.11400141 0.0978212 0.13992704 0.0075502275 0.1459712 -0.061562315 0.15768534 0.11571244
0.017129956 0.1597499 0.07101179 0.03949139 -0.013296571 0.10916089 0.059115633 -0.022270977
0.036333725 0.023037467 -0.0061797197 -0.017742023 0.06260331 -0.0044462834 -0.085217334 0.1351302
0.12449747 0.007014732 0.06675699 0.047796626 -0.007836378 0.09671334 0.09963061 0.0813678
-0.07104509 -0.07247144 0.06250445 0.08620904 0.09203974 -0.043181982 -0.011475458 0.0066670766
0.062040728 0.14440311 0.120977364 -0.00040378832 -0.013151599 0.13397367 0.051970027 -0.048613694
0.10058925 0.13220562 0.14801855 0.11153444 0.108767055 -0.053907834 0.02902054 0.027439257
0.037198868 0.080447175 0.09333338 -0.0717585 -0.01894851 0.01672838 0.08783752 -0.070827655
0.025427913 -0.030460255 -0.06320169 0.10954211 0.0026843806 0.060656905 -0.006935482 -0.079415515
-0.0012621453 0.1335247 -0.0058306777 -0.04848763 -0.071615234 0.052795134 -0.054119416 0.03707507
-0.08576374 -0.064908415 0.13053784 0.0973571 0.057987653 0.03487078 0.098399095 0.008512493
-0.05188659 0.15385225 0.06151355 0.14571324 -0.021257684 0.15058492 0.08073113 0.12585194
0.10859281 -0.019374704 -0.011952823 0.0055015227 -0.040447578 0.04162124 -0.023892954 0.024788797

net.2.bias f4 [64]
00000000: f6c7 d13d 45c2 043e 66da 543d 436a 27bd
00000010: 5ff1 43bd c02d 303e e3ad da3d c990 5c3d
00000020: 71b4 003d 3d28 85bd e161 abbc ebec 4f3d
00000030: 5383 c03d 69cf ec3d ccfa 9bbd 6d02 96bc
00000040: ae70 d43d 19f1 5e3d 8925 003e b858 ce3d
00000050: 5248 713d 03ea 8c3b 3384 203c 4369 903d
00000060: 248b da3d fc9d da3c 11c9 77bc 290b 043c
00000070: 3330 af3d cb77 3c3e 6857 f8bd a3c2 83bd
00000080: 3cb8 d63d 5532 eabc c63d 62bc a3ed 0d3e
00000090: 5200 fabd d882 2cbd 7fec dc3d 35ef f5bd
000000a0: a88c 843d ab25 bebd 7812 243d dad6 433d
000000b0: 7e87 bb3d 0e51 ad3d 4e8e 103d a481 163e
000000c0: 434a 1a3d af91 aa3d a894 043d e59c e23d
000000d0: 9afc 6dbb 15a7 b63d c9d5 d43d d974 1939
000000e0: 23a8 9f3d 7ca8 153d 19cd 433c 47a6 73bd
000000f0: da4e 43bc ff00 983d 6d1d abbd 581b c4bd
0.10243218 0.12964733 0.051966093 -0.040872823 -0.04783761 0.17204952 0.106776975 0.053849015
0.031422082 -0.065018155 -0.020920696 0.050763052 0.09400048 0.11562998 -0.07616195 -0.018311704
0.103730544 0.054429147 0.12514319 0.100755155 0.05890686 0.0043003573 0.009797144 0.07051327
0.1067107 0.026686661 -0.015123622 0.008059301 0.08554115 0.18405072 -0.121260464 -0.064336084
0.10484359 -0.028588453 -0.013808673 0.13860182 -0.12207092 -0.04211697 0.107872956 -0.12008516
0.064721406 -0.09284528 0.040056676 0.04781232 0.091567025 0.084627256 0.035291962 0.14697891
0.037668478 0.08328568 0.032368332 0.110650815 -0.0036313892 0.08918587 0.10392339 0.00014634746
0.077957414 0.036537632 0.011950755 -0.059484746 -0.011920655 0.07422065 -0.08355222 -0.09575528

net.4.weight f4 [6, 64]
00000000: 396c 953d 7420 043e 38c6 a23d b7c9 103e
00000010: 6b57 f2bd 459c c93d edbe 1d3e b692 d43b
00000020: 608d 31bd 3cce 03be 0392 203e f20d 7abd
00000030: 63f4 5fbd bd26 263e a066 db3d a1eb 4d3d
00000040: 8a98 143e 343c 613d beda f13d 0e4d f93d
00000050: 84a4 253e 9dbc a1bd f6a2 033e 9d3d f4bc
00000060: cd2c 303d 8c10 683d f4b9 45bc eb2f f03c
00000070: 8f8b d63c 6f02 953d 02d4 07be 8266 08be
00000080: c979 663d 5011 fcbd b80c 92bc 0272 a93c
00000090: b305 3dbc b151 033e e8bd 1a3d 8857 29bc
000000a0: 724e 1d3c aded 533b 97a2 3fbd 1c50 183e
000000b0: 06e0 a9bd 3cd2 9cbd 5c2c f1bd 7758 dd3d
000000c0: 459e 0fbe 54db 5ebc f3ba 84bd 9638 cabd
000000d0: d1cf 5ebd ffbc d5bd d8a4 c8bd 11c2 9b3c
000000e0: 6f68 fe3d 0909 2b3d 8556 183e 5bcf efbd
000000f0: a46b 0bbe c457 acbd b534 1f3d 7225 3fbd
00000100: 3bfc e93d e867 b5bd 94b3 323d 9a38 363d
00000110: 4095 7ebb e307 c83d ecd0 bc3d e2cb 11bd
00000120: 2e00 e0bd 54d0 8abc 7b3c 05bd 0a84 65bd
00000130: 12eb 8f3c 1683 4f3d ea4a 123e 2d37 cc3c
00000140: fc68 293d 8d91 d83d 476c 0b3e 76e3 0b3e
00000150: 5c92 053e d6bb 853b 58bb ac3c 5a09 cdbd
00000160: dc9b 043e abc6 63bc ce42 f73d 13a8 a2bd
00000170: 8ddb 13bd 0c23 943d 5c85 ae3a f20e e03c
00000180: 49fc babd 9032 91bd 7cd5 65bd 72c5 c0bd
00000190: 7784 b43d 553e ef3d 93fb 59bc a153 743c
000001a0: 901e b7bd a7ae 113e a417 b03c cb4a 233d
000001b0: 723a d83d 4bd0 89bd 2c37 043d a142 23bc
000001c0: 2a56 1e3d ea13 16bd 6857 efbb 700f 163d
000001d0: 80ba c33d 4b8a bebc a0e2 f43c 4259 08bc
000001e0: d18a 083e 7186 d1bd 74b1 9dbc 0f28 5fbd
000001f0: b8ef 1b3d 2650 bb3d 3ca9 133e 594b a7bd
00000200: 7e91 d6bd b8c6 483c 1e8b 8d3c b592 57bc
00000210: ea38 8ebb 4fb9 89bb 5f31 54bb e84b 843d
00000220: fdbb 19bc 9189 943d e874 4f3c 58f4 28bd
00000230: e414 56bc 7a1a 373d 6d34 c2bd 5ba6 533d
00000240: e478 543d e70d e13d 495a 9d3d 6b4c 783d
00000250: db63 8d3d d03c 9b3d b717 f8bc d721 a63d
00000260: bba5 503d e442 16bd 4654 6ebd ef63 01be
00000270: cc2d e63a 8efb 833d 085d 3d3d f5a4 63bb
00000280: e9fe 583d 0b01 8dbd b61b 023e 5d1f 143e
00000290: c49d 80bd 39af c43d 45f0 d0bd bccb dabb
000002a0: 4be5 373e 893d acbd 1a8a 08bd 3d9b cabc
000002b0: 539b 88bd 2f47 cfbc 7710 5ebd 1bf7 1e3c
000002c0: 6bac 5e3d 8a2c cbbc 4f56 36bd 48dc acbc
000002d0: 0c5e 12bc ff60 383d 5009 143e f6b5 053e
000002e0: 0819 abbd b837 273d 8c5b 083e 5386 2cbc
000002f0: c6ad 11bd 9bbb 4dbd 1a3f 08bb ce6f 153e
00000300: d0a6 023d 3f77 8d3d 3bba b43d 7e20 51bd
00000310: 06bb 94bd 2272 d03d 5e86 babc 63c6 04be
00000320: 8cbe e93c ccdc be3d a645 86bd e0ca 093c
00000330: 8b3e cb3d e5fa 1b3e fb11 8e3c da81 153d
00000340: d93a 7b3c 07ee bd3c b86a 8bbd d05f a2bd
00000350: bf41 ba3d e93b 22bd d363 813d 3d7b ee3d
00000360: 48b7 093e 33c8 5dbd 1d7b 763d 56e1 91bd
00000370: 9f8d 043d c920 a23d 90c3 b6bd 9298 a3bd
00000380: 6cf5 0f3e 691a cebd fc60 6a3d b3ad e73d
00000390: a3ca ad3d 9db7 223c ffc0 4b3d 448f a9bc
000003a0: bf6a 083e efd0 323d ca60 53bd 0531 fc3d
000003b0: 6d12 143d df2b 17bb 176a 043e 2e60 02bd
000003c0: 3152 293d 9488 1ebd 3d5d bf3d 965c a23d
000003d0: 4903 9bbd feb1 033d 6a2f ff3c f791 67bc
000003e0: 9112 bdbd 37e8 9b3d 48cf 8ebc ea9f c9bd
000003f0: c934 fdbd 37d3 cebc 629d 13bb 6b9b 0abd
0.072960325 0.12903005 0.079479635 0.14139448 -0.1183308 0.09844259 0.15404864 0.006487216
-0.043347716 -0.12871641 0.15680699 -0.061048456 -0.054676425 0.16225715 0.107129335 0.05027354
0.14511314 0.054989055 0.118093 0.121729 0.16176039 -0.07897303 0.12855133 -0.029814536
0.043011475 0.056656405 -0.01206826 0.029319724 0.026189594 0.07275855 -0.13264468 -0.13320354
0.056268487 -0.123079896 -0.01782833 0.020684246 -0.011537003 0.12824132 0.037778765 -0.0103358105
0.009601222 0.003233771 -0.046785917 0.1487431 -0.08294682 -0.076572865 -0.11776039 0.10807889
-0.14025219 -0.013602097 -0.0648097 -0.09874074 -0.054397408 -0.10436439 -0.097970665 0.019013437
0.12422263 0.041756663 0.14876755 -0.11709472 -0.1361528 -0.084151775 0.038868625 -0.04666657
0.11425062 -0.08857709 0.04362829 0.044487573 -0.0038846284 0.09767129 0.09219536 -0.03559483
-0.10937534 -0.016945042 -0.03252838 -0.056034125 0.017568145 0.050662123 0.1428639 0.024928654
0.041359887 0.105746366 0.13615523 0.13660988 0.13044113 0.0040812297 0.021085426 -0.10011549
0.1295008 -0.013902347 0.12073289 -0.07942214 -0.03609805 0.07233247 0.0013314891 0.027350876
-0.09130151 -0.07089722 -0.056111798 -0.0941266 0.08814328 0.11681811 -0.013304609 0.014912517
-0.08941376 0.14226781 0.021495648 0.03986625 0.105580226 -0.06729182 0.03227918 -0.009964616
0.03865639 -0.036640085 -0.007304121 0.036635816 0.095570564 -0.023259303 0.02989322 -0.008322062
0.13334204 -0.10230721 -0.019249655 -0.054481562 0.03807041 0.091461465 0.14420027 -0.08168668
-0.10476969 0.0122544095 0.01727825 -0.013157536 -0.004340281 -0.0042029987 -0.003237806 0.064597905
-0.009383199 0.07252801 0.01266215 -0.04124865 -0.013066504 0.044702984 -0.09482656 0.05167232
0.051873103 0.1098898 0.07683236 0.060619753 0.069038115 0.075799584 -0.030284746 0.08111923
0.050939303 -0.036684886 -0.05818584 -0.12635778 0.0017561256 0.064444646 0.0462313 -0.0034735773
0.052977476 -0.068849646 0.12705883 0.14465089 -0.062800914 0.096037336 -0.10202078 -0.006677119
0.17958562 -0.084101744 -0.03333483 -0.024732227 -0.06670251 -0.025302498 -0.05421492 0.009702469
0.05436365 -0.024801511 -0.044515904 -0.021101132 -0.008933555 0.045014378 0.14456677 0.13057694
-0.08354384 0.040824622 0.13316172 -0.010530072 -0.035566114 -0.050227743 -0.0020789565 0.14593431
0.031897366 0.0690751 0.08824583 -0.051056378 -0.072622344 0.10178019 -0.02276915 -0.12966304
0.028533243 0.093194574 -0.06556253 0.008410186 0.099240385 0.15232427 0.017342558 0.03650079
0.015333855 0.02318479 -0.06807464 -0.07928431 0.09094571 -0.039607916 0.06317868 0.116445996
0.13448822 -0.054146003 0.060176004 -0.071230575 0.032361623 0.079164095 -0.08924019 -0.07988085
0.14058465 -0.10063631 0.057221398 0.11312427 0.084859155 0.009931472 0.049744602 -0.020698197
0.1332197 0.043656286 -0.051605977 0.12314037 0.036150385 -0.002306692 0.12931095 -0.031830005
0.04133815 -0.03870447 0.09343956 0.079278156 -0.07568986 0.03215217 0.031150538 -0.014133922
-0.09232057 0.07612651 -0.017432824 -0.09844954 -0.123635836 -0.0252472 -0.0022524227 -0.033839624

net.4.bias f4 [6]
00000000: 910a 67bc 312b 483c c111 30bd a882 33bd
00000010: 48aa 6b3d 209e 823d
-0.01410164 0.012217329 -0.04298568 -0.043825775 0.05753544 0.06377816
