notebooks/checkpoints/generator_epoch20.pth (torch, 25324 bytes, 6 tensors)

net.0.weight f4 [64, 16]
00000000: 0e6d 10bd 4cda 1a3e 1817 2dbe e2b8 2cbe
00000010: 44df d53d 80eb 56bd 1511 9f3e fab8 1f3e
00000020: 2847 eabd b76b 82be da19 83be 8cbd 153d
00000030: fa8c 72be 4cf5 ad3e 5ebc 863d 6e84 313e
00000040: 3694 99be ce2a f5bc 0201 a7be 9cff 90be
00000050: c354 89be 147b e4bd 5cb0 7e3e ae8d b8bd
00000060: 90ef f13d ac16 603e 6643 2d3e 6d00 313d
00000070: ec8b af3e 72f8 593e 3f06 3d3d 354a 90bd
00000080: 64b3 a43e 2a61 90be 7a6c 1b3e 1fff b8be
00000090: ff71 babe 57a7 443e b202 9a3e 6f9a 85bd
000000a0: df1d 753e a2ca 1fbe 2c86 8d3e b9bb 71be
000000b0: d58a bb3d 405f 2abe 7c55 34be 8d43 f1bd
000000c0: 1c76 a8be a17e 99be d86d a43e 0b64 b1be
000000d0: 3348 58be 4f82 7e3e bfc3 72bc 79d4 a0be
000000e0: 28b7 1a3e f8d4 8c3d b9e6 283d 619d 0d3e
000000f0: c5ca 073e f9f1 673d 430d fa3d 3a5e 973e
00000100: 5516 973e 0f77 89be 3826 38bd 1a82 b03b
00000110: 8151 1f3e 7709 9e3e d841 bc3d ba99 9fbe
00000120: 6ccd 93be 5d08 6a3d 8889 61be f26d 9fbe
00000130: a296 f5bd d086 01be 0b4d 85be b9a0 6cbe
00000140: 980f 9e3e b62c 91be de46 7cbe 7907 98bd
00000150: 922e 8cbe a89f 863e f2f8 fe3d 8f77 56be
00000160: 3ae3 9cbe d962 c03d fc86 053e 3cf8 10be
00000170: d20a 293e a2dc 52be 50a0 6bbe 0c4c 33be
00000180: 7194 a63e bdad b0be 44d3 5cbe f790 c93c
00000190: 176e eb3d accf 91be e729 ef3c b5dd 5cbe
000001a0: 2548 e6bd b981 3fbe ba3b e9bd 20df 80be
000001b0: a059 643e 126c 0abe b1a6 32bd 67fe 1dbe
000001c0: 8baf 16be 240c 593e ec35 b6be 43b8 343e
000001d0: 4648 9fbe be8e a73e 132e 3cbc a46b 2c3e
000001e0: c724 f03d 8b9a 8cbc 1319 5a3e 3479 92be
000001f0: eede 313e bc91 2dbe 10e4 39bd 3492 9a3e
00000200: 0a18 003e a066 75be 56af 7fbe 1b34 bdbd
00000210: 8486 963e 3c4c 0e3e a604 09be c62b 51be
00000220: eb30 4fbe 31ce 1ebe c346 103e 8181 9cbe
00000230: ae3f adbc 39b8 8abe a2f9 8b3e 69ad 893e
00000240: 4ffb cbbb fef6 91be 7e6f 7b3e ea28 1fbe
00000250: d1b7 853e b975 8d3b 591b 983e eba9 2f3e
00000260: 02f4 44be de34 74be 7e1f 073d 33eb 313a
00000270: 8397 9fbe a19c ac3e 1b07 ec3d d98f 973e
00000280: f5e3 b4bd 0c33 2ebe 2d10 42be 01d4 643d
00000290: ae43 90be 3839 b23e a9c5 57bc 4a1f 82be
000002a0: c2a1 8b3e e7eb 823e 508d 3bbe cbb6 85bc
000002b0: be47 93bd 1e28 a33d 5084 963e 7e40 b93e
000002c0: 1c86 35be 3944 503e 5b37 bfbe bea0 97be
000002d0: d7b2 cbbc 0c11 9ebe 6cf6 c0be 4826 e43d
000002e0: 272a 9d3e 5509 51bc cf7f 18be 3b89 af3e
000002f0: 6667 afbe 5f7c 3cbe 8095 b33e 553e 4fbe
00000300: af13 963e 09d3 de3d 6496 c83c cbd4 19be
00000310: bdfa 8f3d 5632 7c3d 4eec 2d3e 1334 8c3e
00000320: 0b85 5bbd c299 80be 6c06 853e 96f8 5cbe
00000330: c398 5ebe ecb3 7f3e 766a 1fbe 1997 86be
00000340: 2481 103e 893a a53e 87d1 153d 26d5 1c3c
00000350: f3bf 60be 9871 9e3e c10b 79be b70e 813e
00000360: b983 1d3e e1f6 87bd 1046 4cbe fa55 1d3e
00000370: 85fa 9bbe 968d f2bd 9b5e f1bc 67f8 22be
00000380: c26e eabd 2419 213d 72d5 463e 6230 cc3c
00000390: 8393 a13e 5b80 043e bb56 b73d bcfd f73d
000003a0: 19f5 71be db48 363e 5e47 3c3e 48ef 82be
000003b0: 84cf 793e aa8d 963e b4b1 96be 58fa 803e
000003c0: 0b4a 6c3e 0624 9abe 7d2e 943e 9d4b 85be
000003d0: fb7b 13be 324d ffbd addd 903e bbd2 a8bd
000003e0: c4a9 92be 697d 993e 7177 bd3d 8106 283e
000003f0: 9274 673d 6a18 4dbe 5445 48be 0305 8dbe
-0.035260253 0.15122336 -0.16903341 -0.16867402 0.10442975 -0.052470684 0.3106772 0.15597907
-0.11439353 -0.25472805 -0.2560566 0.03655772 -0.23686591 0.3397621 0.06578897 0.17335674
-0.29995888 -0.029927637 -0.32617956 -0.28320014 -0.2682248 -0.11156288 0.24871963 -0.09011398
0.11813271 0.21883649 0.16920242 0.043213297 0.3428644 0.2128618 0.046148535 -0.07045404
0.32168114 -0.2819913 0.151781 -0.36132142 -0.36415097 0.1920446 0.3008018 -0.065235965
0.23937176 -0.15604642 0.27641428 -0.23606767 0.091573395 -0.16637897 -0.17610735 -0.117804624
-0.3290261 -0.29979423 0.32115054 -0.3464664 -0.21121292 0.24854396 -0.014817177 -0.31412104
0.15108931 0.06876558 0.04123566 0.13829567 0.13260944 0.056627247 0.12209561 0.29564077
0.29509225 -0.26848647 -0.044958323 0.005386603 0.15558435 0.30866596 0.09192246 -0.31171972
-0.28867662 0.057136882 -0.2202512 -0.3113857 -0.119916216 -0.12649083 -0.26035342 -0.23108186
0.30871272 -0.28354424 -0.24636409 -0.074233 -0.2737928 0.26293683 0.12449826 -0.20944045
-0.3064211 0.09393854 0.13039774 -0.14157194 0.16508034 -0.20591977 -0.23010373 -0.17509478
0.32535127 -0.34507552 -0.21564966 0.024605257 0.11495607 -0.28478754 0.029194785 -0.2156895
-0.11244229 -0.18701829 -0.11388345 -0.2517023 0.22299814 -0.13517788 -0.043616 -0.15429078
-0.14715402 0.21196038 -0.35588014 0.17648415 -0.31109828 0.3272609 -0.011485594 0.16837937
0.11725765 -0.017163536 0.21298628 -0.28608096 0.17370197 -0.16950125 -0.045383513 0.3018967
0.1250917 -0.2396493 -0.24969229 -0.09238454 0.29399502 0.13896269 -0.1338068 -0.20426854
-0.20233504 -0.15508343 0.14089493 -0.30567554 -0.021148529 -0.27093676 0.27338892 0.26890114
-0.0062250267 -0.28508753 0.2455425 -0.15542951 0.26116803 0.004317012 0.29708365 0.17154662
-0.19233707 -0.23848292 0.032989018 0.00067870616 -0.31170282 0.33713248 0.11524793 0.29601935
-0.08832542 -0.1701166 -0.18951483 0.055866245 -0.28176636 0.3480928 -0.013169684 -0.25414497
0.2727185 0.25570604 -0.18315625 -0.016322514 -0.07191418 0.07966636 0.2939782 0.36182016
-0.1772694 0.20338525 -0.3734692 -0.29614824 -0.02486555 -0.3087238 -0.37688005 0.11140114
0.30696222 -0.012758573 -0.14892505 0.34284386 -0.34258574 -0.18406819 0.35074997 -0.20238622
0.29311892 0.108800955 0.024485774 -0.1502258 0.070302464 0.06157144 0.16984674 0.2738348
-0.053593677 -0.25117308 0.25981462 -0.21579203 -0.21737961 0.24970978 -0.15567955 -0.26287153
0.14111763 0.3227122 0.036576774 0.009572303 -0.21948223 0.3094604 -0.2432089 0.2520654
0.1538228 -0.06638885 -0.19948602 0.15364829 -0.3046457 -0.118434116 -0.029464057 -0.1591507
-0.114469066 0.039330617 0.1941736 0.024925414 0.31557855 0.12939589 0.089520894 0.12108943
-0.23628654 0.1780123 0.183866 -0.25573182 0.24395567 0.29404956 -0.29432452 0.25190997
0.2307512 -0.3010561 0.28941718 -0.2603425 -0.14402764 -0.12465896 0.28294125 -0.08243319
-0.28645146 0.29978493 0.09251297 0.16408731 0.056507654 -0.20028844 -0.19557697 -0.27542886

net.0.bias f4 [64]
00000000: 631c c03e b5c9 113e 788c b73d a877 8c3e
00000010: 10f6 7dbd c896 a93e 107f 8f3e e24c ac3e
00000020: 004b 8f3e c66f 3e3e 7ab1 b33e b9a7 f63d
00000030: 0660 813e 48dd 983e 2253 933e e3a9 2f3e
00000040: 1a30 8a3e 93cf 413d 4977 4f3e 5ccb b43e
00000050: 5790 663e 4c7f 263d 52d9 913e da03 b63c
00000060: f69e efbc 6822 843e 962b 383e 7d40 a73e
00000070: e7ed 3b3e d0f7 a8b7 00bd ae3d fe6d 883e
00000080: 0119 d1bd 66c9 953c a466 e9bd e83e a93e
00000090: 78fc 053c 17ca 433e d2bf 273c 98a3 2c3d
000000a0: e2c6 253e 32fd ad3e 2bcf 3d3e 7bb5 873e
000000b0: 3ec0 89bd 3ca3 6f3d 1500 d03e ca93 a13e
000000c0: c4ae 993d 67fa df3d 6f49 a13e 2489 9c3e
000000d0: 2966 933e b336 c73e ddd6 8d3e 4bf0 3a3e
000000e0: 6856 863e 5931 b23e 661c 17bd 3880 d13d
000000f0: 2776 b83e 4723 c63e c251 cb3e 7730 2d3e
0.37521657 0.14237101 0.08962339 0.2743504 -0.06200224 0.3312285 0.28026628 0.33652407
0.27986908 0.18597326 0.3509634 0.12043709 0.25268573 0.29856324 0.28774363 0.1715465
0.26989824 0.0473171 0.20260347 0.353114 0.22515999 0.040648744 0.28486115 0.022218633
-0.029250603 0.258075 0.17985377 0.32666388 0.18352471 -2.0142557e-05 0.08532143 0.26646417
-0.10209847 0.01828451 -0.1139653 0.33055806 0.008177869 0.1912006 0.010238605 0.042148203
0.16189149 0.33982235 0.1853606 0.26505646 -0.067261204 0.05850528 0.40625063 0.31558067
0.07504037 0.10936432 0.31501338 0.3057338 0.2878888 0.3890892 0.2770299 0.18255727
0.26237798 0.34803274 -0.036892317 0.10229534 0.36027643 0.3869879 0.39710814 0.16913019

net.2.weight f4 [64, 64]
00000000: 9066 e8bc 928a 503c 15af f6bc fc71 983d
00000010: ff15 c6bd 92cb 1e3d 0e3c 953d 1b2b cf3c
00000020: 1745 013d ad53 98bd 4f1c 933d df10 513d
00000030: 79f9 ea3b a10c 153d e32a fbbd ab9f 01bd
00000040: 9e41 eabd 755d 4f3d 15f8 cfbb 74d9 06bc
00000050: 57db 3a3d 6a4a c9bd 0dc8 d03d b8d1 ad3c
00000060: b283 563d 662e fcbd 22c3 f6bd 9f1d bcbd
00000070: baea 7c3d 38de 953d 2311 5c3d 7d60 b93d
00000080: b4e4 09be a049 9c3d 1c0c 5fbd 92f7 cd3d
00000090: 0e88 e0bd bf57 7ebc 4c0e cdbd 1267 50bd
000000a0: ffb9 cd3d 3889 b2bd e1de c8bd 9bc8 3c3d
000000b0: d68e d03c ebd9 aebd f52b b73b 15cf 0ebd
000000c0: 4980 ff3c 09c8 ccbd f154 a2bd c5c5 ed3c
000000d0: 14d8 f3bd 2479 423d c006 eabc 8c5a 5d3d
000000e0: e5f2 ccbd 546a c9bc a309 2f3c 7bde b13d
000000f0: 1ac1 c93c b626 f5bd 77c6 dfbb 246e 163d
00000100: 9eca a63d b136 533e b58d a43b 642a 8abc
00000110: e40e c23d 7aca c63d 39ce f13d 6588 963a
00000120: 0d24 863b 3d59 fe3d 9d23 813c 4f53 603d
00000130: e405 423e 5a42 c43c 4906 e33d 1110 ac3d
00000140: 3c08 96bc 4b1e c63d 2753 0c3e 422e 5d3e
00000150: 9f22 363e bde7 ae3d f715 423e 7e48 a03c
00000160: 1e01 673c 6d3c 4a3e 717c cb3d dde6 b4bc
00000170: 9040 5f3d 22f1 013e a8d2 693c 6cff 453e
00000180: 1a3e 383c af5a 303d 388e 463d fba7 d93d
00000190: 1575 343d b8c1 2d3e 72c1 4a3e b256 a73d
000001a0: 9e6d 4c3d d76f 2a3e 1a5f 983d a25c 573e
000001b0: ddec b03b f297 fb3c e2d5 3d3e 72ef e93d
000001c0: 2672 073e 4f63 3d3b d8f0 f9bb aa6c e03c
000001d0: 8f38 253e 3685 563d dc48 293e ca67 8d3c
000001e0: e827 03bc 5bee b4bc 1ef9 d6bc c150 523d
000001f0: 79c1 373d cd5c 1f3e f322 ecbc 9777 153e
00000200: ef80 35bd 1d64 25bd 15f9 483d cf13 cabc
00000210: ff81 dd3c 340e 843d b276 9b3d b8fe e53d
00000220: 8886 3d3c 15e8 a93d e600 a23d 7d34 923d
00000230: 3ad4 3b3e 2181 983d 3e45 08bd 419d d43d
00000240: 35b9 48bd 627a b43d 532c 32bd a02e f7bb
00000250: cc03 27bd b608 193c cc3d 1f3e 3a68 dd3d
00000260: adb3 0d3e 7a97 f43d 56cf 223e 210c ab3c
00000270: 3945 303e 5a24 06bd 03b9 393e 1370 0c3e
00000280: bd98 143d 0d9c 3b3e 6202 d03d 1440 713d
00000290: 8813 4d3c 6709 093e 6369 a43d 3c09 75bb
000002a0: 01ae 803d a473 343d d575 5e3c 01c5 513b
000002b0: d701 af3d 6a7a 683c 7576 8dbd 1738 183e
000002c0: 4e32 163e e79c ed3c 55ec a73d a676 863d
000002d0: 9d26 833c bbd9 f13d 17f6 f53d 5823 cc3d
000002e0: 68de 5dbd cb92 4bbd 74e5 b03d 1d19 df3d
000002f0: 0b68 ed3d 9e00 c7bc 5415 2b3c 6d76 e33c
00000300: 5202 fd3d 6300 5e3e d910 3f3e 3bdb 743d
00000310: a89b 753d 67ea 4f3e e130 e83d e3ed b53c
00000320: 73af 223e 2e01 3f3e 21f6 5a3e 53d2 333e
00000330: eb94 323e 72b4 2e3c a5be bc3d 5e9c b93d
00000340: ae6e d13d b240 1c3e 71a6 1f3e f9dc 37bc
00000350: d2f2 463d 9b0b a23d e16c 183e 9763 98ba
00000360: 86ce b33d 7f84 1b3d 9d2b 2cbb 7b17 2b3e
00000370: 9c6b a13d 540e 073e bcce 853d b369 4fbc
00000380: 967d 5a3d 6fff 483e 77e2 8a3d 8389 473c
00000390: f0aa 5dba 92ba e83d fc99 313c 6bd9 d23d
000003a0: 6e8e 8ebc ec53 423a f59f 433e 60df 263e
000003b0: f905 003e 5048 c63d 4688 1b3e 658f 833d
000003c0: d6f9 2e3c b7ce 5f3e e262 f53d 1595 4f3e
000003d0: 38d4 303d c179 5f3e 1291 0f3e da56 3d3e
000003e0: aaf6 293e e14f 323d b9bd 583d 25b0 963d
000003f0: c1d1 af3c 3a0f d43d 2b0f 263d d7b9 ae3d
-0.028369218 0.01272835 -0.030112782 0.07443616 -0.09672164 0.03876836 0.07286845 0.025289109
0.03156003 -0.07437835 0.07183134 0.05104148 0.0071708527 0.036388997 -0.12264039 -0.031646412
-0.11438297 0.050626237 -0.0063467124 -0.008230556 0.045619335 -0.098286465 0.10194407 0.021218166
0.05237169 -0.12313537 -0.120489374 -0.09185337 0.06174729 0.073177755 0.05372728 0.09051607
-0.1346615 0.0763123 -0.054454908 0.10056986 -0.1096345 -0.01552385 -0.100124925 -0.050879546
0.100452416 -0.08717579 -0.09808136 0.04608975 0.025458734 -0.08537658 0.005589957 -0.034865458
0.0311891 -0.09999091 -0.079263575 0.029024968 -0.11906448 0.04747881 -0.028567672 0.05404143
-0.10007266 -0.024586834 0.01068345 0.08685013 0.02462821 -0.11970274 -0.006829079 0.036726132
0.08144115 0.20626332 0.0050217756 -0.016865917 0.094754964 0.09706588 0.11806912 0.001148474
0.004093653 0.124193646 0.015764052 0.05476695 0.1894756 0.02395742 0.11085183 0.08401502
-0.018314473 0.09673747 0.13703595 0.21599677 0.17786644 0.08540294 0.18953691 0.019565817
0.014099387 0.19749613 0.09935845 -0.02208274 0.05450493 0.12689641 0.014271416 0.19335717
0.011245275 0.043055233 0.048475474 0.10627743 0.04405697 0.16968429 0.19800356 0.08170833
0.049909227 0.16644226 0.07440014 0.2103143 0.00539933 0.030712102 0.18538621 0.11422624
0.13227138 0.0028898304 -0.0076275878 0.027395565 0.16134857 0.052373134 0.165317 0.017261405
-0.00800512 -0.022086313 -0.026241835 0.051346544 0.044862244 0.15562744 -0.028825259 0.14596401
-0.044312414 -0.04037868 0.049065668 -0.024667649 0.027039526 0.064480215 0.07590999 0.11230224
0.011567719 0.08296219 0.079103276 0.071389176 0.18342677 0.074465044 -0.03326916 0.10381556
-0.049004752 0.08812405 -0.043499302 -0.0075434 -0.040775105 0.009340456 0.15550917 0.10810895
0.13838072 0.11942954 0.15899405 0.020879807 0.17213906 -0.03274951 0.18136983 0.13714628
0.036278475 0.18321247 0.101567045 0.058899 0.012516864 0.13382493 0.080279134 -0.0037389537
0.062831886 0.044055596 0.013577898 0.0032008293 0.08545273 0.014189342 -0.069073595 0.14865147
0.14667627 0.02900548 0.08199374 0.06565599 0.016009623 0.11809107 0.120098285 0.09967679
-0.05416718 -0.04970054 0.08637515 0.10893462 0.1159211 -0.024292286 0.010442097 0.02776643
0.12353958 0.21679835 0.1865877 0.059779387 0.0599629 0.20304261 0.11337448 0.02220816
0.15887241 0.18652794 0.21382953 0.17560701 0.1743962 0.010663139 0.0921605 0.09063028
0.102261886 0.15259054 0.15590836 -0.011222118 0.048571415 0.0791237 0.14885284 -0.001162636
0.087796256 0.037968155 -0.0026271113 0.16708176 0.07881853 0.1318906 0.06533572 -0.012659478
0.053342424 0.1962869 0.06781476 0.012178781 -0.00084559526 0.113637105 0.010839935 0.102953754
-0.0174019 0.0007413018 0.19103988 0.16296148 0.12502278 0.09681761 0.15188703 0.06423835
0.010679683 0.21856199 0.11981751 0.20271714 0.043171138 0.21823789 0.14020184 0.18490162
0.16598001 0.04353321 0.05291531 0.07357816 0.021462323 0.10354467 0.04054181 0.0853154

net.2.bias f4 [64]
00000000: 852c d23d 888d 553e 14e5 833d 0689 6a3c
00000010: dfca 54bd 4dda 893e 0192 1c3e c287 533d
00000020: 8f0c d73c 686d 133c 148e 2c3d cebe 1b3e
00000030: af3c 393e fb66 153e 82c0 b0bc ab7a b03d
00000040: 5216 083e 3b9a 523c fbf4 cc3d d2c9 123e
00000050: 8fbb e63d 7d4b be3d 7139 d5bb 3521 4b3e
00000060: 07b0 033e c540 2d3c 9ec5 d93b cbf9 393c
00000070: bc58 183e a9db 923e f678 cabd 93ec 5bbd
00000080: afbb 153e d01f d7bb fa79 5a3d 4310 303e
00000090: bd3f e1bd 1db6 39bd f960 d83d 75e3 b5bd
000000a0: 0b65 793d a1b6 41bd e451 ea3c 8730 df3d
000000b0: fd4c 153e 8465 ac3d 56d0 b93d e204 513e
000000c0: 378f 903d e811 a83d 90d4 ba3d 1cd3 1b3e
000000d0: cfb6 bb3c 1591 443e b646 603e 4728 91bc
000000e0: 6a33 163e 41bf 0a3e 03f4 ad3c 580d 5ebd
000000f0: 6763 d23b f867 1b3e 98e5 38bc 5dc1 97bc
0.10262398 0.20854771 0.064401776 0.0143148955 -0.051951285 0.26924363 0.15290071 0.05164314
0.026251106 0.008998252 0.042127684 0.15209505 0.18089555 0.14590065 -0.02157617 0.08617147
0.13289765 0.012854154 0.10007664 0.14334801 0.11266243 0.09291742 -0.0065070917 0.19836886
0.12860118 0.010574524 0.0066458723 0.011351059 0.148776 0.28683212 -0.09886353 -0.05369241
0.14622377 -0.0065650716 0.053338982 0.17193703 -0.10998485 -0.045339692 0.10565371 -0.088812746
0.060887378 -0.04729331 0.028603502 0.10897928 0.1458015 0.084178 0.0907294 0.20412019
0.07058566 0.0820654 0.09122574 0.1521725 0.022914318 0.1919597 0.21901974 -0.017719401
0.1466805 0.1354952 0.021234518 -0.054211944 0.006420541 0.1517638 -0.011285208 -0.01852482

net.4.weight f4 [6, 64]
00000000: 0e54 913d e7f6 e93d fa97 433d 0311 f53d
00000010: a28e fdbd 9a32 873d e3a1 ff3d b8e1 933b
00000020: 57e5 3fbd b9ee 23be 488b 053e fdd0 bcbd
00000030: fe7b ccbd 03d1 063e 1497 993d b812 8e3c
00000040: 27dc e83d dac6 f13c 4b54 e43d 005a be3d
00000050: 86c9 073e b10b 00be 5191 cc3d 0a68 c4bd
00000060: 80bc 3d3c 70f2 563d 56ec ccbc 1fe2 d53c
00000070: 289d 123c a019 2a3d 6161 14be 746d 0cbe
00000080: 73b2 db3c 63d2 0abe 6ca6 36bd 5b9d 60bc
00000090: f8c8 2ebd 6d62 c53d eed9 153d b23c 9ebc
000000a0: a38b b6bc c81b 99bc 1b74 64bd c9cf ef3d
000000b0: 7c98 dbbd 4fe5 afbd 8ae4 2ebe cd54 a33d
000000c0: 0a4e 15be 8ce5 94bc 5313 cbbd 892d f1bd
000000d0: 6954 aabd 3f98 1dbe 9eb1 11be 2a9b 563c
000000e0: f22b ed3d 4fa3 be3c f6ee f13d b111 fdbd
000000f0: add7 14be 3892 e0bd fcc2 7c3b ef72 a5bd
00000100: 5dc3 143e 4820 81bd 97b5 6b3d b3dd 453d
00000110: 94f6 c4ba 0d22 fb3d 6934 d93d 9515 13bd
00000120: 8f00 dfbd c0f0 b33c dfe1 a7bc 366b b1bc
00000130: 7105 393d 8b25 8e3d f280 3c3e 5f1b 403d
00000140: 2cee 4f3d 6b31 d63d 0843 093e 829c 173e
00000150: d91b 193e bc9f b93c 7f4e d23c 6f0c a7bd
00000160: 9333 193e 676e 55bc c775 2a3e 967a 94bd
00000170: 8652 4dbc a054 c13d 2f3c 293c 6110 2f3d
00000180: 3809 99bd 6159 8cbd 73e9 0dbd c55b a7bd
00000190: 0640 0c3e 6acf 013e efa2 fb3a ac34 253d
000001a0: 7ece a7bd aee4 533e 497e b43c 3b8e 8a3d
000001b0: e639 0d3e 7933 77bd 9dab 8d3d f0bf 1c3b
000001c0: b4c1 ae3d cb9b 00bd 8461 fe3c 1c77 793d
000001d0: 8e29 be3d cede b03a 6c8e 5b3d 1e84 06bc
000001e0: 51ce 163e f1f9 49bd 7bac a0bc 22d3 51bd
000001f0: 074d 563d cfa9 fd3d 0780 2d3e 47d5 96bd
00000200: 14e9 edbd 03cd 853c 2c37 1a3c f010 03bc
00000210: 9900 86bc eebf e2bc 3942 9cbc d994 803d
00000220: c05c 51bc fe91 423d 0ea6 c33b 40f9 88bd
00000230: 85b3 30bd 8fcc 043d 7834 e6bd edcb f93c
00000240: 1569 203d 48a7 bd3d 65da 923d 55e9 343d
00000250: 1b96 563d ea21 493d 2227 08bd 2035 073d
00000260: f726 103d cca4 33bd 63be a5bd 94ae 0ebe
00000270: 35f6 12bc 7ed6 2a3d 48be e03c 4109 97bc
00000280: 62ba 233d 255f 9fbd 0864 e93d 7835 053e
00000290: 928f c4bd 5369 a33d 56f6 edbd eb09 5cbc
000002a0: e83d 2a3e 91d5 d7bd 0b04 2bbd 8fc9 3dbd
000002b0: e21d bbbd 3f9b 18bd f543 b8bd 80b9 b2bb
000002c0: b307 393d 7e89 13bd 091e 86bd 6a20 2abd
000002d0: c74c 21bd 657d 523c 1fc3 e53d d938 013e
000002e0: f3e9 8dbd 219f 273d cfc3 fe3d dbc6 c5bc
000002f0: 2a7b 58bd fdf1 94bd 9b92 cabc 923c 043e
00000300: 478c 633d 3c73 263d c63d ad3d 36b8 b4bd
00000310: ec78 8abd 6a95 cc3d 2f6c 12bd 5141 05be
00000320: 1d9d f73c bb3b c33d bf8d b5bd 7e91 9f3b
00000330: 5367 e23d 3e34 133e 03a2 e73c f43c f43c
00000340: 24aa 243a ba2b 153d 01ab 8ebd 180e c2bd
00000350: 274f a53d 3c69 27bd ae2f 8b3d 1247 143e
00000360: a49f 083e d345 4ebd e572 a93d a445 74bd
00000370: 52fe 543c 6fd6 953d 91a9 c6bd 7976 90bd
00000380: d0a4 063e 0068 b0bd 8790 063d 4d07 d03d
00000390: 71f6 033e 6541 eb39 d8a6 873d 35d4 e9bc
000003a0: 2f9f 033e ab4d 8f3d 7686 2bbd ff76 003e
000003b0: 9084 2d3d 5622 283c b86c 233e 58c2 3cbd
000003c0: b600 773d 302e 08bd 81ac d43d cc93 9c3d
000003d0: 7202 aebd d684 243d 1c7d 083d 0fe2 0fbc
000003e0: 1daf 08be d5b1 943d e56b 30bd f1a3 bcbd
000003f0: 38b6 00be 4d04 00bd 9b16 a9bb 67a1 5ebd
0.0709611 0.11424046 0.047752358 0.11966135 -0.12380721 0.06601448 0.12482049 0.0045129918
-0.046849575 -0.16009034 0.13041413 -0.09219549 -0.09984587 0.13165669 0.07499519 0.01734291
0.11370116 0.029513765 0.1114889 0.0929451 0.13260469 -0.1250446 0.099886544 -0.095901564
0.011580586 0.0524773 -0.025015038 0.0261088 0.008948602 0.041528344 -0.14490272 -0.13713628
0.02681849 -0.13556819 -0.044592306 -0.0137093915 -0.042672127 0.09637914 0.036584787 -0.019316051
-0.02228338 -0.018690005 -0.05577479 0.11709554 -0.107224435 -0.08588659 -0.17079368 0.07975159
-0.14580551 -0.018175863 -0.09915795 -0.11776263 -0.08316881 -0.15390109 -0.14227912 0.013098517
0.115806475 0.023271231 0.11813156 -0.1235689 -0.14535399 -0.10965389 0.0038568368 -0.080785625
0.1452765 -0.06304985 0.057546224 0.048307132 -0.0015027099 0.12262354 0.106056996 -0.035909254
-0.108887784 0.021965384 -0.020493446 -0.021657567 0.045171205 0.069407545 0.18408564 0.046901103
0.050764248 0.104586445 0.13404477 0.14805797 0.1495203 0.022659175 0.025672195 -0.081566684
0.1496108 -0.01302681 0.16646491 -0.07249944 -0.012531882 0.09439969 0.01032929 0.04274023
-0.074724615 -0.06852985 -0.034646463 -0.081718005 0.13696298 0.12676778 0.0019198338 0.040333435
-0.08193682 0.20692703 0.022032874 0.067654096 0.13791618 -0.060351823 0.06917498 0.0023918115
0.0853304 -0.031398576 0.031052358 0.060904607 0.0928527 0.0013494135 0.05360262 -0.00821021
0.14727141 -0.04931063 -0.019613495 -0.051226743 0.052319553 0.12385904 0.1694337 -0.07364898
-0.11616722 0.016333109 0.009412568 -0.007999644 -0.016357707 -0.02767941 -0.019074546 0.062783904
-0.012778461 0.04750251 0.005970723 -0.06688166 -0.043139953 0.032421645 -0.11240476 0.030492747
0.039162714 0.09260422 0.07170562 0.044167835 0.052389245 0.04910461 -0.033240445 0.03300965
0.03519341 -0.043858334 -0.08092954 -0.13933784 -0.008969833 0.041708462 0.027434483 -0.01843703
0.03997267 -0.07781819 0.113960326 0.13008678 -0.09597696 0.079790734 -0.116192505 -0.013430099
0.16625178 -0.105387814 -0.041751903 -0.0463348 -0.09136559 -0.03725743 -0.08997337 -0.005454242
0.04517336 -0.036019795 -0.065486975 -0.04153482 -0.03937986 0.012847279 0.11218857 0.12619342
-0.06929388 0.04092324 0.12439691 -0.024142673 -0.052851833 -0.07272718 -0.02472811 0.1291373
0.0555537 0.04063724 0.08459048 -0.08824198 -0.06761345 0.09989436 -0.035747703 -0.13013197
0.030226285 0.09532877 -0.088649265 0.004869639 0.11054864 0.14375398 0.028275495 0.029814221
0.00062814564 0.036418654 -0.0696621 -0.094753444 0.08071738 -0.040871844 0.067962036 0.14480236
0.13342148 -0.05035956 0.082738675 -0.059636727 0.013000088 0.073162906 -0.09700311 -0.07053847
0.13148808 -0.086135864 0.032852676 0.101576425 0.12886979 0.00044871416 0.0662362 -0.028543571
0.12853692 0.06997236 -0.04187628 0.12545393 0.04236275 0.010262093 0.15959442 -0.04608378
0.060303412 -0.033247173 0.10384465 0.076453775 -0.0849656 0.040165745 0.03332244 -0.008781924
-0.1334805 0.07260481 -0.043071646 -0.09210957 -0.12569511 -0.0312541 -0.0051601655 -0.054353144

net.4.bias f4 [6]
00000000: 6cfd 14bd a75d a43c 261a 7cbd 83f6 45bd
00000010: 001b a93d 4410 1f3e
-0.036374494 0.020064188 -0.061548375 -0.048330795 0.08257103 0.15533549
