data_augmented/checkpoints/discriminator_epoch5.pth (torch, 12810 bytes, 5 tensors)

net.0.weight f4 [64, 5]
0	0xbe63ed98	-0.22258604
1	0x3e6c15a1	0.23055126
2	0x3e187eef	0.14892171
3	0x3e5fac25	0.21843012
4	0xbedbe45f	-0.4294767
5	0x3688aba0	4.0730956e-06
6	0xb8a37253	-7.79374e-05
7	0xb779f488	-1.4898491e-05
8	0x3f32f081	0.6989823
9	0xb87aade2	-5.9766586e-05
10	0x3e2c099f	0.16800545
11	0xbe283dc6	-0.16429815
12	0xbd82ed51	-0.06392921
13	0xbf013f0e	-0.5048684
14	0x3ee79989	0.45234326
15	0xbed349cb	-0.41267237
16	0x3edd387e	0.43207163
17	0x3d0fb382	0.0350833
18	0x3e85d5e1	0.2613974
19	0xbe91a306	-0.2844469
20	0x3da9ac44	0.0828481
21	0x3e475d96	0.19469294
22	0xbe50e02f	-0.20398019
23	0x3ec7634f	0.38942954
24	0x3eca9702	0.39568335
25	0xbe370a24	-0.17874962
26	0xbe3d2a2e	-0.18473122
27	0x3e0e447a	0.13893309
28	0x3d86701b	0.06564351
29	0xbf022fa6	-0.50853956
30	0x3e33fd62	0.17577127
31	0x3df28766	0.118422315
32	0xbeab6747	-0.33477232
33	0x3d82d6a7	0.06388598
34	0xbcfd22a6	-0.03090031
35	0xbf08e2b8	-0.53470945
36	0xbd22fd20	-0.03979218
37	0xbdf23a3c	-0.118275136
38	0x3f0e6c45	0.55633956
39	0x3d8e1dc6	0.069392726
40	0x3d8c493d	0.068499066
41	0x3e0f21d5	0.1397775
42	0xbec8855f	-0.39164254
43	0x3ec3bb17	0.38228676
44	0x3e8ae2ae	0.27126068
45	0xbf3e41fb	-0.7431943
46	0xbdb32ac4	-0.08748391
47	0x3d6565bd	0.05600523
48	0xbd605ef7	-0.054778066
49	0xbe66a178	-0.22522533
50	0xbe2b77e2	-0.1674495
51	0x3ef319af	0.47480533
52	0xbe241736	-0.1602448
53	0xbf05f0f8	-0.52320814
54	0xbe27f478	-0.16401851
55	0x3ec0bfb1	0.3764625
56	0xbd819946	-0.06328063
57	0xbee8b5ee	-0.454513
58	0xbec66845	-0.38751426
59	0xbd4ed868	-0.05049935
60	0x3df0c069	0.11755449
61	0xbeb2d4b1	-0.34927896
62	0x3ec574db	0.38565716
63	0x3d80f4a1	0.06296659
64	0x3e67760c	0.22603625
65	0xbe7e57d9	-0.24838199
66	0xbe346f99	-0.17620696
67	0x3e06085b	0.13089125
68	0xbf24005c	-0.6406305
69	0x3ed63eb6	0.4184472
70	0xbde88204	-0.113529235
71	0xbd7f317b	-0.062303048
72	0xbf1ec1e0	-0.6201458
73	0xbe32501d	-0.17413373
74	0xbe9450ca	-0.28967887
75	0xbea8dae5	-0.32979503
76	0xbe462807	-0.19351207
77	0x3f31aba3	0.6940252
78	0x3d280a61	0.041025523
79	0x3e298f21	0.16558506
80	0xbecf7990	-0.40522432
81	0xbe122049	-0.14270128
82	0xbe5b16e6	-0.21395454
83	0xbeefe03b	-0.46850762
84	0x3ef6381b	0.4808968
85	0x3df7086e	0.12062155
86	0xbd3b3ccb	-0.045712274
87	0x3e3e3b41	0.18577291
88	0xbeaa1d96	-0.33225697
89	0xbe71fb23	-0.23630957
90	0xbe4ea50f	-0.20180152
91	0xbe84d5e5	-0.2594444
92	0x3e43fcf5	0.19139464
93	0x3e6dcd4d	0.23222847
94	0x3f2e4466	0.6807312
95	0x3da94170	0.08264434
96	0xbe09cf49	-0.1345798
97	0x3e635954	0.22202045
98	0x3f1a2114	0.60206723
99	0x3c18f1a7	0.009334958
100	0x3d2a218a	0.04153589
101	0xbe59e6dd	-0.21279474
102	0xbed767cc	-0.42071378
103	0xbf176db0	-0.59151745
104	0xbe434eba	-0.19073
105	0xbeb519e8	-0.35371327
106	0x3edb8298	0.42873073
107	0xbea18ffe	-0.3155517
108	0x3e659998	0.22421873
109	0x3dd95801	0.106124885
110	0x3e16cbe0	0.1472621
111	0xbe5584ed	-0.20851488
112	0x3b464d16	0.003025835
113	0x3effb5bb	0.49943337
114	0xbe97e338	-0.29665542
115	0xbd1871fb	-0.037218075
116	0xbd1f2853	-0.038856816
117	0xbb205026	-0.0024461835
118	0xbd07feff	-0.033202168
119	0xbef2dd82	-0.47434622
120	0x3ed36fa7	0.4129612
121	0xbe8f29aa	-0.27961475
122	0x3e9fc26f	0.3120303
123	0x3cb5fb88	0.022214666
124	0xbc061e30	-0.008185908
125	0x3c56b103	0.013103726
126	0x3d49e593	0.049291205
127	0xbe3386a8	-0.17531836
128	0x3de08f08	0.10964781
129	0x3ef9fe8a	0.4882701
130	0xbeb6e287	-0.35719702
131	0x3ec04ece	0.37560123
132	0x3d8cc136	0.068727896
133	0xbd91274c	-0.070875734
134	0xbeb7e17b	-0.35914215
135	0x3ed492fc	0.4151839
136	0xbf03a2b9	-0.5142017
137	0x3dd2820f	0.10278713
138	0xbd4ded10	-0.05027491
139	0x3e769dc0	0.24083614
140	0x3e948745	0.29009452
141	0x3c0b504e	0.008503033
142	0xbe366f41	-0.17815877
143	0x3e9080aa	0.28223163
144	0x3efafb5c	0.49019897
145	0xbebc9c08	-0.36837792
146	0x3ecbba24	0.39790452
147	0x3e03d486	0.1287404
148	0xbdb2af8f	-0.087248914
149	0x3f0d33c3	0.5515711
150	0x3e44849c	0.19191211
151	0xbd8b4917	-0.0680105
152	0xbd29e13c	-0.041474566
153	0xbe431d14	-0.19054061
154	0x3f3dcbd7	0.7413916
155	0xbd25c9b6	-0.04047557
156	0x3f312d35	0.69209605
157	0xbdc9d9e2	-0.09856011
158	0x3c983488	0.018579736
159	0xbd3bcd81	-0.04585028
160	0x3c958f63	0.018256849
161	0x3d84b4b9	0.064797826
162	0xbf3ba0d8	-0.73292303
163	0x3e3d3a2c	0.18479222
164	0x3dc55df0	0.09637058
165	0x3e82a2ed	0.25514928
166	0xbedc0c8e	-0.42978328
167	0xbed9ba68	-0.4252503
168	0xbe847deb	-0.25877318
169	0x3e607dc8	0.21922982
170	0x3c842722	0.016131941
171	0x3b3732a2	0.0027953763
172	0xbd0e3e05	-0.034727115
173	0x3f2dc1c7	0.67873806
174	0x3d977805	0.07395939
175	0xbcf0dc30	-0.029401869
176	0xbd239af0	-0.03994268
177	0xbd05a88d	-0.032631446
178	0x3f24fbe9	0.64446884
179	0xbcddc449	-0.027071135
180	0x3e322313	0.17396192
181	0x3eb68e41	0.35655406
182	0xbe9dddea	-0.3083337
183	0xbbbf36e4	-0.005835401
184	0x3dd4e119	0.103944965
185	0xbd706eb8	-0.05869934
186	0x3e1be356	0.1522344
187	0xbf220b8a	-0.6329886
188	0xbdfefdb1	-0.124507315
189	0xbeaf1e2a	-0.342027
190	0xbe9082e6	-0.28224868
191	0x3d7520a3	0.059845578
192	0x3c8af03b	0.016960254
193	0x3f23ef3e	0.6403693
194	0x3dfe26cc	0.12409744
195	0x3f23c838	0.63977385
196	0x3e2ae34f	0.16688274
197	0xbe2ac79e	-0.1667771
198	0x3db8430d	0.08997164
199	0x3e8a5461	0.270175
200	0x3e4b50b6	0.19855008
201	0x3ec6797c	0.3876456
202	0x3f024e81	0.5090104
203	0xbe4f0569	-0.20216908
204	0x3e2dc45a	0.16969433
205	0x3f03c82a	0.514773
206	0x3e7d7078	0.24749935
207	0x3e8ad88f	0.27118346
208	0x3f3867da	0.72033465
209	0x3dfc649d	0.12323878
210	0x3ed99799	0.42498472
211	0x3ebf279c	0.37334907
212	0x3ea0674f	0.31328818
213	0x3ec8427c	0.39113224
214	0x3c7b45c4	0.015336458
215	0x38b1c657	8.4769614e-05
216	0x38041bd0	3.1497155e-05
217	0xb93fb46a	-0.00018282389
218	0xbf2f231c	-0.6841295
219	0xb8a76498	-7.9819176e-05
220	0x3e196d2f	0.14983056
221	0xbe7fde44	-0.24987131
222	0xbe5b09db	-0.21390478
223	0x3e9c2e77	0.305042
224	0xbd88f4c6	-0.06687312
225	0x3f0b427a	0.5439831
226	0x3e9b1ea4	0.30296814
227	0xbecd95fd	-0.40153494
228	0xbeedc8bf	-0.4644222
229	0xbedaff31	-0.4277282
230	0x3d47e1ec	0.04879944
231	0x3c78a79d	0.015176681
232	0x3ef57ec4	0.47948277
233	0x3d3aad78	0.04557559
234	0xbe0cb2be	-0.1374006
235	0xbea7545b	-0.32681546
236	0x3e58a6cb	0.21157376
237	0xbbafcea9	-0.005365212
238	0xbebb8b7b	-0.36629853
239	0x3f1ffa7c	0.62491584
240	0xbe63483e	-0.22195527
241	0xbe266639	-0.16249932
242	0x3cd10ddc	0.025519304
243	0xbef9e094	-0.48804152
244	0xbeec7883	-0.46185693
245	0xbe32eebb	-0.17473881
246	0x3e0a976d	0.13534327
247	0xbe8d672a	-0.2761777
248	0x3ec51abf	0.38496968
249	0xbe373f1e	-0.17895171
250	0xbe2178c6	-0.15768728
251	0xbe7b14a2	-0.2451959
252	0x3ee75728	0.45183682
253	0x3ea17502	0.31534582
254	0x3ef1bde6	0.47215194
255	0xbd7ecfe1	-0.062209968

net.0.bias f4 [64]
0	0xbe9f0ed0	-0.3106599
1	0x3ecf1ca4	0.4045154
2	0x3eb9dd20	0.36301517
3	0xbe127462	-0.14302209
4	0x3d9f700a	0.07785042
5	0x3c2031bb	0.009777482
6	0xbf21bd98	-0.6317992
7	0x3e6c9385	0.23103149
8	0xbe3e8486	-0.18605241
9	0x3bc34f08	0.005960349
10	0x3ef9bac5	0.48775306
11	0xbe677791	-0.22604205
12	0x3ed0678f	0.4070401
13	0xbdbddb70	-0.0927037
14	0x3cdfd1a1	0.027321639
15	0xbe80877f	-0.25103375
16	0x3dae2dfb	0.08504864
17	0x3e95cdb6	0.29258507
18	0xbe97c31f	-0.29641053
19	0xbd808cee	-0.0627688
20	0x3d672e85	0.05644085
21	0x3ecfc892	0.4058271
22	0x3d8f5c30	0.07000005
23	0x3ef16220	0.47145176
24	0x3e1a80cf	0.15088199
25	0x3dc9f4d9	0.09861154
26	0x3e1529b3	0.14566688
27	0xbdfdfd5c	-0.1240184
28	0xbeb48790	-0.35259676
29	0x3dc77855	0.097397484
30	0xbeb4eecc	-0.35338438
31	0x3d664065	0.056213755
32	0xbe7907c7	-0.24319373
33	0xbe538b71	-0.20658661
34	0x3ecc1c3a	0.39865285
35	0xbd315a8c	-0.043299243
36	0xbe8d35df	-0.27580163
37	0xbed7e4ba	-0.42166692
38	0x3c5ce36b	0.013481955
39	0x3cb5333f	0.022119163
40	0x3ebb85a0	0.36625385
41	0x3e5d32a2	0.21601346
42	0x3d3f66c4	0.046728864
43	0xbecaa161	-0.39576247
44	0xbeab24ac	-0.33426416
45	0xbe6fe402	-0.23426822
46	0x3e571b9e	0.21006629
47	0x3ea79ae5	0.32735363
48	0x3ecc9076	0.39953965
49	0xbf2679d6	-0.65029657
50	0xbef5fcb0	-0.48044348
51	0xbe9d3a8d	-0.30708733
52	0xbf0bef24	-0.54661775
53	0x3e103deb	0.1408612
54	0xbe15feab	-0.1464793
55	0x3d850baf	0.06496369
56	0xbe1d65ec	-0.15370911
57	0x3ec8a4ed	0.39188328
58	0xbeb491c7	-0.3526747
59	0x3e0cad6e	0.13738033
60	0x3d1f837f	0.038943764
61	0x3f057538	0.52131987
62	0x3ef6103f	0.4805927
63	0xbc4334f3	-0.01191448

net.2.weight f4 [32, 64]
0	0x3e78bb6f	0.2429025
1	0x3bbba318	0.0057262294
2	0xbe454c4a	-0.19267383
3	0x3d5b0aad	0.053476978
4	0xbe96702c	-0.29382455
5	0x3e54ce2c	0.20781773
6	0xbdbc3c6b	-0.09191211
7	0xbe4d92df	-0.20075558
8	0xbe8242ef	-0.2544169
9	0xbc7aecd1	-0.0153152505
10	0x3d40d69f	0.04707968
11	0xbdc5b9ca	-0.09654577
12	0xbda292cc	-0.079381555
13	0x3c92a2ad	0.017899835
14	0xbdd9317e	-0.10605143
15	0xbd9ac344	-0.07556775
16	0xbde7c048	-0.113159716
17	0x3e3387a6	0.17532215
18	0xbdca7071	-0.09884728
19	0xbe3c6c0f	-0.18400596
20	0xbdb526dd	-0.08845303
21	0xbcccdbfb	-0.025007239
22	0x3d695213	0.056963038
23	0x3e75feb5	0.24022944
24	0x3ccc804d	0.024963522
25	0xbe0d371a	-0.13790551
26	0x3d8f3a2f	0.069935195
27	0xbd569782	-0.052390583
28	0xbe535002	-0.2063599
29	0xbe39362c	-0.18087071
30	0xbe0183f2	-0.1264799
31	0xbdf2c8bd	-0.11854694
32	0xbed88893	-0.42291698
33	0xbe3c78ed	-0.18405505
34	0x3dd6f734	0.10496369
35	0xbf22bc3e	-0.63568485
36	0xbc4a5dc1	-0.012351454
37	0xbe1e90e8	-0.15484965
38	0xbd9c9fdb	-0.076476775
39	0x3c6d94af	0.014500781
40	0xbcaaffe3	-0.02087397
41	0xbdd25dfa	-0.10271831
42	0xbd50bc77	-0.050960984
43	0x3ec74e1d	0.38926783
44	0xbe011e99	-0.12609328
45	0x3d4d5bb8	0.050136298
46	0x3c3c5e3f	0.011497079
47	0xbccff145	-0.025383601
48	0x3d304ef8	0.04304406
49	0xbb7eb11d	-0.0038862892
50	0x3d80972f	0.06278836
51	0xbe1bf5e2	-0.15230516
52	0x3d7d1507	0.06178763
53	0x3d18e707	0.0373297
54	0xbe1490ff	-0.14508437
55	0x3d7c2786	0.06156113
56	0xb9bae296	-0.00035645504
57	0x3e3413b6	0.17585644
58	0xbdcb4d5d	-0.09926865
59	0x3e320459	0.17384471
60	0x3d81a80b	0.0633088
61	0x3e3dcb50	0.18534589
62	0x3e5f736a	0.2182137
63	0xbc9e35b8	-0.019312724
64	0xbdae2e55	-0.08504931
65	0xbe8b0fe7	-0.2716057
66	0x3d8fc050	0.070191026
67	0xbdad4463	-0.08460309
68	0xbcdb690d	-0.02678349
69	0x3d86163c	0.065472096
70	0xbe0111d5	-0.12604459
71	0xbd44209e	-0.04788267
72	0x3cd14a9b	0.02554827
73	0x3d668130	0.056275547
74	0xbcbf058b	-0.023318073
75	0x3d727926	0.059197567
76	0x3c824485	0.015901813
77	0xbd90e7e5	-0.0707548
78	0xbc032888	-0.008005269
79	0x3ddd3254	0.10800615
80	0x3d5bf686	0.0537019
81	0x3b95ff36	0.0045775427
82	0xbd5805f3	-0.05274005
83	0x3d05d268	0.032671362
84	0xbcd83efd	-0.026397223
85	0xbd1ab3e7	-0.037769224
86	0xbdbad6d0	-0.091230035
87	0xbd0bd552	-0.034138985
88	0xbd44bf7f	-0.048034187
89	0xbe084e44	-0.13311106
90	0x3c406f5e	0.011745302
91	0xbd99f01a	-0.07516499
92	0xbdbf0e70	-0.093289256
93	0x3d24e7f1	0.04026026
94	0xbd80f168	-0.062960446
95	0xbda49224	-0.080356866
96	0x3d8fa8c5	0.07014612
97	0xbde1e06c	-0.11029133
98	0xbe286b50	-0.16447186
99	0x3d721bfa	0.05910871
100	0xbde3f536	-0.11130755
101	0x3c498ce9	0.012301662
102	0xbb478b11	-0.003044788
103	0xbdc5b109	-0.096529074
104	0x3c6b2528	0.01435212
105	0x3cb5888b	0.022159835
106	0x39b7e98f	0.00035078495
107	0xbd8a3afe	-0.06749533
108	0xbe07b90d	-0.13254185
109	0xbdaca707	-0.084302954
110	0xbd4a2a72	-0.049356885
111	0xba1bbc13	-0.0005940806
112	0xbde24623	-0.11048534
113	0xbe4c4cf4	-0.1995123
114	0xbd11d11a	-0.035599805
115	0x3dc5223a	0.09625669
116	0x3d27cc98	0.0409666
117	0x3d18434f	0.037173565
118	0x3dc4ffb7	0.09619086
119	0x3d79971e	0.060935132
120	0x3d89c925	0.067278184
121	0x3db40960	0.08790851
122	0xbdd124fc	-0.10212132
123	0xbdc28483	-0.09497931
124	0xbcf80e62	-0.030280296
125	0xbc1ed279	-0.009693735
126	0xbd919225	-0.07107953
127	0x3e1a40e1	0.15063812
128	0xbd62cae6	-0.05536928
129	0x3dc363f6	0.095405504
130	0xbdaf89dc	-0.085712165
131	0xbd2b6df9	-0.041852925
132	0x3e20c2b2	0.1569927
133	0x3cf1b69b	0.029506018
134	0x3c005aef	0.00783418
135	0x3e176638	0.14785087
136	0x3e070c4e	0.13188288
137	0x3d2f3eb2	0.0427844
138	0xbdcdd9db	-0.10051318
139	0x3dbca37b	0.09210869
140	0xbdc4b4b7	-0.09604781
141	0xbe519966	-0.20468673
142	0xbd958f69	-0.07302744
143	0xbc5074eb	-0.012723188
144	0xbd8a6bd5	-0.067588486
145	0xbdc3d7bb	-0.09562632
146	0xbd8993b0	-0.06717622
147	0x3e0d6fcf	0.13812183
148	0x3da92038	0.08258098
149	0x3c6e6e6b	0.014552693
150	0x3cfad8e9	0.030621009
151	0x3dc481e6	0.09595089
152	0xbcea4d45	-0.028601298
153	0xbe0b108b	-0.1358053
154	0xbd9e6e98	-0.07735938
155	0x3d505370	0.050860822
156	0xbd105cd5	-0.03524478
157	0xbd6b5f6b	-0.057464045
158	0xbcd4eaa3	-0.02599079
159	0x3a706a49	0.0009171111
160	0x3e1cfe7e	0.15331456
161	0x3de2041b	0.11035939
162	0x3dc509c7	0.096210055
163	0x3edbc580	0.42924118
164	0x3d662c70	0.056194723
165	0x3da4c1ac	0.080447525
166	0x3e8b2613	0.27177486
167	0x3bc6e7b2	0.0060701007
168	0xbc022930	-0.00794439
169	0x3e359da0	0.1773591
170	0x3cd407d7	0.025882645
171	0xbe8cb868	-0.2748444
172	0x3e3a3768	0.18185198
173	0xbd2ef0a2	-0.042709954
174	0xbd27f875	-0.04100843
175	0x3d4e4941	0.05036283
176	0xbe62f882	-0.2216511
177	0xbdaad828	-0.0834201
178	0xbb15fd4b	-0.002288657
179	0x3c0d74e5	0.008633827
180	0xbe154542	-0.14577201
181	0x3e127156	0.14301047
182	0xbbdf22cf	-0.0068095694
183	0xbd98e1d3	-0.074649476
184	0x3e0e86e0	0.13918638
185	0xbca717c3	-0.020397073
186	0xbdc30617	-0.09522646
187	0x3d9c201e	0.07623313
188	0xbde83de7	-0.11339932
189	0xbd8eefd6	-0.06979339
190	0x3e362c00	0.17790222
191	0xbe815115	-0.25257173
192	0xbce03daf	-0.027373163
193	0x3e6280f6	0.22119507
194	0x3ce3691b	0.02776008
195	0xbd44656d	-0.04794829
196	0xbd87ed34	-0.0663704
197	0x3e4f1b49	0.20225252
198	0x3d8a48a4	0.06752136
199	0xbd8ce15a	-0.0687892
200	0xbd6ac554	-0.057317093
201	0xbdc5210f	-0.09625446
202	0x3e3533c7	0.17695533
203	0x3dc4ddc8	0.09612614
204	0xbdea5582	-0.114420906
205	0x3d811f2f	0.06304776
206	0x3d866e29	0.0656398
207	0xbe166f31	-0.14690854
208	0x3de4cd55	0.111719765
209	0x3e1a353d	0.15059371
210	0xbd9b9b97	-0.07598036
211	0xbe2d7a27	-0.16941129
212	0x3da7b6dc	0.081891745
213	0x3dff7c53	0.12474885
214	0x3d81a63b	0.06330534
215	0x3cb16571	0.021654816
216	0xbd2db77d	-0.042411316
217	0x3e4d68c2	0.20059493
218	0x3de51648	0.111858904
219	0x3dd95573	0.10612001
220	0x3e4d9980	0.20078087
221	0xbcbe56d0	-0.023234755
222	0xbad5893e	-0.0016291512
223	0xbe2f8ca4	-0.17143494
224	0xbe12bba5	-0.14329393
225	0x3d4dbc0b	0.05022816
226	0x3da60fb1	0.08108462
227	0xbed102a6	-0.40822333
228	0x3d517634	0.051138118
229	0x3dbcc06d	0.0921639
230	0x3dfc13cd	0.12308464
231	0xbd268428	-0.040653378
232	0xbca98d07	-0.02069713
233	0x3d1b3d34	0.037900165
234	0x3d25ecc2	0.040508993
235	0x3ec80512	0.39066368
236	0x3e30a2cf	0.17249607
237	0x3db68c42	0.08913471
238	0xbd00baf9	-0.03142831
239	0xbd1f958e	-0.038960986
240	0x3e8a6a0c	0.27034032
241	0x3d83ca8e	0.064351186
242	0x3cd5f5f8	0.026118264
243	0x3da76537	0.08173602
244	0x3dbf43a6	0.09339075
245	0xbdb4426a	-0.0880173
246	0x3d4ccec7	0.050001886
247	0xbda851a3	-0.08218696
248	0xbd2e1508	-0.042500526
249	0x3e333ee5	0.17504461
250	0x3e07b9db	0.13254492
251	0x3e408511	0.18800761
252	0xbdd75ad2	-0.105153695
253	0x3df811c5	0.12112764
254	0x3c323a67	0.010878182
255	0x3e0396c7	0.12850486

net.2.bias f4 [32]
0	0xbc0f263f	-0.008737146
1	0xbd5e780f	-0.054313716
2	0x3d4c3b3d	0.04986118
3	0x3e0b7114	0.13617355
4	0xbd781482	-0.060566433
5	0xbd16f675	-0.036856133
6	0xbce39348	-0.02778019
7	0x3dcdc148	0.10046631
8	0x3d9322f5	0.07184402
9	0x3e454dd0	0.19267964
10	0xbbd6d831	-0.0065565337
11	0x3d460904	0.04834844
12	0x3d139612	0.03603179
13	0x3d426012	0.0474549
14	0x3d4eb0f5	0.050461728
15	0x3decea9c	0.11568186
16	0x3bc81774	0.0061063115
17	0xbda8a6ca	-0.082349375
18	0xbcbc11d8	-0.022957727
19	0xbcffe117	-0.03123526
20	0x3be39fbf	0.0069465335
21	0x3ba9aa01	0.0051777367
22	0xbdcaf107	-0.099092536
23	0x3c89849e	0.01678687
24	0x3e3f046d	0.18654032
25	0xbdd57135	-0.10421983
26	0x3daff65e	0.08591913
27	0xbcdbd862	-0.026836578
28	0xbe9881b4	-0.29786456
29	0xbbe9d849	-0.007136379
30	0x3d40489b	0.046944242
31	0xbba725fd	-0.005100964

net.4.weight f4 [1, 32]
0	0xbeb1bbc2	-0.3471356
1	0x3dad141e	0.08451103
2	0x3e855918	0.26044536
3	0xbedff976	-0.4374501
4	0x3e97fcd1	0.2968507
5	0x3ead3f22	0.3383723
6	0xbe975f8e	-0.2956509
7	0xbeb7db96	-0.35909718
8	0x3e39863e	0.18117616
9	0x3ebec234	0.3725754
10	0xbea29b68	-0.3175919
11	0xbe88393f	-0.26606175
12	0x3db67810	0.08909619
13	0xbe851763	-0.25994405
14	0x3e5561a2	0.20838025
15	0x3ec46184	0.3835565
16	0x3ea42e1c	0.3206643
17	0xbe9d68fb	-0.30744156
18	0xbec4360a	-0.3832248
19	0x3e9ac1ab	0.30225882
20	0x3e6cdd35	0.23131259
21	0x3e8ba788	0.27276254
22	0xbee26f94	-0.44225752
23	0xbeb5c2e3	-0.3550025
24	0x3ea3c052	0.31982666
25	0xbeb2bb49	-0.34908512
26	0x3e5cdc94	0.21568519
27	0xbe204fc8	-0.15655434
28	0xbf0bff12	-0.5468608
29	0x3e700244	0.23438364
30	0x3edde748	0.43340516
31	0x3e55776f	0.20846342
