data_augmented/checkpoints/discriminator_epoch72.pth (torch, 12820 bytes, 5 tensors)

net.0.weight f4 [64, 5]
00000000: 581d a8b8 875e 4239 2627 9b3e dcda 5bbd
00000010: f700 32bf 72f9 b838 02c3 df37 710d a2b8
00000020: 13b9 5d3f 707e bcb7 7fe5 a23b 0bae 003b
00000030: 6348 a5be bc1b a6be bb73 8c3f 022e 3d39
00000040: 3344 523f 59a8 49bd 061e a33e a497 a3be
00000050: b252 acb8 8b78 bdbb 8d3b d2be 3089 ce3e
00000060: 46c4 2b3f cb37 5dba d553 adbb 78f7 e43e
00000070: 46d6 823e 7d36 b9bf 76f5 3539 2ed7 0738
00000080: e068 f1be 1235 b83b fb8f 0e3e 8f9a 3bbe
00000090: 536b 323b f479 fd3e 0c17 693f c425 593e
000000a0: 81c7 edb9 5a6e 0839 b7b8 cbbe fbfa d93e
000000b0: 93be fe3e 7314 01bf f546 593c 7519 813e
000000c0: 2eb1 b2bd b48b 04bf d635 043b 022d 273f
000000d0: 855b a4bd 5473 2cbf 4b76 5ebe 2398 b6bb
000000e0: e7b8 14bb 06e4 69bf 2921 c1be 88fc 9dbe
000000f0: 6232 d4b9 684a b3be 23f4 8f3e 1fae 19be
00000100: a110 013f 48bc 7e39 7530 b6b9 0da6 b13e
00000110: f3f3 febe 674b 633f 3c13 0939 f64f 8bb9
00000120: b5f0 8dbf 5498 5d39 9c79 8cb8 95cf 99b9
00000130: 42fe 82bb 0b0e a93f e4b4 f9be 7655 3b3e
00000140: 6ea7 92bb 20e2 423a 5ba6 29be 894a 22bf
00000150: 25a2 b13f c03c cc39 92a6 cb39 8ffc 3e3c
00000160: 6800 febe 862d ccbe 6353 afbd cd6b 323e
00000170: 1de4 b8bd 2e5b 033f 79e6 9f3f 16da 893d
00000180: 1dd4 b5bd c1b0 f23d fe28 933f 7290 7f3b
00000190: fef6 99bc 1e75 f63a 8e27 8bbf c1f1 09bf
000001a0: f466 a8be 2c16 153a 58fe f43e 858c 20bf
000001b0: 3a78 d73c ef2c ab3e b8a2 c639 fb5f 11bf
000001c0: 4761 c2bc b848 ba3e 6012 01bf d509 26bc
000001d0: 47eb 84bd 5b9a aa3c ff2c 83be a7ba 3abf
000001e0: d27a a03e cdcd b2bd 1846 4d3e 2dd0 52bc
000001f0: 25c8 0ebf 405f 6439 42c5 9db9 a8ac c8be
00000200: 4f65 a93b f4ac 653f 02e1 f33b 48b6 c63e
00000210: 0ac0 473e 56cd 01bf 5601 e4bf 4787 0f3a
00000220: c530 60bf b961 0f3d 9da0 e93e 2a31 cf3e
00000230: d1ff 203e 70aa 083d 5f3e c7be 6f7f 3b3f
00000240: fe95 463f 86ce 85ba 0534 093f aa5f 703e
00000250: 91ce b8be 218c 913f 1a7c 80bb 446e 90bc
00000260: 9e70 103d 026b 17be 8752 703f 6524 b338
00000270: 999f 543f 3af9 8d3b 1e83 f93a 4440 a53b
00000280: 546a c9bb 42d4 0f39 0436 6bbf 01d9 7f3d
00000290: e773 5f3e 1d85 21b9 b2ae 9638 519f 7bbf
000002a0: 3815 bcbc 1d56 1c3f 1349 a739 df19 9239
000002b0: 0002 c7bb a04a 493f b7ae 133f 5428 803c
000002c0: b5bf e9bd c80b 22bc 0098 803f 7af0 c6bd
000002d0: 97b1 11ba c96a e93d f604 0abf 1d69 993e
000002e0: 03e8 a93d e8a8 2b39 282f feb9 734a 85bf
000002f0: 3906 0b3c 604e 1bbf a095 e9be 7254 943b
00000300: 7871 a3bc 9c06 533f 5327 9b3b 5e7b 0b3f
00000310: 809c 183c a515 a8bd dcd9 f43d 6728 9f3e
00000320: 96bb 093a caff 4eb9 7b48 5f3f 2562 6dbf
00000330: 277a 033f 26eb 863b 8980 623c 13cf 333f
00000340: ed25 803f d652 cf3e a1cd cf3a f0f9 1c3f
00000350: f265 b33e 297f d53e eb29 fb3d ea75 80b9
00000360: 4209 a338 e9bc 5d3e 3f4d 5abf 9efd f03d
00000370: 195f 4639 7ea5 42be fa37 89be 10bd bb3e
00000380: d370 64be c2ce 7f3d 58ac 623e 9ca0 f3be
00000390: bac6 7bbf 9d0b bfbf 9aa5 933a 28b6 35bc
000003a0: 9f2d 1e3f 4041 a9be bc5a 213d 6918 163c
000003b0: dec3 8b3a c87b cabe 4c3d cebe e19d ac3f
000003c0: e070 6ab6 aec5 a6b8 6f5b aabd 4230 45bf
000003d0: bd51 29bf 755c cfbd d675 0b3e 7ad2 95be
000003e0: 6aad b23e d17c 93bd b097 1aba 7e36 293a
000003f0: 0b7c 083f 6256 103f 5de7 f53e 0889 4b3a
-8.01633e-05 0.00018536496 0.30303305 -0.053675517 -0.6953272 8.8202665e-05 2.667448e-05 -7.7272656e-05
0.86610526 -2.2470223e-05 0.0049712057 0.0019634988 -0.3228179 -0.32443035 1.0972818 0.00018041584
0.82135314 -0.049232814 0.31858844 -0.3195163 -8.217002e-05 -0.005782192 -0.4106106 0.4033904
0.67096364 -0.0008438795 -0.0052895346 0.44720054 0.25554103 -1.4469754 0.00017352946 3.238691e-05
-0.47150326 0.005621561 0.13922112 -0.18320678 0.0027224615 0.49507105 0.9105079 0.21205813
-0.00045352805 0.0001301108 -0.39789364 0.42574295 0.49754772 -0.5042183 0.013261546 0.25214735
-0.087252006 -0.5177567 0.002017369 0.6530305 -0.080252685 -0.67363477 -0.21724813 -0.0055723353
-0.0022693218 -0.9136356 -0.37720612 -0.3085673 -0.0004047333 -0.35017705 0.2811595 -0.15007828
0.50416 0.00024293468 -0.00034749848 0.34697 -0.49795493 0.8878693 0.00013072503 -0.00026571722
-1.1089083 0.00021132949 -6.698372e-05 -0.00029337095 -0.003997595 1.320741 -0.4877082 0.1829432
-0.0044755256 0.0007434208 -0.16567366 -0.6339498 1.3877608 0.00038955174 0.00038843282 0.011656894
-0.49609685 -0.39878482 -0.08560827 0.17423935 -0.09027884 0.51311004 1.249221 0.0673105
-0.08878348 0.118501194 1.1496885 0.0038996008 -0.018794533 0.0018803214 -1.0871446 -0.5388451
-0.32891047 0.0005687203 0.478503 -0.62714416 0.026302446 0.3343272 0.00037886738 -0.5678708
-0.023728026 0.36383605 -0.50418663 -0.01013418 -0.06490188 0.020825556 -0.25620267 -0.7294106
0.31343704 -0.0873066 0.2004627 -0.012867016 -0.55774146 0.00021779258 -0.00030092342 -0.39194226
0.0051695476 0.8971703 0.0074425945 0.38810945 0.19506851 -0.5070394 -1.7812908 0.0005475175
-0.87574416 0.035005305 0.4563035 0.40467197 0.15722586 0.033365667 -0.38914773 0.73241323
0.7757262 -0.0010208644 0.53595 0.23473993 -0.36095098 1.1370889 -0.003921044 -0.017630704
0.03526365 -0.14786914 0.93875927 8.542164e-05 0.83056027 0.0043326886 0.0019036268 0.0050430615
-0.0061467085 0.00013716615 -0.91879296 0.06246281 0.21821557 -0.00015403745 7.185097e-05 -0.9828997
-0.022959337 0.610689 0.00031907167 0.00027866566 -0.0060732365 0.78629494 0.5768847 0.01564423
-0.11413518 -0.009890504 1.0046387 -0.09713836 -0.0005557774 0.11397321 -0.5391382 0.29963008
0.08296206 0.00016370753 -0.0004848179 -1.0413345 0.00848537 -0.60666466 -0.45621967 0.004526668
-0.019951567 0.8243196 0.0047349124 0.5448512 0.009314656 -0.08207253 0.11955616 0.31085512
0.0005254088 -0.0001974098 0.8721997 -0.9272788 0.51358265 0.0041173873 0.0138245905 0.70237845
1.0011574 0.40492886 0.0015854129 0.61318874 0.35038716 0.41698578 0.122638546 -0.00024501915
7.77417e-05 0.21654095 -0.8527412 0.11767124 0.00018918178 -0.19008443 -0.2680052 0.3666768
-0.22308664 0.06245304 0.22136056 -0.47583473 -0.9835011 -1.4925419 0.0011264563 -0.011090793
0.6178836 -0.33057594 0.03939317 0.009161093 0.0010663231 -0.39547563 -0.4028114 1.3485681
-3.493442e-06 -7.9523175e-05 -0.08318221 -0.7702676 -0.6614035 -0.10125057 0.1361917 -0.29262143
0.3489793 -0.07201541 -0.0005897237 0.00064549583 0.53314275 0.5638181 0.4802808 0.00077642547

net.0.bias f4 [64]
00000000: 1245 7ebf 0c58 003f 818e 453f 4e69 bfbe
00000010: f2a9 e73d 861e 96bd 2779 54bf 6abb dcbd
00000020: 80f4 0ebf c8a4 a23e 0013 423f d105 0a3e
00000030: 85f2 583f b94c ba3e e17e 4f3d 7d19 d2be
00000040: 6149 903e 8ab9 5f3f 9a34 c3be 3639 7abd
00000050: f459 423f 6b8f 9a3e 16a0 933d 04c7 493f
00000060: 2d1f 0c3f 4e13 453d 9c2f b63e 3438 27be
00000070: d7cd 9dbe 3f68 133f 9a08 c1be c6cb 193e
00000080: 4bfd dabe 311d 413e de86 eb3d 368f 62bd
00000090: ed30 d1be 8d5f d3bd ad60 afbe 4a6e 4dbe
000000a0: 6aff 153f 70f8 753e 1212 acbe 38cb 80bd
000000b0: 201b 20bf e183 473e d4f4 2f3f 31a6 713f
000000c0: a50b 873f c5c5 5fbf 3f64 8cbf 35ee 483d
000000d0: eb27 4bbf 9111 953e 1295 bcbe 36fb 4f3f
000000e0: c238 dbbe a8cd 2f3f 347f 0dbd 72dd ddbd
000000f0: 53c2 463f 9d92 4e3f 0fd6 293f b9b2 013f
-0.9932414 0.5013435 0.7717057 -0.3738503 0.11311711 -0.07330041 -0.82997364 -0.10777934
-0.5584183 0.31766343 0.7581024 0.13478781 0.84745055 0.3638666 0.05065811 -0.4103507
0.28180984 0.87392485 -0.3812607 -0.061089717 0.7591851 0.30187544 0.07208268 0.788193
0.5473507 0.048114114 0.35583198 -0.16330034 -0.30821106 0.5758094 -0.37701875 0.1501914
-0.42771372 0.18858792 0.11500333 -0.055312358 -0.4085764 -0.10320959 -0.34253445 -0.20061603
0.58592856 0.24020553 -0.33607537 -0.06288761 -0.6254139 0.19483902 0.68732953 0.9439421
1.0550429 -0.8741115 -1.0968093 0.049055297 -0.79357785 0.29114965 -0.36832482 0.8124269
-0.4281674 0.6867318 -0.03454514 -0.10833253 0.77640265 0.80692464 0.6634225 0.50663334

net.2.weight f4 [32, 64]
00000000: 8891 cf3f e7ba 073f 37da 77bf 7e8b 233c
00000010: 7441 febf 734c fcbc a82b c4be 5c9b 89be
00000020: aee9 05bf a472 363e 14e6 7b3e bc22 f7be
00000030: 2118 923d b1c5 6337 7334 c33d 1cb6 3cbe
00000040: 3751 1c3e 5e5e dd3e 4c96 93be 126c f8be
00000050: 41bd 95be 33d3 6bbe cd9a 003e 6944 e43e
00000060: 43fc 543e 5a0a 793d 9b6a 993e eb6c 993e
00000070: 3571 f0be 3c25 84bd 8d0a 27bf 9929 37be
00000080: c9ed abbf 0910 d0be ee7c b53d 8f4d 87bf
00000090: 3c5a bdbe 2f1d 163e 4c30 69be f23a a9bd
000000a0: 53a7 713e 3e19 d8bd 7bc9 aabd a8c7 473f
000000b0: 2f43 89be 5d94 e73c 4ec0 2e3d fb4d 70bf
000000c0: 0ce9 8d3e 68a6 8bbe 6f67 f6bc b7af 32be
000000d0: b9f7 81bd 910c 63bc bec1 80bf a78a 833d
000000e0: c69c 0b3f 8952 183f cf9d 44be 3bc2 1e3f
000000f0: 2229 b53a 0423 933e a116 913e 1e3a 913e
00000100: cd08 a5be 4e1a 6a3e 6d1a 823e 7d38 863c
00000110: a663 6c3e c5ee 2bbd 4f61 e1be 459f 9a3e
00000120: 276f 74be 533a 51bd c454 b8be 213b de3e
00000130: 9f83 4f3e 0247 693e cf88 d73e 4231 963f
00000140: 7d36 1a3e 0713 efbe 7f92 8f3c a3a0 df3e
00000150: fcaa ab3d c4b6 793d 9808 c6be 634d 0cbf
00000160: 6de1 77bc 820e e6be de97 b4be 4382 973e
00000170: ec1d e43d 5582 9f3e 0408 8c3e 835b f03b
00000180: 9b14 6e3f 4754 52bd a70d f4be ea6d 623e
00000190: 01ac 9c3e a54e 903e b5b5 6bbe bd70 03bd
000001a0: 194a b93e 6b5a 363f 99b2 873e 3ba5 113d
000001b0: 9f56 8fbe ae85 83be 1a48 8a3e 1e16 5d3e
000001c0: f34f 3fbf aedf a7be 90be 7cbd 4b67 ac3e
000001d0: dc51 4f3e c8d5 4bbe cddd 0d3f d003 b43e
000001e0: c7af 1bbf e1dc 38be c709 783e b771 3fbf
000001f0: 0214 3a3c 05f7 ebbe 03eb aabe 2397 c23d
00000200: 1d41 43bf 767c 02bf 071d 553d f93b e0bd
00000210: 4afd be3e 5034 b83e c207 8abe 879d 843e
00000220: 3f22 533d 060f f13d 4fe9 94be b61d 433e
00000230: 0867 4cbc 45be e3be f756 c8be 663c db3e
00000240: c791 87be c4b5 a2be 597c 48bc 3761 253f
00000250: e53e 9c3d f07a 8d3d 3310 e63b 4c46 503e
00000260: 19df 983d 8215 e7be 9452 13bd 9b6f fa3c
00000270: 5cc6 673d 15bd adbd 7c7d 3a3e 415a 563e
00000280: 9cbc 943e 48ea 0abe 8847 f73d e3d8 673f
00000290: a03b 1f3d b517 6ebe 7513 dd3e c050 3d3d
000002a0: 9abd 6cbe 4d06 de3e 73dd 9f3d 820a f8be
000002b0: e49d ea3d 3ac6 79bd 4872 573e ef12 9d3e
000002c0: 2812 ccbe d2bb 3bbe a6b2 9dbd edc0 363b
000002d0: c80d 24be 8145 9c3e ef19 ff3e e318 1bbe
000002e0: 26b5 22be c975 84be 1812 2abe e031 b3be
000002f0: 4b32 263e b31e ebbd 30a7 ed3e 8938 ddbe
00000300: ae07 2c3f 4515 9b3f 17f3 13be 9c60 953d
00000310: a723 2ebe 09b4 00be c667 8d3e af54 b2bc
00000320: ace8 5a3e 1f8d b2bd 20cb 8d3e 4790 babd
00000330: 30f1 aabd 156d 463e d7ea bc3e 4be4 06bf
00000340: ca48 863e 4c3c 923e e6c7 c0bc a967 c4be
00000350: 7518 50bc 57da 113e 7b0d 0a3e 901b cfbd
00000360: 5cb8 aebd 0fe7 183f 9701 ad3d f710 2e3e
00000370: a123 783e c134 5f3d 533c 3ebe 8e2a 93be
00000380: 9009 8cbe d935 843e 9c9c 9b3e 2836 24bf
00000390: f093 2e3d 708f c13e 9a65 503e c5de 84bc
000003a0: 425d 4c3e 8bc3 aabd 3f0a 893d 0771 cf3e
000003b0: 9b61 853e 2e1d a63c 15fb 80be dfdb 92be
000003c0: 2cda c63e d851 173e 89d0 9d3e 176e e33d
000003d0: 6ea2 cf3d 942d 39be 3bb1 8cbe 8b46 d23b
000003e0: df37 903e ba25 053f 2fad 113e df7d 2d3f
000003f0: 7e3d b1be 9093 f33d 4229 89be 667e 783e
1.6216288 0.53019565 -0.96817344 0.009981988 -1.9863725 -0.030798173 -0.38314557 -0.26876342
-0.5230969 0.1781717 0.24599487 -0.48268688 0.071335085 1.3576283e-05 0.09531488 -0.18428844
0.15265356 0.4323606 -0.28825605 -0.4851995 -0.29245952 -0.23029785 0.12559052 0.44583443
0.20799355 0.060800888 0.29964146 0.2996591 -0.4696137 -0.064524144 -0.65250474 -0.17886962
-1.3431941 -0.40637234 0.08861719 -1.0570544 -0.36982906 0.1465957 -0.2277233 -0.08263196
0.23598985 -0.105516896 -0.083392106 0.78039026 -0.2680907 0.028268987 0.042663865 -0.9386899
0.27716863 -0.27275395 -0.030078618 -0.17449842 -0.063460775 -0.0138579765 -1.0059125 0.0642293
0.5453609 0.5950094 -0.19200824 0.6201512 0.0013821463 0.28737652 0.28337577 0.28364652
-0.32233277 0.22861597 0.25410786 0.016384358 0.23084888 -0.041975755 -0.44019553 0.30199638
-0.23870526 -0.051081013 -0.3600217 0.43404487 0.20265053 0.22780994 0.42096564 1.1733782
0.15059848 -0.46694204 0.01752591 0.43677244 0.08382222 0.060965315 -0.38678432 -0.5480558
-0.015129429 -0.44932944 -0.35272115 0.2959157 0.1113852 0.31154123 0.27349865 0.007335128
0.9300019 -0.051349904 -0.47666666 0.22112241 0.3059998 0.28185 -0.23018534 -0.032089937
0.36189345 0.71231717 0.26503447 0.035557967 -0.27995774 -0.25687927 0.27008134 0.21590468
-0.7473137 -0.32787842 -0.061705172 0.33672556 0.2024607 -0.1990577 0.55416566 0.3515916
-0.6081509 -0.18053009 0.2422248 -0.7478289 0.011357309 -0.46086898 -0.33382425 0.09501483
-0.7627123 -0.5097116 0.052029636 -0.10948939 0.3730262 0.3597741 -0.26959044 0.25901434
0.05154633 0.117704436 -0.2908425 0.19054303 -0.012475736 -0.44481102 -0.3912885 0.42819518
-0.26478407 -0.317793 -0.012236678 0.64601463 0.07629184 0.06908214 0.007020974 0.20339316
0.074644275 -0.45133597 -0.035967425 0.030570796 0.056585655 -0.0848333 0.18211931 0.20932867
0.29050148 -0.13565934 0.120741904 0.9056532 0.038875222 -0.23251231 0.43178907 0.046219587
-0.23119202 0.43364182 0.0780591 -0.48445517 0.114558965 -0.06098006 0.21039689 0.30678508
-0.39857602 -0.18333367 -0.0770009 0.0027885989 -0.16020882 0.30521777 0.49824473 -0.15146212
-0.15889415 -0.25871113 -0.16608465 -0.3499899 0.16230123 -0.11480465 0.46416616 -0.43207195
0.6719922 1.2115866 -0.144482 0.072938174 -0.17005788 -0.12568678 0.27618235 -0.021768896
0.2137782 -0.08718323 0.27694035 -0.0910955 -0.08346784 0.19377549 0.3689792 -0.526921
0.2622741 0.28561628 -0.023532819 -0.38360336 -0.0127011435 0.14243446 0.13481705 -0.10112679
-0.085312575 0.5972757 0.08447569 0.16998659 0.24232341 0.05449367 -0.185777 -0.28743404
-0.27351046 0.25822333 0.3039292 -0.64145136 0.042621553 0.37804747 0.20351258 -0.016219506
0.1995745 -0.08338078 0.066914074 0.4051592 0.2605103 0.020277586 -0.2519156 -0.28683373
0.38838327 0.14777315 0.30823162 0.11104982 0.10138403 -0.18083793 -0.27478966 0.006417101
0.28167626 0.5201069 0.1422622 0.6777019 -0.34617227 0.1189338 -0.2678929 0.24266967

net.2.bias f4 [32]
00000000: 2734 813e 6c59 1bbe 9ee3 5e3d 7d24 643e
00000010: 960b f9bd b46c f1bd df0f 9d3d f102 b13e
00000020: ba23 633e 2d6d 873d bb12 1c3e 6efc 04be
00000030: ced8 60bd b8c8 a9bd d285 fdbc 1b67 07be
00000040: 3647 743d 45b4 133c c44f 643d fcad f7bd
00000050: da64 60bd a096 423e 10ec ad3d 016f bf3d
00000060: 3e87 863e e88e fabc df3d 5d3e 324b 7fbd
00000070: 5fd5 2abf f284 c53c 5649 943d ba56 1b3e
0.25235102 -0.1517083 0.05441629 0.22279544 -0.12160413 -0.117883116 0.07669043 0.34572557
0.22181597 0.066126205 0.1524152 -0.1298692 -0.05489426 -0.08290237 -0.0309476 -0.13222925
0.059638225 0.009015148 0.055740133 -0.12093732 -0.05478368 0.19002771 0.08492291 0.09347344
0.26275057 -0.030585721 0.21605633 -0.06232757 -0.6673183 0.024111245 0.0724055 0.15169802

net.4.weight f4 [1, 32]
00000000: 6d8d a0bf 5b7f 8a3f 39ad 9a3f c87c 9fbf
00000010: 1fa7 993f 00e7 be3f eed1 9abf ae0e b6bf
00000020: b606 633f 36a0 9b3f 297d a1bf 33c9 7fbf
00000030: ff38 ce3f 4b44 87bf 200c 453f 4c67 c13f
00000040: d9b9 8a3f 2056 99bf 3815 b2bf 7fb4 523f
00000050: 62ee a93f e3ae 0e40 a265 b2bf 18a5 90bf
00000060: edd7 5b3f e2d2 9cbf 3568 783f 8c62 11c0
00000070: d4e1 b1bf f12c 803f f2b1 9f3f 66bd 623f
-1.254316 1.0820116 1.2084113 -1.2459955 1.2004126 1.4914246 -1.2095315 -1.422323
0.88682115 1.2158267 -1.2616321 -0.9991638 1.6111144 -1.0567716 0.76971626 1.5109649
1.0837966 -1.1979408 -1.3912725 0.82306665 1.3275874 2.2294242 -1.3937266 -1.1300383
0.8587635 -1.2251856 0.9703401 -2.2716398 -1.3897042 1.0013715 1.247618 0.8857025
