data_augmented/checkpoints/discriminator_epoch19.pth (torch, 12820 bytes, 5 tensors)

net.0.weight f4 [64, 5]
000000 85 96 4c ba 37 94 68 39 3f 3e 7f 3e ad ef a4 3e
       -0.00078044116 0.00022180458 0.24926089 0.32214108
000010 10 38 1c bf 0c 8e cb b9 ea 73 96 b8 38 7b aa 39
       -0.61023045 -0.0003882501 -7.174148e-05 0.00032516732
000020 a2 fc 49 3f 38 9a 04 ba c1 7d fc 3b 86 8d 9e 3a
       0.7890111 -0.0005058381 0.0077054207 0.0012096621
000030 2f 52 99 be f2 e3 00 bf 9d 2e 66 3f 76 76 7a be
       -0.29945514 -0.50347817 0.89914876 -0.24459252
000040 e9 ce 04 3f e2 d3 d3 bd 21 46 d0 3e dd 7b 97 be
       0.5187822 -0.10343148 0.40678504 -0.29586688
000050 e8 e4 08 3c d8 c9 c9 39 3e b5 be be b2 0d cc 3e
       0.008355357 0.00038488093 -0.37247652 0.398542
000060 7f d2 10 3f 65 a7 3d be 9e f0 2b bd 72 d8 a2 3e
       0.5657119 -0.18520887 -0.041977517 0.3180576
000070 f2 33 05 bd 53 8c 5b bf 65 6b 9c bb b4 1c a5 b9
       -0.032520242 -0.8576099 -0.0047735446 -0.00031492638
000080 00 38 f3 be d7 26 e8 3d 08 8a 12 3e cd 6c cc be
       -0.47503662 0.11335533 0.14310467 -0.39926758
000090 3b 15 15 3c e7 72 2a 3d 05 79 56 3f 78 a0 01 3e
       0.0090993 0.041613486 0.8377841 0.1265887
0000a0 99 79 af ba e9 5b a4 b9 ef e9 bb be 16 1a eb 3e
       -0.0013387679 -0.00031348996 -0.36701915 0.4591834
0000b0 e1 f8 eb 3e 76 bd 3b bf 0c 36 a3 3c dd 2c 39 3d
       0.46088317 -0.7333597 0.019923232 0.0452088
0000c0 df 42 78 bc a3 db 45 be 33 f9 34 bd e4 36 ca 3e
       -0.015152662 -0.19322066 -0.044182967 0.39495003
0000d0 99 19 30 be 49 fb 20 bf 2f aa 84 be 64 c6 00 b8
       -0.17197265 -0.6288343 -0.2591109 -3.0702344e-05
0000e0 2a 7e d3 ba 4e 02 54 bf 68 bf e4 be 96 2b 9f be
       -0.0016135622 -0.82816017 -0.4467728 -0.3108794
0000f0 56 1a 39 3b 90 85 97 be f0 f1 7c 3e f4 94 34 be
       0.0028244457 -0.29594088 0.24701667 -0.17634946
000100 1a 8b e8 3e 2a 64 9a b9 fd ed 68 b9 71 3b ad 3e
       0.45418626 -0.00029447797 -0.00022213902 0.33834413
000110 42 6d 45 bf 2f 7b 5d 3f 2c ec 95 b9 f6 9d e5 39
       -0.7711984 0.8651609 -0.00028595456 0.00043795974
000120 92 3e 6e bf 69 93 58 bd 32 8b 96 be c7 9b 30 3b
       -0.93064225 -0.052874956 -0.29403073 0.002694832
000130 3f ee 96 39 35 56 88 3f b3 eb 94 bd c9 72 9a 3e
       0.00028787737 1.0651308 -0.072715186 0.301657
000140 28 2f 8d be 8f 1c 8f bd f2 38 d0 bd a0 5a 0e bf
       -0.2757504 -0.06987869 -0.101671115 -0.5560703
000150 b4 2a 32 3f 8c 74 27 3b 68 5b 53 3b 8f 3f 8e 3d
       0.6959641 0.0025551645 0.0032250527 0.069457166
000160 4b 04 0a bf f7 55 b8 be f8 d3 a2 be 6a f4 17 bd
       -0.539128 -0.36003086 -0.31802344 -0.037098326
000170 85 8a 7f 3d 34 aa c0 3e cc 0c 74 3f a8 a3 34 3d
       0.062387962 0.37629855 0.95332026 0.044101387
000180 81 6e c6 bb ef 93 89 3d 94 b9 86 3f 77 a7 ea 3c
       -0.0060556536 0.06717669 1.0525384 0.028644307
000190 78 ed 42 bc b9 c2 15 bb 90 32 3e bf 99 bd 25 bf
       -0.011897437 -0.002285166 -0.742959 -0.6474243
0001a0 f4 2f 6a be 9a ea 3b be 77 cb e5 3e 76 20 13 bf
       -0.22869855 -0.18351212 0.44881794 -0.57471406
0001b0 0d b6 7e 3e a7 24 45 3e 1d b0 88 bb 72 84 e0 be
       0.24874134 0.19252263 -0.004171385 -0.43851048
0001c0 fb 69 f3 bc 36 03 e4 3e ce 69 b8 be c7 09 c4 bc
       -0.029713621 0.445337 -0.36018223 -0.023930443
0001d0 a6 e4 ce bc bb bf 01 bd 1c 6b 33 be e7 c9 24 bf
       -0.025255512 -0.03167699 -0.17521328 -0.6437058
0001e0 af 84 c3 3e a4 b5 81 be f6 fa 0e 3d 39 02 3b ba
       0.38187167 -0.25333893 0.034907304 -0.0007133815
0001f0 f3 bf 82 be ef dd 12 ba 9c 54 45 39 af b1 a3 be
       -0.2553707 -0.00056025287 0.00018818903 -0.319715
000200 81 9e fd 3d b3 6b 39 3f d6 a3 93 be 2d e0 be 3e
       0.12383748 0.7242996 -0.28835934 0.37280408
000210 0e 41 c3 3c 7a 98 81 be 48 ad 1e bf dc 11 3d 3e
       0.023834731 -0.25311643 -0.61983156 0.18463844
000220 8a d4 28 bf f9 c2 12 bc 3d 43 1a 3e 26 1f 99 3e
       -0.6594931 -0.008957618 0.15064712 0.29906577
000230 1c 67 c7 3e 57 f2 8e 3d f3 92 30 be f0 25 d8 3e
       0.38945854 0.069798164 -0.17243557 0.42216444
000240 d9 0d d9 3e 8c db 5e be 9c aa 01 3f 6c 35 7c 3e
       0.42393377 -0.21763438 0.50650954 0.24629754
000250 37 32 2b be 74 c3 51 3f 7d b0 02 3e b2 4f 02 bc
       -0.16718374 0.8193886 0.12762637 -0.007953571
000260 3d 8b 6d ba d4 4f 1e be 8d 96 4f 3f 99 fd 0b bc
       -0.00090615806 -0.1546014 0.810891 -0.008544349
000270 b2 b5 29 3f 9c d2 5f 3b 72 16 fa bb 69 23 8c 39
       0.6629287 0.0034152633 -0.00763207 0.00026729263
000280 d6 06 38 bb 0d 9a db 3b 0f 66 50 bf 37 a1 16 3e
       -0.0028080246 0.006701714 -0.8140573 0.14709936
000290 a3 ae f8 3b 23 f5 74 3e c4 ea 47 be 2a aa 1d bf
       0.0075891777 0.23921637 -0.1952315 -0.61587775
0002a0 c4 b4 b0 be 41 4b d7 3e 73 00 ed ba ac 2c 04 3a
       -0.34512913 0.42049602 -0.0018081799 0.0005042057
0002b0 df 25 c0 bb 0b 74 44 3f 8a 70 ba 3e 33 4b 4c bc
       -0.0058638896 0.7673957 0.36413985 -0.012469101
0002c0 7e f9 fa bc ff 77 5f bd 5e f6 68 3f 05 80 89 bd
       -0.030636545 -0.054557797 0.91000926 -0.06713871
0002d0 3c 2e f5 3d 78 30 58 3e 77 18 ed be 04 ed 42 3e
       0.11971709 0.2111224 -0.46307728 0.19035727
0002e0 3b 67 08 3e 80 b8 b8 39 a7 68 36 3a 29 bf 63 bf
       0.1332063 0.00035232678 0.00069583434 -0.8896356
0002f0 20 c2 a4 be 65 31 33 bf 45 85 c9 be e7 08 f7 3c
       -0.32179356 -0.69997245 -0.3935949 0.030155612
000300 11 a0 67 bd 2c 18 6f 3f c3 28 4b 3d 42 91 24 3f
       -0.056549136 0.9339626 0.04959942 0.64284146
000310 23 9a c3 3d fa cb 51 be fc a3 c3 3d 6c 13 3e 3e
       0.095508836 -0.20487967 0.09552762 0.18562096
000320 00 ea b4 3b 9d 03 51 3b 2a 23 42 3f 53 30 1d bf
       0.005521059 0.0031893023 0.75834906 -0.6140186
000330 e8 eb 11 3f d0 d2 87 3e 08 9f 85 3e b0 8b 95 3e
       0.5700059 0.26528025 0.26097894 0.29208136
000340 4a 86 67 3f 67 1e 98 3e 1b 91 6e 3e 66 ff b8 3e
       0.90439284 0.29710695 0.23297541 0.36132354
000350 e7 8f 82 3e 1b 13 0a 3f 0c d0 27 3d 7a 1f 8c ba
       0.25500414 0.539354 0.040969893 -0.0010690533
000360 e2 ad 21 b9 3a c6 81 3d 65 fc 46 bf 33 23 a9 3d
       -0.00015418933 0.06336637 -0.77728873 0.08258667
000370 55 9c 5b 3d 74 6c 53 be 98 36 71 be 52 c0 aa 3e
       0.053615887 -0.2064684 -0.23555982 0.33349854
000380 fe 9a 3c be 0e 27 eb 3e 74 79 c2 3e 5c 35 d6 be
       -0.184185 0.45928234 0.37983286 -0.41837585
000390 74 cc 32 bf be 28 51 bf 7d ef a1 3c 86 b4 a8 bb
       -0.6984322 -0.8170279 0.019767517 -0.005148473
0003a0 0d 30 11 3f 2d c9 8f be ca 8d a4 bd f3 91 39 3c
       0.56713945 -0.28083172 -0.080348566 0.011326301
0003b0 72 f1 9b 3b 51 e4 b2 be 18 cc 0b bf 4b f7 92 3f
       0.004759007 -0.34939817 -0.546083 1.1481718
0003c0 de cb bf b9 71 8f 81 39 c8 e1 96 bd f1 fc 3a bf
       -0.00036582252 0.0002471167 -0.07367283 -0.7304221
0003d0 cb ea 14 bf 5c 60 9b bd 67 59 47 3d c1 2c 75 be
       -0.58170766 -0.075867385 0.048669245 -0.23942854
0003e0 94 49 d0 3e e7 a5 a3 bd 18 5d bf ba c2 86 6b 38
       0.40681136 -0.07990628 -0.0014599888 5.615387e-05
0003f0 98 ad 90 3e d3 ab f0 3e 29 4d fe 3e f5 71 84 3d
       0.28257442 0.4700609 0.49668244 0.06467048

net.0.bias f4 [64]
000000 d2 05 25 bf 36 c8 e9 3e 98 48 06 3f f6 60 56 be
       -0.64462006 0.4566056 0.5245452 -0.20935425
000010 14 0c e6 3d d6 1d 40 3e 38 51 45 bf 25 30 bc bd
       0.112327725 0.18761382 -0.77077055 -0.0918887
000020 c5 5f f5 be 19 a9 1b 3e 86 a6 30 3f e7 62 c7 bd
       -0.4792463 0.15201224 0.69004095 -0.09735661
000030 8f 63 3a 3f 20 d6 40 3e 5c ce 77 bd 57 a6 70 be
       0.72808164 0.18831682 -0.060499534 -0.23500954
000040 f9 21 08 3e 7a e3 42 3f 36 ae bd be 92 d9 26 ba
       0.1329421 0.7612835 -0.37046975 -0.0006364818
000050 93 d5 dc 3e 4a 03 88 3e 15 25 1c 3e e8 a4 2f 3f
       0.43131694 0.2656501 0.1524852 0.68611
000060 a2 0a f2 3e 7a c2 d1 3d 96 ca 90 3e 54 be 80 bd
       0.47273737 0.102421716 0.2827956 -0.06286302
000070 50 0c ef be 94 d8 72 3e fa 35 bf be 89 01 dd 3d
       -0.4668908 0.2371543 -0.37345868 0.107913084
000080 1b d6 e1 be aa d8 19 bd 5a e2 61 3e df 37 b3 3b
       -0.44108662 -0.037560143 0.22059003 0.005469307
000090 ec 0d d5 be 44 9c 8e be b0 af 48 be 0f 0b ab bd
       -0.41612184 -0.27853596 -0.1959827 -0.08351719
0000a0 7e 6f 1e 3f 92 68 57 3e 4c 38 14 be ac 89 8a be
       0.61888874 0.21035984 -0.144746 -0.2705816
0000b0 b4 55 fd be 86 3a d8 bd 00 e2 10 3f 8a 26 2e 3f
       -0.4947945 -0.105580375 0.5659485 0.68027556
0000c0 5d 5b 65 3f dc ac 64 bf f4 80 81 bf 45 64 4b be
       0.89592534 -0.8932626 -1.0117478 -0.19862469
0000d0 65 ac 42 bf f1 9a cb 3d 1b 0b 4f be 34 16 c1 3e
       -0.76044303 0.09941662 -0.2021908 0.37712252
0000e0 61 3a 44 be 54 ee 03 3f ea 27 b8 bd 4c 93 a6 3d
       -0.19162895 0.51535535 -0.08991988 0.081335634
0000f0 70 d5 10 3f 87 fd 1a 3f 47 9a 2f 3f 50 1d db 3e
       0.5657568 0.605431 0.68594784 0.427958

net.2.weight f4 [32, 64]
000000 1d e2 2b 3f 30 61 df be 3b 53 d5 be 23 1a a4 bb
       0.67141896 -0.43628836 -0.41665062 -0.0050079986
000010 4c 94 93 bf 3f cf 3d 3e a6 bd 34 be 5e 8e 3e be
       -1.1529632 0.1853609 -0.1765047 -0.18608996
000020 61 ae b2 be 60 bd 09 3d 3b 50 8c 3d 83 2c be be
       -0.34898666 0.033627868 0.0685124 -0.37143335
000030 1f 18 ce bc 54 0c 2f 3e 0f b7 8e bd d8 3f a0 be
       -0.025157986 0.17094547 -0.069685094 -0.3129871
000040 7f 79 f0 bd b3 c0 8d 3e 8f 9a 7b be ea 32 cb be
       -0.117419235 0.2768608 -0.24570678 -0.39687282
000050 91 34 4e be 68 1c 0f be 54 a6 e5 3d 08 c3 91 3e
       -0.2013724 -0.1397568 0.11213365 0.2846911
000060 5e 12 8f 3d e2 c7 83 3d 30 31 d9 3d ca b9 f9 3c
       0.06985925 0.06434609 0.10605085 0.030484099
000070 e4 b6 94 be 49 c6 1e be 26 1b a6 be f8 24 a6 bc
       -0.29045784 -0.15505327 -0.32442588 -0.0202813
000080 6f a0 4b bf 61 ac 96 be fb 89 f2 3c e3 6a 6f bf
       -0.7954168 -0.2942839 0.02960681 -0.9352247
000090 9c a0 27 be a4 c7 9e 3c cb f7 28 be ef 44 be 3c
       -0.16369861 0.019382305 -0.16500776 0.02322623
0000a0 e4 38 a9 3d 05 74 eb bd 69 59 ad bd 3b ac 2b 3f
       0.08262804 -0.11496738 -0.08464319 0.6705968
0000b0 65 fc 3c be e2 61 69 3b 64 f5 b0 bd 33 71 bd be
       -0.18455656 0.0035611321 -0.086405545 -0.37000427
0000c0 a5 f4 0a 3e e0 df ab bd d2 f0 4d 3d cb 53 84 be
       0.13569887 -0.0839231 0.050278492 -0.2584518
0000d0 1f 6a 68 3d 56 6b 0d 3d e6 15 12 bf 94 ef e5 bc
       0.05674183 0.03452619 -0.57064664 -0.028068341
0000e0 15 59 a7 3e 04 b5 a7 3e 1f e4 0b be d6 ce da 3e
       0.32685152 0.3275529 -0.1366124 0.42735928
0000f0 2f f8 90 3d 4a ff 74 3e cb 75 46 3e cd 01 93 3d
       0.07078587 0.2392551 0.19380872 0.07178078
000100 ca 38 6e be 08 ac 2c bf 07 2f 68 3e cc a4 f0 bd
       -0.23263851 -0.6745 0.2267419 -0.117501825
000110 80 11 52 3e 80 3e 9f bd 96 7e a6 be 42 92 d5 bd
       0.20514488 -0.07775593 -0.32518452 -0.10428287
000120 37 48 4d be 1a 75 f2 bc 42 6d b7 bd 33 5d b7 3e
       -0.20047079 -0.029596854 -0.08956386 0.35813293
000130 7a 06 02 3e d0 29 08 3e 9e 74 46 3d dc 96 1b 3f
       0.12697783 0.132972 0.04845106 0.6077707
000140 93 4d 1a 3e ea d7 94 be a7 9a 21 3c 80 d8 43 3e
       0.15068655 -0.2907098 0.009863532 0.19125557
000150 ed b5 48 be c9 e8 47 3d 8b 3f 99 be 8a 23 94 be
       -0.19600649 0.048805986 -0.29931292 -0.28933364
000160 4e b1 db 3c 6b e1 50 be 67 03 12 be 70 2f 8c 3d
       0.026817944 -0.2039849 -0.1425911 0.068449855
000170 ed ce 07 3d 9d 2e 70 3e 70 50 ad 3d 71 54 d6 bc
       0.033156324 0.23455282 0.08462608 -0.026163312
000180 78 9e 08 3f a3 c9 16 3d 92 8d c2 be 98 b8 eb 3d
       0.53366804 0.03681339 -0.37998635 0.11509818
000190 d8 a7 eb 3d 1d 30 4a bb 2d 0e 69 be ba b3 54 bc
       0.11506623 -0.0030851432 -0.22759314 -0.012982303
0001a0 9d a1 40 3e c5 2f 09 3e 2e de 80 3d 4c ac 50 3d
       0.1881165 0.13397129 0.062923774 0.050945565
0001b0 86 c4 5d be ef e8 03 be 0d d2 64 3d c5 d7 3c 3e
       -0.21656999 -0.12881826 0.055864383 0.18441685
0001c0 63 24 ef be e2 bd 97 be 98 84 4a be 13 0f 70 3e
       -0.46707448 -0.29637057 -0.19777143 0.2344325
0001d0 93 16 3c 3e 99 19 6e bd 0e e0 ad 3e 85 db 97 3e
       0.18367986 -0.05812988 0.33960003 0.29659668
0001e0 48 39 74 be 19 6c 0b bd 34 60 26 3e a9 42 03 bf
       -0.23849976 -0.034038637 0.16247636 -0.5127359
0001f0 f1 35 80 bd 56 b2 37 be d7 3d cc be 51 ce 64 3d
       -0.062602885 -0.17939124 -0.3989093 0.05586082
000200 cb 75 98 be 6c 31 49 3e 9f 24 ad bd 35 c5 b7 3c
       -0.2977737 0.19647759 -0.084542505 0.022432903
000210 98 14 c2 3e ee 95 02 3e 2c 85 79 be f2 ad 8e 3e
       0.37906337 0.12752506 -0.24367207 0.27867085
000220 d3 f4 c3 3d 76 3e c2 3d 86 ff 3d be 35 c1 f2 3d
       0.09568181 0.0948457 -0.18554506 0.118532576
000230 a4 6e 8f bb 6d e8 f5 be 27 19 92 be f5 51 8b 3e
       -0.004377203 -0.4802889 -0.28534815 0.27210966
000240 c5 f8 05 be a0 5e 9b be 54 34 bb 3c 3f ee 19 3f
       -0.1308318 -0.3034563 0.0228521 0.6012916
000250 64 ea 03 3d bc 23 bb 3d 2e d6 9d 3d 1f 39 51 3e
       0.032205954 0.09137675 0.07706867 0.20431946
000260 3c 55 88 3d cd a1 8a be e1 0c f0 bc 90 ad 8a 3d
       0.06656882 -0.2707657 -0.029303016 0.06771386
000270 24 da ab 3d 5c db d9 bc 49 d0 ed 3c 16 b1 81 3d
       0.083912164 -0.026593857 0.029029982 0.063326046
000280 a3 91 64 3e 4e 1f 26 3d 58 50 82 3e ea 9b 5e 3f
       0.22321181 0.0405572 0.25451922 0.86956656
000290 8d 78 c9 3c 7c 4c 41 be 02 02 e7 3e 0c 70 a6 3c
       0.024593616 -0.18876833 0.4511872 0.0203171
0002a0 8a 9a 3b be a4 60 a3 3e 84 b5 0b 3e 90 a0 ef be
       -0.1832067 0.31909668 0.13643461 -0.46802187
0002b0 71 38 4d 3e ca 40 c9 bd 5e 2b 11 3e a6 59 28 3e
       0.20041062 -0.09826811 0.141767 0.16440448
0002c0 16 ed be be 7e fa 4f be ac e3 45 bd 6c 50 8b 3c
       -0.37290257 -0.20310399 -0.048312828 0.017006122
0002d0 b1 84 09 be bd ef 6d 3e 86 89 ba 3e 10 09 79 bd
       -0.13429524 0.23235984 0.36433047 -0.06079966
0002e0 9e b7 43 bd 55 bd 98 bd 68 74 1c be f7 e8 e7 bd
       -0.047782533 -0.07457987 -0.1527878 -0.113237314
0002f0 f1 82 e1 bc 38 d6 e6 bd 95 25 9c 3e 06 af a4 be
       -0.027528258 -0.11271328 0.30497423 -0.32164782
000300 59 a9 56 3e 48 d2 06 3f 9c 93 12 bc 64 39 81 bd
       0.20963039 0.52664614 -0.008946326 -0.063097745
000310 94 6f 37 be 05 ba f7 3d 3e 67 73 3e 09 29 f8 bc
       -0.17913657 0.12096027 0.23769853 -0.030293005
000320 1f 45 25 3e 41 34 4b bd e4 a3 30 3e 3b 4d 9e bc
       0.16139649 -0.04961038 0.1725002 -0.019323936
000330 b0 3e a9 bd 2e 20 6d 3e 30 0d 86 3e 00 60 b7 be
       -0.0826391 0.23156807 0.26181936 -0.3581543
000340 51 2f 02 3e e7 a5 8f 3e 64 1c 7d bd 9d 25 b0 be
       0.12713362 0.2805626 -0.061794654 -0.34403697
000350 7f f1 01 3d 87 5f f1 3d 82 ab a1 3d 21 80 bb bd
       0.03172445 0.117857985 0.07894041 -0.09155298
000360 d1 dd 8a bd 32 30 d4 3e 13 8f af 3d 3c 3b 10 3e
       -0.06780589 0.4144302 0.08572211 0.14085096
000370 58 8a 56 3e 73 13 a6 bb ec 04 0f bd ba 12 13 be
       0.20951211 -0.0050682365 -0.034916803 -0.14362612
000380 38 4b 57 be 5f fb a3 3d 54 5e 2b 3e 0d 32 1c bf
       -0.21024787 0.080069296 0.16735202 -0.6101387
000390 cb 02 46 3d 8c d9 aa 3e da 3c 3a 3e 5a c9 a7 3b
       0.048342507 0.333691 0.18187276 0.0051204385
0003a0 b6 5e 24 3e 96 b6 25 3d 5e 2b 8e 3b 34 0a cb 3e
       0.16051754 0.04045733 0.004338666 0.39656222
0003b0 d5 ea 2c 3e cb 44 74 3d d8 b2 2f be 88 03 15 be
       0.16886456 0.05963592 -0.17158067 -0.14552128
0003c0 62 f8 bd 3e 86 38 20 3e f2 09 8d 3e b7 93 c6 3d
       0.37103564 0.15646562 0.2754665 0.09696143
0003d0 30 f4 84 3d b9 d7 c1 bd 22 b8 19 be 93 ef aa bd
       0.064918876 -0.09464974 -0.15011647 -0.083464764
0003e0 d9 11 3f 3e 84 f4 ab 3e 44 fc 02 3e d2 ee e2 3e
       0.18659152 0.33584988 0.12791544 0.4432283
0003f0 8e b1 20 be b8 7d 02 3e e2 ec cb bd 65 5a 14 3e
       -0.15692732 0.1274327 -0.09957291 0.14487608

net.2.bias f4 [32]
000000 d7 79 88 3d 19 c4 e2 bd 2a 51 d9 3d 3d 2e 38 3e
       0.06663864 -0.11072559 0.10611184 0.17986389
000010 3d 52 a0 bd 4c 7c 9a bd 0b fc 23 3c d2 86 05 3e
       -0.07828186 -0.07543239 0.010008822 0.13039711
000020 49 9b 00 3e a0 a6 dc 3d df 91 be 3d f5 ee 82 bd
       0.12559237 0.10773969 0.093051665 -0.06393234
000030 82 2f e2 3b 89 38 08 bd 12 70 c8 bc 53 da 3a bd
       0.006902636 -0.03325704 -0.024467502 -0.045618366
000040 d1 db c7 3d 93 a0 0a bd 05 8a 4e 3c 2c c9 cc bd
       0.097587235 -0.03384454 0.012606149 -0.09999308
000050 f3 1a fd bb ac 94 71 3d 5e 5f 7d bd 66 b3 64 3d
       -0.00772416 0.058979675 -0.061858527 0.05583515
000060 bd d5 96 3e da bb a8 bd 49 99 1f 3e f7 8e c7 bd
       0.29459944 -0.08238955 0.15585817 -0.09744065
000070 fe 8b 1a bf 63 83 6a 3d 58 aa db 3d e8 dc 30 3d
       -0.6036986 0.057254206 0.1072585 0.043179423

net.4.weight f4 [1, 32]
000000 3a 57 3a bf 46 b1 3e 3f d2 67 3d 3f d8 14 4d bf
       -0.7278935 0.7448925 0.7398654 -0.8010993
000010 91 c4 2e 3f 88 53 5f 3f d0 84 3a bf f3 52 65 bf
       0.68268687 0.87236834 -0.72858906 -0.89579695
000020 e8 7e 12 3f 80 7c 38 3f 28 ac 38 bf 29 1c 32 bf
       0.57224894 0.7206497 -0.7213769 -0.6957422
000030 42 f2 dd 3e d0 03 25 bf 2d f0 21 3f 20 67 8d 3f
       0.4334889 -0.6445894 0.63257104 1.1047096
000040 fc 95 21 3f 8e 94 2e bf 05 c3 4e bf 59 7a 35 3f
       0.63119483 -0.68195426 -0.80766326 0.7088981
000050 50 cc 19 3f 9e 0e 29 3f 87 bb 5f bf b6 dc 38 bf
       0.6007738 0.6603793 -0.8739552 -0.7221178
000060 af a5 05 3f 95 a7 34 bf 6a d2 44 3f 6a c9 12 bf
       0.5220594 -0.7056821 0.76883566 -0.57338583
000070 58 9c 8c bf d4 6f 10 3f 7c fe 4e 3f 3b 9d 06 3f
       -1.0985212 0.56420636 0.8085706 0.52583665
