data_augmented/checkpoints/discriminator_epoch15.pth (torch, 12820 bytes, 5 tensors)

net.0.weight f4 [64, 5]
0	0xbd025dbc	-0.031827673
1	0x3c205e8b	0.009788166
2	0x3d81d70c	0.06339845
3	0x3e91e3df	0.28494164
4	0xbf2b1cc8	-0.6684079
5	0x39eb73ce	0.00044908974
6	0x37b7bcb8	2.1903179e-05
7	0xb7893b78	-1.6359365e-05
8	0x3f48513d	0.7824896
9	0xb9a59339	-0.00031580942
10	0x3caf6e6f	0.021414964
11	0xbc622f05	-0.013805156
12	0xbe7e96dd	-0.24862237
13	0xbef8fbb1	-0.48629525
14	0x3f5d0d6e	0.8634862
15	0xbe96991c	-0.29413688
16	0x3efb57b0	0.49090338
17	0xbdaae8dd	-0.083451964
18	0x3ec66b59	0.38753775
19	0xbea3eb0b	-0.3201526
20	0x3bd3466e	0.006447605
21	0x3a152381	0.00056891894
22	0xbec8c14e	-0.3920998
23	0x3ed2958a	0.41129714
24	0x3f08e517	0.53474563
25	0xbe8a276a	-0.26983196
26	0xbd4c9041	-0.04994226
27	0x3e72c344	0.237073
28	0x3ca8af7f	0.020591496
29	0xbf18337f	-0.59453577
30	0xbc684378	-0.014176242
31	0xbc9646cb	-0.018344304
32	0xbed0186d	-0.40643635
33	0x3dcaaa63	0.0989578
34	0x3e24e413	0.16102628
35	0xbed56fe8	-0.4168694
36	0x3d1ff4ee	0.039051943
37	0xbcc4b4f9	-0.024012076
38	0x3f4df043	0.80444735
39	0x3e078c5b	0.13237135
40	0xbaca6d3c	-0.0015443931
41	0x39b7c43a	0.0003505068
42	0xbebcbf2e	-0.3686461
43	0x3ef820c1	0.4846249
44	0x3eee9cb4	0.4660393
45	0xbf460199	-0.7734619
46	0xbb82815b	-0.0039827055
47	0xbd330025	-0.04370131
48	0xbc689906	-0.01419664
49	0xbdba4eb3	-0.09097042
50	0xbd8a3aa1	-0.06749464
51	0x3eb8aea3	0.36070737
52	0xbe12dce8	-0.14342082
53	0xbf203ca8	-0.62592554
54	0xbe81f173	-0.25379524
55	0x3c128a13	0.008944052
56	0x3997b0a4	0.00028932572
57	0xbf5444c3	-0.8291742
58	0xbf054153	-0.520528
59	0xbe5014af	-0.2032039
60	0x3d2b80d6	0.041870914
61	0xbe9a9147	-0.30188963
62	0x3e95cd25	0.29258075
63	0xbe0a7ed5	-0.13524945
64	0x3ebaa88d	0.3645672
65	0x39d28192	0.0004015086
66	0x3870b332	5.7387348e-05
67	0x3e9cf95d	0.30659
68	0xbf43b5d9	-0.7644935
69	0x3f481c3d	0.7816809
70	0xb8f08bd0	-0.00011470134
71	0xb95e5c32	-0.00021205915
72	0xbf60026c	-0.87503695
73	0xbdbc1dcf	-0.09185373
74	0xbe8f2f45	-0.2796575
75	0xbbbe3fb4	-0.005805934
76	0xbb056e44	-0.0020359913
77	0x3f7953fd	0.9739378
78	0x3bf9c58d	0.007622427
79	0x3e4bdb6e	0.19907925
80	0xbec1a5c6	-0.37821788
81	0xbdd40337	-0.10352176
82	0xbd3f64fc	-0.046727166
83	0xbf034e89	-0.5129171
84	0x3f2025a0	0.6255741
85	0x3d367e91	0.044554297
86	0x3c422264	0.01184902
87	0x3d87501e	0.06607078
88	0xbf08cfa6	-0.53441846
89	0xbeafc2f3	-0.34328422
90	0xbe938614	-0.2881323
91	0xbd16df6f	-0.036834177
92	0x3d9ed988	0.077563345
93	0x3eb0be5b	0.3452023
94	0x3f76ecba	0.96454966
95	0x3d1ec353	0.038760494
96	0xb9ac2cf7	-0.00032839898
97	0x3d363095	0.044479925
98	0x3f82679e	1.0187871
99	0x3d447d9a	0.047971345
100	0xbb4119e2	-0.002946489
101	0xbb61f4c0	-0.0034478158
102	0xbf2dd313	-0.679002
103	0xbf24f81c	-0.64441085
104	0xbe93c2b2	-0.28859478
105	0xbe6174ec	-0.22017258
106	0x3ed0fe8a	0.40819198
107	0xbf10a2de	-0.56498516
108	0x3e828ffd	0.2550048
109	0x3e4fe732	0.20303038
110	0xba9ed133	-0.001211679
111	0xbedab44f	-0.4271569
112	0xbcef73b4	-0.029229976
113	0x3ee56ac3	0.44808015
114	0xbeb77d39	-0.35837725
115	0xbc8ce675	-0.017199734
116	0xbc98741d	-0.018610055
117	0xbd43ca32	-0.04780025
118	0xbe274c8f	-0.16337799
119	0xbf17b945	-0.59267074
120	0x3ecad17d	0.39612952
121	0xbe97baf2	-0.29634815
122	0x3d0e6dc3	0.034772646
123	0xba2e5c5f	-0.00066513376
124	0xbe0d004f	-0.13769649
125	0xb91288cf	-0.0001397461
126	0xb826898a	-3.9705577e-05
127	0xbe9a455a	-0.30131036
128	0x3df67807	0.12034612
129	0x3f2f19b9	0.68398625
130	0xbe94fd6b	-0.29099593
131	0x3ec60895	0.38678423
132	0x3db48330	0.088140845
133	0xbe525b8b	-0.20542733
134	0xbf1035d6	-0.5633215
135	0x3ea3a01c	0.3195809
136	0xbf184da3	-0.59493464
137	0x3ce6b8df	0.028164325
138	0x3dccea46	0.100056216
139	0x3e705a4e	0.23471949
140	0x3ec25fa4	0.37963593
141	0x3c433829	0.011915245
142	0xbe733c81	-0.23753549
143	0x3ee04921	0.43805793
144	0x3ecf4653	0.4048334
145	0xbe60b65e	-0.21944568
146	0x3f050fd9	0.51977307
147	0x3e75d8d3	0.24008493
148	0xbe006011	-0.12536646
149	0x3f48307a	0.7819897
150	0x3e6d39cd	0.2316658
151	0x3b0f95c2	0.002190933
152	0xbd6abb6b	-0.057307642
153	0xbdf59020	-0.1199038
154	0x3f489d2b	0.7836482
155	0xbbd00321	-0.0063480292
156	0x3f27919c	0.6545656
157	0x3b3de53b	0.0028975743
158	0xbc4ae2f7	-0.012383214
159	0x3b3d5591	0.0028890113
160	0x3c54a88b	0.012979637
161	0x3bd6bcad	0.0065532536
162	0xbf43ba2a	-0.7645594
163	0x3e24035b	0.16016905
164	0x3cebc4c5	0.02878035
165	0x3e637ced	0.22215624
166	0xbe54c2aa	-0.20777383
167	0xbf25373e	-0.6453742
168	0xbea6f5d9	-0.32609442
169	0x3eb551b2	0.3541389
170	0xb9e86c72	-0.00044331286
171	0x398e93bc	0.0002719442
172	0xbc866844	-0.01640714
173	0x3f41da78	0.7572398
174	0x3eabf936	0.3358857
175	0xbc585bb8	-0.013205461
176	0xbcc74990	-0.02432707
177	0xbda2307e	-0.079194054
178	0x3f6103b6	0.8789629
179	0xbd2fb904	-0.042901054
180	0x3dfd5a24	0.123707086
181	0x3e99f795	0.30071703
182	0xbed54a46	-0.4165823
183	0x3e10f691	0.14156558
184	0x3e0472c8	0.1293441
185	0x3b047b1a	0.0020214976
186	0x39dec1ae	0.00042487442
187	0xbf56be0a	-0.83883727
188	0xbe9c4661	-0.30522445
189	0xbf34c296	-0.70609415
190	0xbec8e941	-0.3924046
191	0x3cacba97	0.021085067
192	0xbd1c295a	-0.038125373
193	0x3f686649	0.90781075
194	0x3d5359d8	0.051599354
195	0x3f231354	0.6370137
196	0x3dd43979	0.103625245
197	0xbe6caceb	-0.23112838
198	0x3ce2bca6	0.027677845
199	0x3e643ad2	0.22288063
200	0x3c5c02f1	0.013428436
201	0x3924a994	0.00015703432
202	0x3f3dd5f6	0.74154603
203	0xbf0ffd9c	-0.5624635
204	0x3f040129	0.5156427
205	0x3e9b7299	0.3036087
206	0x3e944739	0.2896059
207	0x3e89526a	0.2682069
208	0x3f635af4	0.8881066
209	0x3e964c1d	0.29354945
210	0x3e866b7a	0.26253873
211	0x3eb0796d	0.3446764
212	0x3ea98485	0.33108917
213	0x3efa0987	0.48835394
214	0x3cb2bcaf	0.021818487
215	0x395e063c	0.00021173892
216	0xb8e66b69	-0.00010987261
217	0x3d92a9bb	0.0716128
218	0xbf433b60	-0.76262474
219	0x3d33d923	0.04390825
220	0x3ded187d	0.115769364
221	0xbe692e3e	-0.22771546
222	0xbe5a4e4d	-0.21318932
223	0x3e9b3961	0.30317214
224	0xbe1a57db	-0.15072577
225	0x3efcf06e	0.49402183
226	0x3ec2e33a	0.38063985
227	0xbedc1c93	-0.4299055
228	0xbf2c48af	-0.67298406
229	0xbf3bc8e5	-0.73353416
230	0x3cce0025	0.025146553
231	0x3ba44329	0.005012889
232	0x3f0f043e	0.5586585
233	0xbe8ccd33	-0.27500305
234	0xbdcffdde	-0.10155843
235	0x39b25126	0.00034011266
236	0x3c346bcc	0.011012029
237	0xbe8d2afe	-0.27571863
238	0xbf011a8a	-0.5043112
239	0x3f8f2c78	1.1185446
240	0x3951879a	0.00019982309
241	0x388209fa	6.200741e-05
242	0xbd55fbed	-0.05224221
243	0xbf37a472	-0.717353
244	0xbf127a02	-0.5721742
245	0xbd9c5bb5	-0.07634679
246	0x3d29dddd	0.04147135
247	0xbe593aea	-0.2121388
248	0x3ed760bf	0.42066
249	0xbdc344a2	-0.09534575
250	0x3a87154e	0.0010306032
251	0xba67598b	-0.00088252936
252	0x3e64e1e4	0.22351795
253	0x3ef64949	0.48102787
254	0x3f049876	0.51795137
255	0x3d810d25	0.06301335

net.0.bias f4 [64]
0	0xbf0c1b61	-0.54729277
1	0x3ee81e90	0.45335817
2	0x3ee1af64	0.44079125
3	0xbe496801	-0.1966858
4	0x3de811d3	0.11331525
5	0x3dc74211	0.09729398
6	0xbf3d23a3	-0.738825
7	0xbd85f7bf	-0.065413944
8	0xbef3e1cb	-0.47633204
9	0x3e043023	0.12908988
10	0x3f3651c8	0.7121854
11	0xbdc30d59	-0.0952403
12	0x3f36b4b8	0.71369505
13	0x3e06cb18	0.13163412
14	0xbda934f1	-0.08262051
15	0xbe6b0b93	-0.22953634
16	0x3dc1475c	0.09437439
17	0x3f407314	0.75175595
18	0xbeb5c66e	-0.35502952
19	0x3c87b1d1	0.016564282
20	0x3ea8409a	0.32861787
21	0x3e9038a1	0.28168204
22	0x3e1c528c	0.15265864
23	0x3f2ef224	0.6833823
24	0x3ef035af	0.46915957
25	0x3dcbcc2b	0.09951051
26	0x3e6beab0	0.23038745
27	0xbd1d6f8a	-0.03843645
28	0xbef833ac	-0.48476923
29	0x3e36b863	0.17843775
30	0xbedaa8a9	-0.42706802
31	0x3dd25a6c	0.10271153
32	0xbedb08ab	-0.4278005
33	0xbd1d8ad5	-0.03846248
34	0x3e7bbb8a	0.24583259
35	0x3cd2ecb3	0.025747633
36	0xbec4fd5b	-0.38474545
37	0xbe8cc560	-0.27494335
38	0xbe236697	-0.15957104
39	0xbd1dc03e	-0.038513415
40	0x3f1d9873	0.61560744
41	0x3e4b537a	0.19856063
42	0xbdfbe3a6	-0.1229928
43	0xbe8e44f0	-0.2778697
44	0xbefa2c41	-0.48861888
45	0xbe0bfdc4	-0.13671023
46	0x3f0c67bf	0.54845804
47	0x3f14e2e6	0.5815872
48	0x3f5ea723	0.8697378
49	0xbf688852	-0.9083301
50	0xbf80ee63	-1.007275
51	0xbe844f79	-0.25841883
52	0xbf3f3190	-0.74685
53	0x3dafd716	0.08585946
54	0xbe1e6719	-0.15469016
55	0x3eaf2c21	0.34213355
56	0xbe24fcf3	-0.16112117
57	0x3ef5ab28	0.47982144
58	0xbe649ddd	-0.22325845
59	0x3ddab31c	0.10678694
60	0x3f0b1b4d	0.5433853
61	0x3f1615fd	0.586273
62	0x3f3396cc	0.7015197
63	0x3ebf9b02	0.3742295

net.2.weight f4 [32, 64]
0	0x3f0cfe56	0.55075586
1	0xbeae68ee	-0.3406443
2	0xbea00642	-0.31254774
3	0x3cbc06b6	0.022952419
4	0xbf82f3e6	-1.0230682
5	0x3e6aa112	0.22913006
6	0xbe2dacfc	-0.1696052
7	0xbe3b8fd7	-0.1831659
8	0xbea9cbbf	-0.33163258
9	0x3d4f007b	0.050537568
10	0x3d1520a6	0.03640809
11	0xbeb3bd63	-0.35105428
12	0xbd88adde	-0.066737875
13	0x3dcbdb4a	0.099539354
14	0xbdef34a8	-0.11679965
15	0xbe720d86	-0.23637971
16	0xbe152f0d	-0.1456873
17	0x3e7f7b26	0.24949321
18	0xbe5c54e5	-0.2151676
19	0xbead6e86	-0.33873385
20	0xbe32487c	-0.17410463
21	0xbde8b15a	-0.11361952
22	0x3df50450	0.11963713
23	0x3e8db7ad	0.27679196
24	0x3d708dc0	0.058728933
25	0xbd16adab	-0.036786716
26	0x3df3c8f5	0.11903564
27	0xbcb50357	-0.02209632
28	0xbe887c0a	-0.26657134
29	0xbe3c71e1	-0.18402816
30	0xbe9be40f	-0.30447432
31	0xbd2a357f	-0.041554924
32	0xbf220720	-0.6329212
33	0xbe911aa2	-0.28340632
34	0x3ccf5b42	0.02531207
35	0xbf5e96a9	-0.8694864
36	0xbe35d2e4	-0.1775623
37	0xbcf731ab	-0.03017505
38	0xbe10bb0a	-0.1413385
39	0x3d6017fe	0.05471038
40	0x3d909cfd	0.07061193
41	0xbdf7373c	-0.12071082
42	0xbd48a47e	-0.048984997
43	0x3f11437f	0.56743616
44	0xbe25bac9	-0.16184534
45	0x3a51f734	0.00080095534
46	0xbd963de6	-0.07336025
47	0xbe89b6b4	-0.26897204
48	0x3de5ba7d	0.112172104
49	0xbd1c8d9f	-0.038220998
50	0x3d9e9f85	0.0774527
51	0xbe98e071	-0.29858735
52	0x3db2c5ca	0.087291315
53	0x3d98f236	0.07468073
54	0xbec4ae61	-0.3841429
55	0xbd7a1ac3	-0.06106068
56	0x3e4a15ae	0.19734833
57	0x3e8f714f	0.28016135
58	0xbe211118	-0.15729177
59	0x3ec6ce2b	0.3882917
60	0x3d60e703	0.05490781
61	0x3e61d86f	0.22055219
62	0x3e681372	0.22663668
63	0x3d784118	0.060608953
64	0xbe5dee56	-0.21672949
65	0xbf50b9ab	-0.81533307
66	0x3e6150e2	0.2200351
67	0xbdf789fa	-0.12086864
68	0x3e467a19	0.19382514
69	0xbdc977d8	-0.098373115
70	0xbe5ce570	-0.21571898
71	0xbe035b32	-0.12827757
72	0xbe6d790f	-0.23190711
73	0xbcc7f90c	-0.024410747
74	0xbd69c505	-0.057072658
75	0x3ed28090	0.4111371
76	0x3dec425a	0.11536093
77	0x3dfd11fa	0.123569444
78	0x3cc51d57	0.024061842
79	0x3f08792b	0.5330989
80	0x3e1570a1	0.14593746
81	0xbe8107fd	-0.25201407
82	0xbc0efbb1	-0.008727
83	0x3e0dff9d	0.1386704
84	0xbde5cb35	-0.11220399
85	0x3d53ac80	0.05167818
86	0xbe948b52	-0.29012543
87	0xbe6b03fc	-0.22950739
88	0x3cb9c75e	0.022678073
89	0xbe1631fa	-0.14667502
90	0xbe0f5e31	-0.14000775
91	0x3d99c983	0.075091384
92	0xbc72eeb0	-0.014827415
93	0x3e51e3cb	0.20497052
94	0x3d7e7593	0.062123846
95	0xbd4f8913	-0.050667834
96	0x3eefc711	0.46831563
97	0x3d724472	0.059147306
98	0xbec1a961	-0.37824538
99	0x3dcbe87e	0.09956454
100	0x3d9eb27d	0.07748888
101	0xbd515723	-0.05110849
102	0xbe5d57f6	-0.21615586
103	0xbcb856ce	-0.02250233
104	0x3e246df8	0.16057575
105	0x3dc6ac41	0.097008236
106	0x3d44fc70	0.048092306
107	0x3d8482de	0.064702734
108	0xbe55e810	-0.20889306
109	0xbdb6ca7f	-0.08925342
110	0x3d171415	0.036884386
111	0x3e3452d6	0.17609724
112	0xbed19865	-0.4093658
113	0xbe971cdd	-0.29514208
114	0xbe8d30a0	-0.2757616
115	0x3e60b6ac	0.21944684
116	0x3e34494f	0.1760609
117	0xbd8ae297	-0.067815
118	0x3e75eac3	0.24015336
119	0x3e90d542	0.28287703
120	0xbde7edc2	-0.113246456
121	0xbca9d891	-0.02073315
122	0x3dfdcdac	0.123927444
123	0xbef40907	-0.47663137
124	0xbda5ceb6	-0.080960676
125	0xbe0e887a	-0.13919249
126	0xbec1ad6a	-0.37827617
127	0x3d5f87f5	0.054573018
128	0xbe63eb0f	-0.22257636
129	0x3e8c0da8	0.2735417
130	0xbe08679c	-0.13320774
131	0x3c67b14c	0.014141392
132	0x3ebef220	0.37294102
133	0x3da42905	0.08015636
134	0xbe2822fc	-0.16419595
135	0x3e959284	0.29213345
136	0x3da6b1c3	0.08139374
137	0x3ddf1f0f	0.10894596
138	0xbe30f4ee	-0.17280933
139	0x3ddce129	0.107851334
140	0x3bb56e4a	0.005536829
141	0xbedd1166	-0.43177336
142	0xbe767b52	-0.2407048
143	0x3e3cb0b6	0.18426785
144	0xbdff7181	-0.12472821
145	0xbe98d399	-0.29848936
146	0x3c85bbe3	0.016324943
147	0x3f12534d	0.57158357
148	0x3c9f931c	0.019479327
149	0x3dad9479	0.084755845
150	0x3d950bd2	0.07277645
151	0x3e489134	0.1958664
152	0x3d7d488b	0.06183676
153	0xbe69d8a8	-0.22836554
154	0xbd4fa0c7	-0.05069044
155	0x3dbd6f63	0.09249761
156	0x3d66db5a	0.056361534
157	0xbcac8ebf	-0.02106416
158	0x3c92c4c5	0.017916093
159	0x3d463620	0.04839146
160	0x3e272a19	0.16324653
161	0x3d2907a5	0.041267056
162	0x3e8936dc	0.26799667
163	0x3f59a40d	0.85015947
164	0x3d21b897	0.03948268
165	0xbe1f0954	-0.15530902
166	0x3ef10a04	0.47077954
167	0x3b2a9ca1	0.00260333
168	0xbe2120d2	-0.15735176
169	0x3ea71532	0.32633358
170	0x3df2d90e	0.11857806
171	0xbee9eea2	-0.45689875
172	0x3e4951e0	0.19660139
173	0xbdc228db	-0.09480449
174	0x3e0abb71	0.13548066
175	0x3df3f139	0.11911244
176	0xbebcb54e	-0.36857074
177	0xbe5a6aaa	-0.21329752
178	0xbd917848	-0.0710302
179	0x3cd11b9c	0.02552586
180	0xbe14d912	-0.14535931
181	0x3e651c47	0.22374068
182	0x3e929ae0	0.28633785
183	0xbd23c0aa	-0.03997866
184	0x3d5a56c4	0.053305402
185	0xbd19a294	-0.037508562
186	0xbe1ecb22	-0.15507177
187	0xbd805a98	-0.062672794
188	0xbd1e433d	-0.038638342
189	0xbde7c232	-0.11316337
190	0x3e8a1592	0.26969582
191	0xbea9148a	-0.33023483
192	0x3e0a7ae9	0.13523449
193	0x3edf8c93	0.43661937
194	0x3d20089d	0.039070714
195	0xbd60dd19	-0.054898355
196	0xbe3244c9	-0.17409052
197	0x3e2c3999	0.16818847
198	0x3e22ed71	0.15910889
199	0xbd4297de	-0.047508113
200	0x3e32b5ce	0.17452165
201	0xbd82a289	-0.06378657
202	0x3e23c8e6	0.15994605
203	0xbc0885a4	-0.008332644
204	0xbdbf2812	-0.09333815
205	0x3e3b2c05	0.18278511
206	0x3e5ef3a1	0.21772625
207	0xbe8b2144	-0.27173817
208	0x3df7398d	0.12071524
209	0x3e8d26be	0.2756862
210	0xbd67e572	-0.0566153
211	0xbea6513b	-0.3248385
212	0x3d3715f6	0.044698678
213	0x3dfe7f24	0.12426594
214	0x3daa34a6	0.08310823
215	0xbda9fab2	-0.082997695
216	0xbd81473e	-0.063124165
217	0x3ebe300e	0.37146038
218	0x3ddb60f1	0.107118495
219	0x3ded254f	0.11579382
220	0x3e71a681	0.23598672
221	0xbc3bf164	-0.011471126
222	0xbcc85967	-0.024456693
223	0xbe041379	-0.12898053
224	0xbe19dd43	-0.15025811
225	0x3da2d9b9	0.079516836
226	0x3e1a5656	0.15071997
227	0xbf1964e5	-0.5991958
228	0x3d0a0753	0.03369839
229	0x3e9a0629	0.30082825
230	0x3e21c7e7	0.15798913
231	0x3cba07c5	0.022708783
232	0x3e094d1f	0.13408326
233	0x3cf9ef4c	0.030509613
234	0x3ca8c4e0	0.02060169
235	0x3ec5a0c2	0.3859921
236	0x3e314c4c	0.17314261
237	0x3d67a9be	0.056558363
238	0xbe29c686	-0.16579637
239	0xbdcebbdf	-0.10094427
240	0x3ebbd7f8	0.3668821
241	0x3e2b0bd6	0.16703734
242	0x3e977766	0.2958328
243	0x3db3bf88	0.08776766
244	0x3d9c2c28	0.0762561
245	0xbdb0a1f8	-0.08624643
246	0xbd96b6b6	-0.07359068
247	0xbdd6c8f4	-0.104875475
248	0x3db0075a	0.08595152
249	0x3e98e02b	0.29858527
250	0x3e04b43f	0.12959383
251	0x3ec94ffe	0.39318842
252	0xbe15854a	-0.14601627
253	0x3e031a27	0.12802945
254	0xbd83cbe6	-0.06435375
255	0x3e1d044b	0.15333669

net.2.bias f4 [32]
0	0x3cbe0279	0.023194538
1	0xbdca1e61	-0.098690756
2	0x3e03d0f2	0.12872675
3	0x3e2073f3	0.15669231
4	0xbd6027d1	-0.054725472
5	0xbd5460d9	-0.051850174
6	0xbc577ce7	-0.013152338
7	0x3da14008	0.07873541
8	0x3de1fc64	0.11034468
9	0x3de3373d	0.1109452
10	0x3d87c5f9	0.06629557
11	0xbd17d33c	-0.037066683
12	0x3cb87a24	0.022519179
13	0xbc90684c	-0.017627858
14	0xbcb87bd8	-0.02251999
15	0xbd35762a	-0.044302143
16	0x3df61165	0.120150365
17	0xbd699cfc	-0.057034478
18	0xbc2d7d08	-0.010588892
19	0xbdc60af4	-0.09670058
20	0xbaee46c9	-0.0018179055
21	0x3c5b05d5	0.01336809
22	0xbdadf995	-0.084948696
23	0x3d05de98	0.032682985
24	0x3ea1de46	0.31614894
25	0xbdd5d989	-0.10441882
26	0x3e2b1031	0.16705395
27	0xbe038a4f	-0.1284573
28	0xbf161f7b	-0.58641785
29	0x3da2d41d	0.07950614
30	0x3e0460cf	0.12927555
31	0x3ccc8ace	0.024968531

net.4.weight f4 [1, 32]
0	0xbf20bd41	-0.6278878
1	0x3f327793	0.69713706
2	0x3f225f3b	0.6342656
3	0xbf36cd3d	-0.7140692
4	0x3f176675	0.5914071
5	0x3f3e8d54	0.744344
6	0xbf227d8f	-0.6347284
7	0xbf44539f	-0.76690096
8	0x3f094835	0.53625804
9	0x3f2f034e	0.6836442
10	0xbf1ea830	-0.61975384
11	0xbf1e4185	-0.61818725
12	0x3ea59d28	0.32346463
13	0xbf114a56	-0.5675405
14	0x3f1aea86	0.60514104
15	0x3f8151ad	1.010305
16	0x3f0c38ad	0.5477398
17	0xbf139180	-0.5764389
18	0xbf3043b8	-0.6885333
19	0x3f2f79ee	0.68545425
20	0x3f137da6	0.576136
21	0x3ef6d3cd	0.48208466
22	0xbf493754	-0.7860005
23	0xbf20f563	-0.6287443
24	0x3ef0180f	0.46893355
25	0xbf1cdc57	-0.6127371
26	0x3f373f62	0.7158109
27	0xbf045d90	-0.51705265
28	0xbf7f5d27	-0.99751514
29	0x3ef7e076	0.48413438
30	0x3f39c8ba	0.7257191
31	0x3ed7b2a1	0.4212847
