data_augmented/checkpoints/discriminator_epoch27.pth (torch, 12820 bytes, 5 tensors)

net.0.weight f4 [64, 5]
0	0xb868b8bc	-5.5485158e-05
1	0x399e902b	0.00030243522
2	0x3e8eced4	0.27892172
3	0x3e6c165f	0.23055409
4	0xbf2465f2	-0.64218056
5	0x38e04dc2	0.00010695636
6	0x39589f54	0.0002065872
7	0x38b8760e	8.795793e-05
8	0x3f4c00f3	0.7968895
9	0xb9009b80	-0.0001226496
10	0x3afc0360	0.001922708
11	0xb6e20390	-6.7357396e-06
12	0xbe8960f8	-0.26831794
13	0xbeeea800	-0.4661255
14	0x3f7c4dc0	0.9855614
15	0xbcc5edc3	-0.024161225
16	0x3f2298b8	0.6351428
17	0xbd68d402	-0.05684281
18	0x3ebffb48	0.374964
19	0xbe8c641e	-0.27420133
20	0x39bd384e	0.0003609084
21	0x3b118a46	0.0022207662
22	0xbeaf7e39	-0.34275988
23	0x3eccd484	0.40005887
24	0x3f144412	0.5791637
25	0xbde2b958	-0.11070508
26	0xbcdfc229	-0.027314262
27	0x3ed14a1a	0.40876848
28	0x3dd45f2d	0.10369716
29	0xbf91e789	-1.1398784
30	0xba3e98fa	-0.000727072
31	0xba5c6cb6	-0.0008408533
32	0xbef8efd9	-0.4862049
33	0x3ddd9778	0.10819906
34	0x3e1cda7f	0.15317725
35	0xbeb73174	-0.35779917
36	0xbcd449d2	-0.025914107
37	0x3e59ac3d	0.2125711
38	0x3f5e7ebb	0.86912125
39	0x3e356292	0.17713383
40	0x39aa362a	0.00032465282
41	0x3a9c359c	0.0011917832
42	0xbebc5219	-0.36781386
43	0x3edca1eb	0.43092284
44	0x3eec0df4	0.46104395
45	0xbf2580e1	-0.6464978
46	0x3ca350bb	0.019935956
47	0x3d0cbf98	0.034362406
48	0xba1448b6	-0.0005656587
49	0xbee3fc20	-0.44528294
50	0xbd19284d	-0.03739195
51	0x3ee7e9c6	0.45295542
52	0xbe2527ef	-0.16128515
53	0xbf25cd57	-0.6476645
54	0xbe89ad91	-0.26890233
55	0x3a95dd3f	0.0011433734
56	0xbb9c56e9	-0.0047711027
57	0xbf4e79a1	-0.8065434
58	0xbee1b521	-0.44083503
59	0xbea6f5cf	-0.32609412
60	0x39aa9975	0.0003253926
61	0xbe942c08	-0.28939843
62	0x3e5d8b78	0.21635234
63	0xbe41dafb	-0.1893119
64	0x3f0e0260	0.55472374
65	0x3a1d726c	0.0006006125
66	0xb907fa03	-0.0001296774
67	0x3eb83f6b	0.35985884
68	0xbf441781	-0.76598364
69	0x3f6bbc2d	0.9208401
70	0xb9bacd58	-0.00035629678
71	0x389c9f57	7.468339e-05
72	0xbf796afe	-0.9742888
73	0xbbb82b2a	-0.00562038
74	0xbe9d392b	-0.30707678
75	0xbad4da37	-0.001623935
76	0x3a960825	0.0011446519
77	0x3f92c6cb	1.1466917
78	0xbe252872	-0.1612871
79	0x3ec010c2	0.37512785
80	0xbe69d8e4	-0.22836643
81	0xbd48259f	-0.048864003
82	0xbe10d554	-0.14143878
83	0xbf208496	-0.6270231
84	0x3f6dc010	0.9287119
85	0xbc225a8c	-0.009909283
86	0x3b382abc	0.0028101644
87	0x3cb65ce2	0.022261087
88	0xbf0bb3f6	-0.54571474
89	0xbeba70bb	-0.36414132
90	0xbea7d919	-0.3278282
91	0x3c9d0ab8	0.01917015
92	0x3d81a1bf	0.06329679
93	0x3ed39316	0.41323155
94	0x3f7826dd	0.969343
95	0x3d58ecc5	0.052960176
96	0xbc8d7f67	-0.017272664
97	0x3de4271c	0.11140272
98	0x3f8d0a09	1.1018687
99	0xba3a246a	-0.0007100763
100	0xbbf8f81a	-0.0075979354
101	0x3b457483	0.003012926
102	0xbf5dceae	-0.86643493
103	0xbf264019	-0.64941555
104	0xbe7a1ad5	-0.24424298
105	0xbe1fcdbf	-0.1560583
106	0x3f0b749c	0.54474807
107	0xbf262e74	-0.6491463
108	0x3e78a798	0.24282682
109	0x3e482eea	0.19549146
110	0xb9e61306	-0.00043883192
111	0xbee9be01	-0.45652774
112	0xbcee6886	-0.029102575
113	0x3eeef4c0	0.46671104
114	0xbec8c653	-0.3921381
115	0xbc31eae6	-0.010859227
116	0xbd0193f5	-0.031635243
117	0xb9ea72a0	-0.0004471736
118	0xbe3be45c	-0.18348831
119	0xbf34a3d1	-0.70562464
120	0x3ec413da	0.38296396
121	0xbe1ee532	-0.15517119
122	0x3d8eb13c	0.069673985
123	0x3babadd5	0.0052392283
124	0xbed6dfc9	-0.4196761
125	0x39af70b9	0.00033462586
126	0x39093e3f	0.00013088527
127	0xbeae9c88	-0.341038
128	0x3dba2557	0.09089153
129	0x3f46e579	0.776939
130	0xbe1d3d5e	-0.15355441
131	0x3ea09f47	0.3137152
132	0x3d97f1dc	0.07419178
133	0xbea45572	-0.3209644
134	0xbf82b898	-1.0212584
135	0x3980d746	0.00024574454
136	0xbf31e514	-0.6949017
137	0x3d04928d	0.032366324
138	0x3e9597bd	0.2921733
139	0x3ebd0476	0.36917466
140	0x3ea425ae	0.32059997
141	0x3d1fa0c9	0.038971696
142	0xbe83f710	-0.2577443
143	0x3ed9a610	0.42509508
144	0x3eebaf65	0.46032253
145	0xbe22d3d9	-0.15901126
146	0x3ef79fdf	0.4836416
147	0x3e74fd16	0.2392467
148	0xbe98e2d5	-0.2986056
149	0x3f75662a	0.95859015
150	0x3c0f8efd	0.008762118
151	0xbb64e5cc	-0.0034927009
152	0x3ce1095b	0.027470281
153	0xbe0e345f	-0.13887165
154	0x3f594fc1	0.8488732
155	0xbb19ffed	-0.002349849
156	0x3f32664f	0.6968736
157	0x3b62a83d	0.003458514
158	0x3c5d80a7	0.013519443
159	0xbb7ac16f	-0.0038262268
160	0xbae20d87	-0.0017246463
161	0xba9f227e	-0.0012141017
162	0xbf5fe7d0	-0.8746309
163	0x3e32658c	0.1742155
164	0x3c84bac3	0.016202336
165	0x3e26db16	0.16294512
166	0xbe0f7a6e	-0.14011547
167	0xbf28edbb	-0.6598775
168	0xbece6ac8	-0.40315843
169	0x3f025b5f	0.5092067
170	0x3a8c5583	0.0010706637
171	0x3a4105ad	0.00073632115
172	0xbbe45ea0	-0.006969288
173	0x3f43d008	0.76489305
174	0x3ed6112f	0.41809985
175	0xbb33d99d	-0.002744294
176	0xbd28a99d	-0.04117738
177	0xbc543e1e	-0.012954263
178	0x3f751a65	0.957434
179	0xbdcd897e	-0.1003599
180	0xba15f308	-0.00057201134
181	0x3dcc0b10	0.099630475
182	0xbf08d31c	-0.5344713
183	0x3e4ff0a8	0.20306647
184	0x3e1531ab	0.14569728
185	0x3a7009d5	0.00091567385
186	0x3ab88106	0.0014076538
187	0xbf72173e	-0.94566715
188	0xbe745d12	-0.23863629
189	0xbf22a377	-0.6353068
190	0xbed68004	-0.41894543
191	0x3bb9fac5	0.005675646
192	0xbcd74871	-0.02627966
193	0x3f6b9bae	0.92034423
194	0x3cf32e6e	0.029685225
195	0x3f22c214	0.6357739
196	0x3d5911b6	0.052995406
197	0xbe1b96d4	-0.15194255
198	0x3e50a70a	0.2037622
199	0x3e3ae21f	0.18250321
200	0x3a0bbf9e	0.00053309824
201	0x3c07d1fd	0.008289811
202	0x3f514a88	0.8175435
203	0xbf34d2da	-0.70634234
204	0x3efe9dd7	0.49729797
205	0x3e2c4f2e	0.1682708
206	0x3e269c83	0.16270642
207	0x3ebb682a	0.36602908
208	0x3f62433e	0.88383853
209	0x3ea3051a	0.3183983
210	0xbb89935b	-0.0041984743
211	0x3edb1138	0.42786574
212	0x3e7bca60	0.24588919
213	0x3efdd150	0.49573755
214	0x3dbcb96a	0.092150524
215	0xbb893833	-0.0041876077
216	0x3b975017	0.0046177018
217	0x3db74763	0.08949163
218	0xbf4e396d	-0.80556375
219	0x3dfbc51b	0.12293454
220	0x38a3a88f	7.803842e-05
221	0xbe3a6689	-0.18203177
222	0xbe7c0f37	-0.24615179
223	0x3ebf633d	0.373804
224	0xbe3de359	-0.18543757
225	0x3eb03115	0.34412447
226	0x3ecc9d22	0.39963633
227	0xbeba2090	-0.36352968
228	0xbf441920	-0.7660084
229	0xbf8198f6	-1.0124805
230	0x3bae8f7e	0.005327164
231	0xbc39120c	-0.011295807
232	0x3f126a77	0.571937
233	0xbe9e96bd	-0.3097438
234	0x3c1df858	0.009641729
235	0x3bc91a7b	0.00613719
236	0x3a775150	0.0009434419
237	0xbea636d5	-0.3246371
238	0xbf06094c	-0.52357936
239	0x3f9ec734	1.2404542
240	0x3a17ebdd	0.0005795339
241	0xb93cc105	-0.00018000983
242	0xbd9ce828	-0.07661468
243	0xbf426a13	-0.75943106
244	0xbf1be852	-0.6090137
245	0xbda9ddaf	-0.08294236
246	0x3d8532a1	0.06503797
247	0xbe916a2f	-0.28401324
248	0x3ec01734	0.37517703
249	0xbd723924	-0.059136525
250	0x3aa18480	0.0012322813
251	0x3a76334c	0.0009391799
252	0x3ed71f31	0.42015985
253	0x3ee95ac8	0.45577073
254	0x3ee8f83f	0.45501897
255	0x3d34a16b	0.044099253

net.0.bias f4 [64]
0	0xbf410903	-0.75404376
1	0x3eec307e	0.46130747
2	0x3f11b870	0.56922054
3	0xbe557399	-0.20844878
4	0x3e16b06d	0.14715739
5	0x3d730383	0.05932952
6	0xbf4d0dd5	-0.8009923
7	0xbde4df17	-0.111753635
8	0xbefd3466	-0.4945404
9	0x3e3e0ad3	0.18558817
10	0x3f34e975	0.7066873
11	0xbd81cf41	-0.06338359
12	0x3f3fd843	0.74939364
13	0x3e6d633d	0.23182388
14	0xbd14e981	-0.0363555
15	0xbe63ac85	-0.2223378
16	0x3e4cc237	0.19995962
17	0x3f47542b	0.77862805
18	0xbec7e54e	-0.39042133
19	0xbd106c65	-0.035259623
20	0x3f0dcd6a	0.5539156
21	0x3e850d15	0.25986543
22	0x3e1c1792	0.15243366
23	0x3f3321a2	0.69973195
24	0x3efaff09	0.490227
25	0x3db4dbea	0.08831008
26	0x3eb34e39	0.35020617
27	0xbdf72aff	-0.12068748
28	0xbee95294	-0.45570815
29	0x3ebdf1d2	0.37098557
30	0xbebf121e	-0.3731851
31	0x3e05917b	0.13043778
32	0xbeebbadc	-0.46041
33	0xbc3a0e14	-0.011355896
34	0x3e44820d	0.19190235
35	0xbcf1cf4a	-0.029517788
36	0xbee7ace7	-0.45249102
37	0xbe79aae0	-0.2438159
38	0xbe5a8e03	-0.21343236
39	0xbe1f71cf	-0.15570758
40	0x3f232869	0.63733536
41	0x3e89d288	0.26918435
42	0xbdfec94a	-0.124407366
43	0xbe69b45e	-0.22822711
44	0xbf0b0eff	-0.5431976
45	0x3c0b63ea	0.008507708
46	0x3f1a83c9	0.6035734
47	0x3f3bce67	0.7336182
48	0x3f70ebc0	0.94109726
49	0xbf5f86f8	-0.8731532
50	0xbf8302be	-1.0235212
51	0xbdbbc578	-0.091685236
52	0xbf43c765	-0.76476127
53	0x3e417c17	0.18894993
54	0xbe61c147	-0.22046386
55	0x3ee844f6	0.45365113
56	0xbe907459	-0.28213766
57	0x3f0f781a	0.56042635
58	0x3d4f604f	0.050628956
59	0x3d23c913	0.03998668
60	0x3f1bf078	0.609138
61	0x3f2b3874	0.66883016
62	0x3f25430c	0.6455543
63	0x3ed0f397	0.40810844

net.2.weight f4 [32, 64]
0	0x3f6f2016	0.93408334
1	0xbdfb012e	-0.122560844
2	0xbf0e9e25	-0.5571006
3	0xbc13b882	-0.009016158
4	0xbfa84f48	-1.3149195
5	0x3e0668d6	0.13125929
6	0xbe6dfb83	-0.23240475
7	0xbe48b354	-0.19599658
8	0xbecad78c	-0.39617574
9	0x3d72b4ff	0.059254643
10	0x3de0f3c4	0.109839946
11	0xbeb83589	-0.35978344
12	0x3d117896	0.03551539
13	0x3e0d098b	0.13773172
14	0xbc13c951	-0.009020166
15	0xbe89d1c4	-0.2691785
16	0xbe05fdb1	-0.13085057
17	0x3ea77dcf	0.32713172
18	0xbe82506d	-0.25451985
19	0xbee246c9	-0.4419463
20	0xbe82cd10	-0.25547075
21	0xbe2d5a53	-0.16928987
22	0x3e191d9d	0.14952703
23	0x3ea568ee	0.32306617
24	0x3dcba7d9	0.09944124
25	0x3d641b42	0.055690058
26	0x3de8a440	0.11359453
27	0x3db5eeca	0.08883436
28	0xbeb55292	-0.3541456
29	0xbdd4af08	-0.10384947
30	0xbeedc211	-0.46437123
31	0xbd529578	-0.051412076
32	0xbf78fecf	-0.9726381
33	0xbecb1c65	-0.396701
34	0x3d4c4cf6	0.049878083
35	0xbf7d5af5	-0.98966914
36	0xbe820f66	-0.25402373
37	0x3d73f4e4	0.059559718
38	0xbe350292	-0.17676762
39	0xbb996589	-0.0046812934
40	0x3da14324	0.07874134
41	0xbd62c3b3	-0.055362415
42	0xbd86b900	-0.06578255
43	0x3f374f53	0.71605414
44	0xbe77e39b	-0.24207918
45	0xbc4965db	-0.012292351
46	0xbd815012	-0.063141
47	0xbf04bf0f	-0.5185403
48	0x3e38118b	0.17975442
49	0xbe20713c	-0.15668195
50	0x3c01b611	0.007916943
51	0xbe949c80	-0.2902565
52	0xbc96aed6	-0.018393915
53	0xbc6dd4ad	-0.014516038
54	0xbf3f79d1	-0.7479525
55	0xbd6367f7	-0.05551907
56	0x3efce9ec	0.49397218
57	0x3ec90d90	0.3926816
58	0xbe00302a	-0.12518373
59	0x3f00fe55	0.5038808
60	0x3d8cdeb1	0.068784125
61	0x3e8a9b8a	0.27071792
62	0x3e409b11	0.18809153
63	0x3dd4369d	0.10361979
64	0xbe7b7369	-0.24555744
65	0xbf278026	-0.65429914
66	0x3e61b96f	0.22043394
67	0xbdd9b196	-0.10629575
68	0x3e245b4d	0.16050453
69	0xbd969286	-0.07352166
70	0xbec57d0d	-0.3857197
71	0xbcb41d71	-0.021986695
72	0xbe3510b7	-0.17682157
73	0x3de86061	0.11346508
74	0xbe28e9d4	-0.16495448
75	0x3e9e43bb	0.3091105
76	0x3e0fbdc4	0.14037234
77	0x3e187c1e	0.14891097
78	0x3e020237	0.12696157
79	0x3f3f1e6d	0.746558
80	0x3e15ebb3	0.14640693
81	0xbeabb797	-0.33538505
82	0x3c80e54e	0.015734341
83	0x3e871f3f	0.26391026
84	0xbdf988e3	-0.12184312
85	0x3da0eaef	0.0785731
86	0xbe8fffa2	-0.2812472
87	0xbec50360	-0.38479137
88	0xbb3e0b8d	-0.0028998584
89	0xbe9a4cf5	-0.3013684
90	0xbe20546e	-0.15657207
91	0x3dfa7d2a	0.122309044
92	0x3dac623a	0.08417173
93	0x3e81498f	0.25251433
94	0x3e1b1566	0.15144882
95	0x3a7aa581	0.0009561405
96	0x3f3d8142	0.74025357
97	0xbc9b2807	-0.018939985
98	0xbecd0951	-0.4004617
99	0x3e13fafd	0.14451213
100	0x3e473b61	0.19456245
101	0x3e0badfe	0.13640592
102	0xbe4bcddb	-0.19902746
103	0x3d977eb3	0.07397213
104	0x3e6e5bf2	0.23277262
105	0x3e5d36b7	0.21602903
106	0x3dedcced	0.11611352
107	0x3d388695	0.045050222
108	0xbe6b3aca	-0.22971645
109	0xbdfd292f	-0.12361371
110	0x3de98acc	0.114034265
111	0x3e38ac07	0.18034373
112	0xbf0f29e5	-0.559233
113	0xbe96f228	-0.29481626
114	0xbdb0a272	-0.08624734
115	0x3e864e3c	0.26231563
116	0x3e4c01d4	0.19922572
117	0xbd2f6810	-0.04282385
118	0x3ed2d8c6	0.4118101
119	0x3e9be334	0.3044678
120	0xbec886e0	-0.391654
121	0xbda4d2a6	-0.080479905
122	0x3e47ad60	0.19499731
123	0xbf12956f	-0.5725927
124	0xbd5f8df3	-0.054578733
125	0xbe7fc97b	-0.24979202
126	0xbedf09d0	-0.43562174
127	0x3db7bbda	0.08971377
128	0xbede4c52	-0.43417603
129	0x3dc2d44c	0.09513149
130	0xbd45f5d5	-0.048330147
131	0x3aecf1c3	0.0018077422
132	0x3eb25b57	0.34835312
133	0x3e3bc14a	0.18335453
134	0xbe95d6f6	-0.29265565
135	0x3e8fb183	0.28065118
136	0x3dc9c114	0.0985128
137	0x3dc53eae	0.09631096
138	0xbe55225e	-0.20813891
139	0x3ddf4148	0.10901123
140	0xbc5fbbfe	-0.013655661
141	0xbf01ed8a	-0.5075308
142	0xbea4caab	-0.32185873
143	0x3eb381b2	0.35059887
144	0xbe0b45af	-0.13600801
145	0xbe9a84ac	-0.30179346
146	0x3c3d1b21	0.011542113
147	0x3f257b33	0.6464111
148	0x3d867353	0.06564965
149	0x3db4d602	0.08829881
150	0x3d57af62	0.052657492
151	0x3e574e0c	0.21025866
152	0x3d8fa7d7	0.07014435
153	0xbea6b9a5	-0.3256351
154	0x3a2b4a4d	0.0006534204
155	0x3d52a710	0.051428854
156	0x3dceb8e1	0.100938566
157	0xbd50e7ad	-0.051002193
158	0x3da5869c	0.08082315
159	0x3dd455af	0.10367905
160	0x3e998a1f	0.2998819
161	0x3d164764	0.036689177
162	0x3e632110	0.22180581
163	0x3f66f180	0.9021225
164	0xbcd79075	-0.026314
165	0xbe47dce4	-0.19517857
166	0x3ee22bb7	0.44173977
167	0x3cb406c4	0.021975882
168	0xbe4191bc	-0.1890325
169	0x3ea7f43f	0.32803532
170	0x3e0a559b	0.13509218
171	0xbefb4600	-0.49076843
172	0x3e35ec0b	0.17765824
173	0xbdb5428b	-0.08850583
174	0x3e2b13c0	0.16706753
175	0x3e501234	0.20319444
176	0xbec43e46	-0.3832876
177	0xbe4b920c	-0.19879931
178	0xbcaebd99	-0.021330642
179	0x3c750511	0.014954821
180	0xbde102e5	-0.1098688
181	0x3e90b760	0.28264904
182	0x3eb8a3b8	0.36062407
183	0xbdbc0844	-0.09181264
184	0xbe1ab707	-0.15108882
185	0xbdf1e269	-0.118107624
186	0xbe2fdd4b	-0.1717426
187	0xbe54300d	-0.20721455
188	0x3bf6d7a2	0.0075330297
189	0xbdf36e07	-0.118862204
190	0x3eb73220	0.3578043
191	0xbe9fe4da	-0.31229287
192	0x3eb0fc5d	0.34567538
193	0x3f217dfe	0.63082874
194	0xbd380841	-0.044929747
195	0xbd2e28b7	-0.042519297
196	0xbe17c9a6	-0.14823017
197	0x3d858117	0.065187626
198	0x3e92957e	0.28629678
199	0xbd00060f	-0.031255778
200	0x3e228cea	0.15874067
201	0xbd514b95	-0.05109747
202	0x3e47ac0e	0.19499227
203	0xbc25ae56	-0.010112366
204	0xbd958eab	-0.073026024
205	0x3e84a748	0.25908875
206	0x3e98904a	0.29797584
207	0xbedf4191	-0.4360471
208	0x3e07aa08	0.13248456
209	0x3e8ec6d5	0.27886072
210	0xbd4d3c97	-0.05010661
211	0xbec62d8f	-0.38706633
212	0xbafc365c	-0.0019242275
213	0x3df780bc	0.12085101
214	0x3dd35cc7	0.1032043
215	0xbdc7e8a3	-0.09761169
216	0xbd924311	-0.07141698
217	0x3ef05827	0.46942255
218	0x3d643bd8	0.055721134
219	0x3e210808	0.1572572
220	0x3e455419	0.19270362
221	0x3ca11f3a	0.01966821
222	0xbdb0e6fb	-0.08637806
223	0xbe3c3886	-0.18380937
224	0xbe92fd8a	-0.2870906
225	0x3dab9c75	0.08379451
226	0x3e4d9258	0.20075357
227	0xbf2422e6	-0.6411575
228	0x3dcaaab5	0.09895841
229	0x3eadf773	0.3397785
230	0x3e44ceb0	0.1921947
231	0x3b61889e	0.0034413706
232	0x3e2abb14	0.16672927
233	0x3d0488b8	0.032356948
234	0x3bcbca19	0.0062191603
235	0x3ed6bdba	0.41941625
236	0x3e43d6b8	0.19124877
237	0x3d4b7063	0.049667727
238	0xbe493d40	-0.19652271
239	0xbe3c7aa3	-0.18406157
240	0x3ec33883	0.38129053
241	0x3e1b8f90	0.15191483
242	0x3e7f24f7	0.24916445
243	0x3dcb5a27	0.099293046
244	0x3d25bf11	0.04046542
245	0xbe148a08	-0.1450578
246	0xbe16062f	-0.14650796
247	0xbd55ac35	-0.052166183
248	0x3e94549d	0.28970805
249	0x3ec2479a	0.37945253
250	0x3e16aae5	0.14713629
251	0x3f096884	0.53675103
252	0xbe447157	-0.1918386
253	0x3e08a151	0.13342787
254	0xbe1c26ff	-0.15249251
255	0x3e0affee	0.13574192

net.2.bias f4 [32]
0	0x3e132118	0.14368093
1	0xbe0ffe9b	-0.14061968
2	0x3da15450	0.078774095
3	0x3e544fd6	0.2073358
4	0xbdd9c84b	-0.10633906
5	0xbdd3c8a1	-0.10341001
6	0x3d2c0e0a	0.042005576
7	0x3e6d21ee	0.23157474
8	0x3e00be6d	0.12572642
9	0x3dce4942	0.100725666
10	0x3df87107	0.12130933
11	0xbdb80e53	-0.08987107
12	0xbb67520c	-0.0035296706
13	0xbd388e1d	-0.045057405
14	0xbcd64950	-0.026158005
15	0xbdbdb291	-0.092625745
16	0x3d85a320	0.06525254
17	0xbbd05710	-0.006358035
18	0x3d2479c4	0.040155187
19	0xbdd7fcd1	-0.10546268
20	0x3b9c352b	0.0047670803
21	0x3da09387	0.078406386
22	0xbd0cb2d2	-0.034350224
23	0x3daa97e1	0.0832975
24	0x3e885ddc	0.2663411
25	0xbd37f447	-0.044910695
26	0x3e34a40b	0.17640702
27	0xbd5b6ea2	-0.053572305
28	0xbf1f9cfa	-0.623489
29	0x3ce23073	0.027610993
30	0x3d9be3ee	0.076118335
31	0x3dac47dc	0.084121436

net.4.weight f4 [1, 32]
0	0xbf61fadc	-0.88273406
1	0x3f530672	0.8243171
2	0x3f5ed03b	0.87036484
3	0xbf6b58f1	-0.9193259
4	0x3f55f0b6	0.8357042
5	0x3f85131b	1.0396456
6	0xbf5acbfb	-0.854675
7	0xbf896fb2	-1.0737212
8	0x3f25bd2c	0.6474178
9	0x3f4a0dd9	0.7892738
10	0xbf5d8bf9	-0.86541706
11	0xbf522b19	-0.8209701
12	0x3f29ae8a	0.6628195
13	0xbf474b74	-0.7784951
14	0x3f21cbfd	0.63201886
15	0x3f9cc8d8	1.2248793
16	0x3f3e5c78	0.74359846
17	0xbf51ab1e	-0.8190173
18	0xbf7b04d8	-0.98054266
19	0x3f352e72	0.70773995
20	0x3f41cf99	0.75707394
21	0x3f835364	1.0259824
22	0xbf80f599	-1.007495
23	0xbf55b27d	-0.83475477
24	0x3f19d23c	0.6008642
25	0xbf58b34d	-0.8464859
26	0x3f4e84c7	0.8067135
27	0xbf2d0b17	-0.67595047
28	0xbf9a8598	-1.207202
29	0x3f2d55bc	0.67708945
30	0x3f6adfc3	0.91747683
31	0x3f2c50f4	0.67311025
