data_augmented/checkpoints/discriminator_epoch66.pth (torch, 12820 bytes, 5 tensors)

net.0.weight f4 [64, 5]
0.00014624483 -0.00011117167 0.30233938 -0.042010386 -0.6945558 -6.7024375e-06 -4.6311434e-06 2.465938e-06
0.858456 -5.666354e-05 0.0061694 -0.00093009387 -0.3156966 -0.3356893 1.0963858 -0.0013855842
0.8080699 -0.046981428 0.3304375 -0.31286752 -0.0011816008 -0.0035637761 -0.40566745 0.41213128
0.6658619 -0.001500677 -0.005743649 0.43945134 0.2502378 -1.4343991 0.00028005688 1.913757e-05
-0.46886373 0.015858974 0.13880117 -0.17585558 -0.00038764346 0.4661199 0.9414709 0.22338578
0.0001582066 0.00054419757 -0.39496028 0.43000922 0.49496806 -0.5043238 0.001374665 0.2478266
-0.07945234 -0.50746924 0.0012415131 0.634306 -0.08309379 -0.6697972 -0.22444613 -0.0033340794
-0.0025314784 -0.89881366 -0.38890028 -0.29496765 0.00037542052 -0.34400135 0.27389854 -0.15302731
0.5113209 0.00041565538 -3.2245625e-05 0.35252833 -0.53200567 0.9026902 0.00012257417 -4.9835755e-05
-1.0955489 -0.0025567568 -0.00063190475 -0.00038622672 -0.0033804253 1.3148081 -0.45924684 0.19550823
-0.004286231 0.00078317116 -0.17492996 -0.62209743 1.3691338 0.0043213605 0.0036157125 0.018783383
-0.5100293 -0.3960884 -0.09192474 0.1826828 -0.07843171 0.50806874 1.1931629 0.07014876
-0.08134754 0.118571885 1.1447586 -0.0007013768 -0.018844735 -0.00242305 -1.0683674 -0.56933415
-0.32221714 5.987465e-05 0.48270386 -0.63312495 0.041756283 0.3225172 -0.0004556215 -0.55356044
-0.023727546 0.37908033 -0.4929826 -0.014123154 -0.05705337 0.021209056 -0.2545775 -0.7299321
0.31283703 -0.10107257 0.18745124 -0.008559165 -0.5686823 0.00010880073 -3.2157983e-05 -0.3881355
0.008642219 0.8886414 0.0060888147 0.37681487 0.18839821 -0.4795845 -1.7484181 -0.00019754065
-0.8543077 0.034068733 0.4431093 0.39378926 0.15783231 0.014940102 -0.40029782 0.6886244
0.7678026 0.00036974842 0.5286486 0.23270205 -0.36913887 1.1216542 -0.0023092441 -0.01705755
0.03147954 -0.14508592 0.9316585 -0.00039899253 0.81880677 0.0041309968 0.0018051685 0.007186258
-0.0040717083 0.00048266532 -0.9143941 0.06371957 0.21959609 -0.00029175586 -0.00013954716 -0.97462964
-0.076765455 0.60465103 -0.000112754584 0.0001809439 -0.0048217424 0.7800757 0.56300616 0.017480029
-0.10588534 -0.009172212 1.0009185 -0.101753265 -0.0014019662 0.12170602 -0.5376514 0.28004944
0.100569114 -0.000116352734 -0.00061561784 -1.0408794 0.00070488313 -0.60935134 -0.43978295 0.0074248565
-0.020066714 0.8232334 0.0070286845 0.5597081 0.036948755 -0.0992416 0.14804038 0.34515387
0.0008553967 0.00072994264 0.86532044 -0.8976468 0.5042811 0.0068442468 0.0062478064 0.6857556
0.98851573 0.40651748 0.0025757502 0.6025429 0.3435764 0.43401918 0.12239165 0.000112646994
0.00024012763 0.20886855 -0.8525366 0.11982239 0.00013408482 -0.18815273 -0.26617086 0.37189367
-0.22284207 0.07048162 0.2493298 -0.44491652 -0.9601021 -1.4575628 0.00035337094 -0.008751077
0.6160123 -0.33235162 0.037785884 0.00680751 -0.0012265012 -0.38904727 -0.41069826 1.348476
0.0004307169 -0.00012934438 -0.082481995 -0.76512575 -0.656425 -0.09852636 0.12857786 -0.2937611
0.35275665 -0.06683709 0.00023357758 0.00080911117 0.53745925 0.5481128 0.47606337 -0.0012125006
00000000: 4c59 1939 d624 e9b8 3acc 9a3e 1513 2cbd
00000010: 69ce 31bf 80e5 e0b6 3865 9bb6 7e7c 2536
00000020: c6c3 5b3f 03aa 6db8 ae28 ca3b 8bd1 73ba
00000030: fca2 a1be 78df abbe 5f56 8c3f 7e9c b5ba
00000040: abdd 4e3f 996f 40bd 1b2f a93e 2c30 a0be
00000050: f2df 9aba 3e8e 69bb a5b3 cfbe df02 d33e
00000060: ed75 2a3f 5db2 c4ba 3835 bcbb c4ff e03e
00000070: 2b1f 803e 649a b7bf 99d4 9239 9e89 a037
00000080: e80e f0be aeea 813c e521 0e3e 7c13 34be
00000090: a03c cbb9 44a7 ee3e 3d04 713f 3ebf 643e
000000a0: 43e4 2539 7ba8 0e3a 3c38 cabe 2b2a dc3e
000000b0: 746c fd3e 5d1b 01bf 1a2e b43a 42c6 7d3e
000000c0: e9b7 a2bd 81e9 01bf 44ba a23a e161 223f
000000d0: 142d aabd d477 2bbf 35d5 65be 9280 5abb
000000e0: 29e7 25bb a718 66bf f01d c7be 0006 97be
000000f0: 17d4 c439 f220 b0be 6e3c 8c3e 31b3 1cbe
00000100: ede5 023f 52ec d939 7a3f 07b8 987e b43e
00000110: 8631 08bf b416 673f 4187 0039 bc06 51b8
00000120: f23a 8cbf 438f 27bb 69a6 25ba 797e cab9
00000130: 208a 5dbb a24b a83f 6722 ebbe 4f33 483e
00000140: 8373 8cbb ba4d 4d3a d720 33be c741 1fbf
00000150: c73f af3f 339a 8d3b 97f5 6c3b 9cdf 993c
00000160: 4891 02bf 19cc cabe 0a43 bcbd 3311 3b3e
00000170: cea0 a0bd cb10 023f 90b9 983f 27aa 8f3d
00000180: 8a99 a6bd d1d5 f23d 7387 923f 9adc 37ba
00000190: 4660 9abc 09cc 1ebb 43c0 88bf e2bf 11bf
000001a0: a5f9 a4be ea21 7b38 f624 f73e 7a14 22bf
000001b0: a308 2b3d f920 a53e 7ce0 eeb9 23b6 0dbf
000001c0: 4560 c2bc d116 c23e 3768 fcbe cd64 67bc
000001d0: cbb0 69bd 9dbe ad3c fb57 82be d5dc 3abf
000001e0: 2d2c a03e 23ff cebd 38f3 3f3e bd3b 0cbc
000001f0: 2a95 11bf f22b e438 5fe1 06b8 b2b9 c6be
00000200: 1898 0d3c 017e 633f ae84 c73b e1ed c03e
00000210: 76eb 403e 198c f5be 2acc dfbf ea22 4fb9
00000220: e9b3 5abf a88b 0b3d 39df e23e bf9e c93e
00000230: cb9e 213e 54c7 743c d6f3 ccbe b049 303f
00000240: b68e 443f cbda c139 8455 073f 7249 6e3e
00000250: c5ff bcbe 5d92 8f3f b056 17bb 46bc 8bbc
00000260: b1f0 003d 6791 14be 2c81 6e3f df2f d1b9
00000270: 529d 513f 505d 873b 679b ec3a b47a eb3b
00000280: f76b 85bb 3e0e fd39 bb15 6abf 687f 823d
00000290: ccdd 603e cff6 98b9 6853 12b9 5481 79bf
000002a0: 3537 9dbd 69ca 1a3f a876 ecb8 c2bb 3d39
000002b0: b5ff 9dbb 0bb3 473f 2c21 103f 4732 8f3c
000002c0: 6ada d8bd 0c47 16bc 191e 803f 0464 d0bd
000002d0: 2ec2 b7ba 0141 f93d 86a3 09bf a462 8f3e
000002e0: 2ef7 cd3d 6602 f4b8 6a61 21ba 893b 85bf
000002f0: e8c7 383a 73fe 1bbf 3b2b e1be 364c f33b
00000300: f362 a4bc 6dbf 523f e150 e63b 0849 0f3f
00000310: 9457 173d 2e3f cbbd e697 173e 02b8 b03e
00000320: b33c 603a 9f59 3f3a a485 5d3f 2ecc 65bf
00000330: 9118 013f b445 e03b 66ba cc3b ae8d 2f3f
00000340: 5e0f 7d3f 0f23 d03e ebcd 283b 4040 1a3f
00000350: 3fe9 af3e c337 de3e 79a8 fa3d e53c ec38
00000360: c5ca 7b39 a3e1 553e d73f 5abf 7165 f53d
00000370: 1f99 0c39 1cab 40be 8c47 88be d968 be3e
00000380: b630 64be ab58 903d 5050 7f3e 19cc e3be
00000390: 40c9 75bf 6b91 babf a544 b939 ad60 0fbc
000003a0: fbb2 1d3f fe29 aabe 5fc5 1a3d 8811 df3b
000003b0: 8dc2 a0ba 3431 c7be 0b47 d2be dd9a ac3f
000003c0: d8d1 e139 9ea0 07b9 52ec a8bd 48df 43bf
000003d0: 780b 28bf 30c8 c9bd eaa9 033e db67 96be
000003e0: 859c b43e e2e1 88bd 81ec 7439 881a 543a
000003f0: ee96 093f 1f51 0c3f 94be f33e c5ec 9eba

net.0.bias f4 [64]
-0.98640144 0.49655476 0.75314575 -0.35711426 0.12096449 -0.06283048 -0.82002485 -0.0861986
-0.5524469 0.33515382 0.756003 0.12652877 0.8388409 0.3540835 0.048686948 -0.4001398
0.29138142 0.86041296 -0.3937001 -0.064669214 0.74469984 0.3084925 0.08296413 0.7823228
0.55012774 0.049761944 0.3548684 -0.16013116 -0.3162506 0.5619842 -0.3694849 0.14822714
-0.41965598 0.15776607 0.11961079 -0.057264198 -0.41289136 -0.10718044 -0.3190431 -0.19163905
0.592178 0.23234662 -0.31284994 -0.07385594 -0.61627066 0.1855975 0.68197995 0.92349696
1.0470049 -0.87000364 -1.0988189 0.035919387 -0.78616786 0.27655622 -0.3615433 0.7839062
-0.4208828 0.6755618 -0.026739763 -0.08636573 0.76156354 0.79725254 0.6572631 0.49669352
00000000: ce84 7cbf 6d3c fe3e 29ce 403f aed7 b6be
00000010: 3bbc f73d 44ad 80bd 26ed 51bf e488 b0bd
00000020: 296d 0dbf 4899 ab3e 6a89 413f c290 013e
00000030: 47be 563f 6f4a b53e f76b 473d 20df ccbe
00000040: f22f 953e 0644 5c3f 0f93 c9be 4b71 84bd
00000050: a6a4 3e3f bbf2 9d3e 19e9 a93d 4f46 483f
00000060: 2cd5 0c3f 2ed3 4b3d 50b1 b53e 6cf9 23be
00000070: 99eb a1be 32de 0f3f 202d bdbe dbc8 173e
00000080: 26dd d6be 6e8d 213e 80f6 f43d dd8d 6abd
00000090: 7f66 d3be 6b81 dbbd 9e59 a3be 073d 44be
000000a0: fa98 173f 46ec 6d3e de2d a0be c841 97bd
000000b0: eac3 1dbf 450d 3e3e 3d96 2e3f 4c6a 6c3f
000000c0: 4204 863f 8fb8 5ebf 19a6 8cbf 3520 133d
000000d0: 4c42 49bf c798 8d3e 341c b9be 14ae 483f
000000e0: f37d d7be 9ef1 2c3f 590d dbbc 84e0 b0bd
000000f0: d4f5 423f be18 4c3f 6542 283f 9d4e fe3e

net.2.weight f4 [32, 64]
1.6025909 0.5063978 -0.95293754 0.007913759 -1.9596479 -0.016831307 -0.37856838 -0.2605035
-0.5145325 0.16937247 0.23609245 -0.46619737 0.06879575 0.031717584 0.082252815 -0.18057808
0.13979197 0.42613116 -0.29100358 -0.4812009 -0.29395956 -0.22438742 0.1322737 0.43705788
0.19701742 0.0426255 0.28757405 0.27357188 -0.46416348 -0.056103364 -0.62076336 -0.16521409
-1.2956831 -0.41590765 0.084017605 -1.0525538 -0.3748671 0.16031297 -0.22543728 -0.09488115
0.22177692 -0.080563106 -0.084120594 0.7772073 -0.27099374 0.035167042 0.037166983 -0.9231242
0.27045646 -0.26885834 -0.02632552 -0.18192793 -0.06644367 -0.009999888 -0.9954475 0.057043023
0.5586517 0.57979345 -0.17488435 0.63807386 0.01356676 0.2850862 0.27941933 0.27412474
-0.31058076 -0.2594443 0.24679045 0.020281967 0.21683277 -0.036134396 -0.40966967 0.24230844
-0.23855807 -0.016049912 -0.34021732 0.41038328 0.18998289 0.2153698 0.3907758 1.1348023
0.14601845 -0.4514039 0.022766931 0.40220118 0.07693313 0.06989093 -0.36983982 -0.53134274
-0.019841054 -0.44370025 -0.33164904 0.27458176 0.1119306 0.30117312 0.2629465 0.0064394926
0.91470075 -0.062051184 -0.47117287 0.20168965 0.30471164 0.281448 -0.22901271 0.015548853
0.35057512 0.6420499 0.2607267 0.047690663 -0.27064335 -0.22594264 0.25465605 0.20853329
-0.72280586 -0.31885526 -0.07824725 0.32789627 0.2134422 -0.17133164 0.55699295 0.34231895
-0.6310443 -0.17945924 0.23543909 -0.72962046 -0.0011152942 -0.43338466 -0.34036943 0.09803939
-0.75195706 -0.40887737 0.04701813 -0.101601005 0.37317452 0.35339627 -0.26738122 0.27723154
0.048221324 0.12525344 -0.28309408 0.17570683 -0.007872779 -0.45745903 -0.38138813 0.4326081
-0.25982463 -0.31266698 -0.0057355883 0.6507642 0.0740627 0.067989685 0.015987067 0.20905542
0.077159405 -0.4425048 -0.030377246 0.03441139 0.061153658 -0.081931986 0.17248996 0.19814636
0.29043743 -0.12479087 0.13120121 0.9101522 0.033440504 -0.23539759 0.4418282 0.04145718
-0.21961735 0.44076535 0.08482118 -0.4867765 0.11809231 -0.0693369 0.21464024 0.30162206
-0.3938706 -0.18637784 -0.07542058 0.0038886245 -0.16095291 0.31269792 0.49140665 -0.14696674
-0.16189986 -0.24511759 -0.16765562 -0.34745133 0.14599183 -0.11097917 0.46330363 -0.4192852
0.662265 1.1232681 -0.13971281 0.0630109 -0.1715106 -0.11228003 0.26756883 -0.033314258
0.213216 -0.08778327 0.2694367 -0.076808326 -0.083308004 0.20788799 0.35800695 -0.52471286
0.25695866 0.28484792 -0.031239534 -0.38960925 -0.010676203 0.14224148 0.13248679 -0.10190295
-0.08323702 0.5874752 0.08246124 0.17014767 0.23529519 0.051345915 -0.17689373 -0.2771252
-0.2757647 0.24615169 0.29259118 -0.64745015 0.043622576 0.38015798 0.19290043 -0.013518438
0.19269477 -0.085203774 0.058631226 0.41151628 0.25376415 0.029398233 -0.2501339 -0.2819163
0.3874962 0.14521821 0.30521226 0.110297784 0.09708018 -0.18197638 -0.27267763 0.0026183634
0.2923487 0.50653666 0.14363493 0.67577386 -0.32996646 0.11995966 -0.2627713 0.23616749
00000000: b321 cd3f 49a3 013f b7f3 73bf b6a8 013c
00000010: bed5 fabf cfe1 89bc b7d3 c1be b760 85be
00000020: 67b8 03bf fa6f 2d3e 38c2 713e 6cb1 eebe
00000030: c9e4 8c3d 4cea 013d 2a74 a83d 76e9 38be
00000040: a025 0f3e dd2d da3e 6cfe 94be f75f f6be
00000050: de81 96be d1c5 65be c272 073e 0dc6 df3e
00000060: efbe 493e 1498 2e3d e83c 933e 9d11 8c3e
00000070: d6a6 edbe a4cc 65bd 59ea 1ebf e22d 29be
00000080: f2d8 a5bf d9f1 d4be 6c11 ac3d 15ba 86bf
00000090: 95ee bfbe 1529 243e 08d9 66be 0c51 c2bd
000000a0: 7d19 633e 45fe a4bd 6b47 acbd 0ff7 463f
000000b0: b1bf 8abe 510b 103d 683c 183d de51 6cbf
000000c0: 4579 8a3e cda7 89be 9ea8 d7bc 514b 3abe
000000d0: 9e13 88bd 92d6 23bc a6d5 7ebf f2a5 693d
000000e0: cc03 0f3f 586d 143f e214 33be cf58 233f
000000f0: 1e47 5e3c d2f6 913e 0d10 8f3e 145a 8c3e
00000100: 7104 9fbe e2d5 84be a3b6 7c3e 5e26 a63c
00000110: 6909 5e3e a901 14bd 39c0 d1be b41f 783e
00000120: 9148 74be 1b7b 83bc f730 aebe c21d d23e
00000130: e08a 423e e789 5c3e c413 c83e 3441 913f
00000140: dc85 153e 691e e7be b781 ba3c 50ed cd3e
00000150: 1e8f 9d3d fa22 8f3d a55b bdbe 1406 08bf
00000160: b589 a2bc ae2c e3be e7cd a9be fb95 8c3e
00000170: df3b e53d 5d33 9a3e eca0 863e 6102 d33b
00000180: d429 6a3f 6229 7ebd 923d f1be bb87 4e3e
00000190: 2a03 9c3e f419 903e 4f82 6abe 9ec0 7e3c
000001a0: 957e b33e 625d 243f f87d 853e 4957 433d
000001b0: c491 8abe 825d 67be 4762 823e c089 553e
000001c0: ce09 39bf ff40 a3be 1840 a0bd 05e2 a73e
000001d0: 9890 5a3e 9071 2fbe 1797 0e3f 6e44 af3e
000001e0: 1f8c 21bf 2ac4 37be f216 713e 68c8 3abf
000001f0: 102f 92ba 98e4 ddbe e744 aebe e0c8 c83d
00000200: 4280 40bf 6058 d1be 1596 403d 3014 d0bd
00000210: bb10 bf3e 5bf0 b43e 31e6 88be 4bf1 8d3e
00000220: b983 453d 7042 003e b5f1 90be 7eec 333e
00000230: d4fc 00bc 1238 eabe 4e45 c3be cf7e dd3e
00000240: bc07 85be e315 a0be 9af1 bbbb 7c98 263f
00000250: 2fae 973d 2d3e 8b3d 4ff7 823c a012 563e
00000260: c005 9e3d fd8f e2be b4d9 f8bc f5f2 0c3d
00000270: 427c 7a3d f5cb a7bd 35a1 303e e1e6 4a3e
00000280: 37b4 943e 5b92 ffbd 9c59 063e bcff 683f
00000290: e9f8 083d 110c 71be 4e37 e23e 01cf 293d
000002a0: 5fe3 60be ffab e13e bab6 ad3d c53a f9be
000002b0: 62da f13d 8100 8ebd a7ca 5b3e 356e 9a3e
000002c0: 68a9 c9be d5d9 3ebe 1b76 9abd 4bd8 7e3b
000002d0: d7d0 24be f119 a03e a799 fb3e 737e 16be
000002e0: 14c9 25be 1b00 7bbe eaad 2bbe 24e5 b1be
000002f0: e27e 153e 0c49 e3bd 2236 ed3e 8dac d6be
00000300: 338a 293f 40c7 8f3f e010 0fbe dc0b 813d
00000310: 7aa0 2fbe 13f3 e5bd c8fe 883e 8874 08bd
00000320: 4c55 5a3e b7c7 b3bd 9bf3 893e af4d 9dbd
00000330: 639d aabd 97e0 543e b04c b73e 9553 06bf
00000340: 1690 833e 96d7 913e 0dea ffbc dd7a c7be
00000350: 3eeb 2ebc c0a7 113e 9eaa 073e 7eb2 d0bd
00000360: 2c78 aabd c664 163f 70e1 a83d 313b 2e3e
00000370: 39f1 703e 1850 523d a123 35be 5be3 8dbe
00000380: 0831 8dbe 300f 7c3e 83ce 953e 4bbf 25bf
00000390: 96ad 323d 11a4 c23e b187 453e 707c 5dbc
000003a0: c751 453e 517f aebd 4c27 703d 43b2 d23e
000003b0: 60ed 813e 90d4 f03c 8d11 80be 5557 90be
000003c0: e765 c63e 15b4 143e c844 9c3e cee3 e13d
000003d0: f9d1 c63d 0458 3abe 679c 8bbe d998 2b3b
000003e0: bbae 953e 63ac 013f 0915 133e 84ff 2c3f
000003f0: 5df1 a8be 69ad f53d f689 86be e4d5 713e

net.2.bias f4 [32]
0.24939765 -0.16334789 0.05625608 0.22527407 -0.12413379 -0.120695174 0.077882275 0.34279552
0.19747582 0.0626493 0.15368944 -0.12252797 -0.051097598 -0.07697337 -0.034619775 -0.13867192
0.0574926 0.011495376 0.058195803 -0.12431761 -0.04081341 0.1892086 0.07718495 0.10092393
0.2608138 -0.024199342 0.22260939 -0.04658593 -0.663547 0.022100514 0.070313536 0.14375262
00000000: 1962 7f3e ab44 27be c66c 663d 3fae 663e
00000010: db39 febd 082f f7bd be80 9f3d e582 af3e
00000020: 1a37 4a3e 474e 803d c460 1d3e f2ef fabd
00000030: b74b 51bd 37a4 9dbd 77cd 0dbd 0300 0ebe
00000040: 5c7d 6b3d 1a57 3c3c b95e 6e3d 3b9a febd
00000050: f62b 27bd e6bf 413e 2513 9e3d 35b1 ce3d
00000060: 6389 853e b33d c6bc b7f3 633e e3d0 3ebd
00000070: 37de 29bf 230c b53c 8b00 903d e333 133e

net.4.weight f4 [1, 32]
-1.2329893 1.0525455 1.1923333 -1.2238322 1.1727564 1.4560056 -1.1850085 -1.402935
0.8577777 1.1832961 -1.2332836 -0.99588245 1.5470054 -1.0361965 0.7591436 1.4885553
1.0572977 -1.171072 -1.3653785 0.8152498 1.2884703 2.085182 -1.3643657 -1.1110421
0.83994305 -1.1998324 0.9592666 -2.1450386 -1.3807222 0.97827303 1.2231902 0.870625
00000000: 98d2 9dbf d0b9 863f 619e 983f 89a6 9cbf
00000010: e21c 963f 645e ba3f 5cae 97bf 6093 b3bf
00000020: 5297 5b3f 3f76 973f 3ddc 9dbf 27f2 7ebf
00000030: 4604 c63f 16a2 84bf 3c57 423f fb88 be3f
00000040: 8855 873f b0e5 95bf b9c4 aebf 36b4 503f
00000050: 98ec a43f 9f73 0540 89a3 aebf a136 8ebf
00000060: 8206 573f 1c94 99bf 7f92 753f 5048 09c0
00000070: 81bb b0bf 1a70 7a3f 7f91 9c3f 48e1 5e3f
