data_augmented/checkpoints/discriminator_epoch14.pth (torch, 12820 bytes, 5 tensors)

net.0.weight f4 [64, 5]
000000 6f 7e 00 bd a4 9c 0f 3c a1 11 45 3d e8 a0 91 3e
       -0.031370576 0.008765373 0.048112515 0.28443074
000010 81 ee 29 bf a6 ed 5c 39 a0 67 af b9 e8 70 62 39
       -0.66379553 0.00021069366 -0.00033455808 0.000215951
000020 c5 de 47 3f 10 8e 93 36 8b 1d 5a 3d 01 41 41 bd
       0.78074294 4.3974796e-06 0.05325083 -0.047181133
000030 be 3d 5d be ba 50 fe be 4d 29 56 3f 72 13 9f be
       -0.21605584 -0.49670964 0.8365677 -0.31069523
000040 91 6d f5 3e bd 43 b0 bd 0b d8 c2 3e 52 ef a2 be
       0.47935155 -0.0860667 0.38055453 -0.31823212
000050 02 de dd 3b 24 cc 6d 3b 78 f0 bd be c4 27 d0 3e
       0.00677085 0.0036285007 -0.37097526 0.4065534
000060 67 71 08 3f 4a 00 8a be d4 03 77 bd 69 ca 6b 3e
       0.5329804 -0.26953346 -0.060306385 0.23026432
000070 b4 05 c9 3c 98 d3 1a bf 94 4d 1f bb 02 13 4a bc
       0.024538852 -0.60479116 -0.0024307715 -0.012333633
000080 62 b1 bf be 64 88 cf 3d 33 4e 2a 3e 9d a1 d0 be
       -0.3744002 0.10133436 0.16631393 -0.407483
000090 55 6e ce 3c 3c 06 ad bc 64 f2 50 3f a1 e7 05 3e
       0.025199095 -0.021121137 0.8161986 0.1307664
0000a0 82 00 17 ba 1c c0 63 ba 9d 11 bd be 17 76 fc 3e
       -0.00057602685 -0.00086879893 -0.369275 0.49308845
0000b0 e5 1b ef 3e 5c ad 49 bf b6 11 c7 bb 70 0d 09 bd
       0.4670097 -0.7878015 -0.0060751094 -0.03346008
0000c0 6e 59 b4 39 6f 03 99 bd 3a 8c 83 bd b3 17 b9 3e
       0.00034398906 -0.07471358 -0.064232305 0.36150894
0000d0 dd 38 06 be d8 32 20 bf 26 06 7c be cc 95 0f 3c
       -0.13107629 -0.6257758 -0.2461172 0.008763742
0000e0 f5 05 b8 3b e2 73 53 bf e1 04 08 bf 90 a3 10 be
       0.0056159445 -0.825987 -0.53132445 -0.14124894
0000f0 f8 95 3e 3d ee a8 9c be b6 5d 99 3e 22 4d ff bd
       0.04652974 -0.30597633 0.29954308 -0.12465884
000100 b7 3f b4 3e 70 33 19 39 c5 a8 2e ba df 00 97 3e
       0.3520486 0.00014610379 -0.0006662722 0.29492852
000110 0c e0 42 bf c2 b2 40 3f 32 3e bc ba e4 73 25 3a
       -0.7612312 0.7527276 -0.0014361797 0.00063115195
000120 54 d4 5a bf 7e a3 d7 bd 25 fd 8b be 50 b0 2f bc
       -0.85480237 -0.105292305 -0.2734157 -0.0107231885
000130 a3 3a a7 bb d4 e0 71 3f 0a e8 6e 3c 84 58 17 3e
       -0.0051034256 0.94483685 0.01458169 0.1477986
000140 37 97 cd be c5 5e d9 bd 9b dd 84 bd 66 07 09 bf
       -0.4015443 -0.10613779 -0.064875804 -0.53526914
000150 bc f2 1a 3f b0 89 7f 3d 21 32 60 3b 69 46 79 3d
       0.60526633 0.06238717 0.0034209567 0.060858164
000160 4d d0 09 bf 9b 74 a9 be 37 ea 89 be ef ac 5e bc
       -0.53833467 -0.33096775 -0.26936504 -0.013591035
000170 30 c2 d8 3d 97 b7 b1 3e e7 d2 75 3f 00 93 15 3d
       0.10583913 0.3471038 0.96024936 0.036517143
000180 03 c2 df 39 d3 73 2c 3d 25 3f 81 3f 23 35 4a 3d
       0.00042678425 0.042102646 1.0097395 0.04936708
000190 61 28 df bb 8d 5a bb bb fa a3 28 bf 17 94 22 bf
       -0.0068102335 -0.0057175816 -0.6587521 -0.6350722
0001a0 8e a5 ae be 50 c6 6f be b8 2e d1 3e 85 ea 0d bf
       -0.34110683 -0.23415494 0.40855956 -0.55435973
0001b0 50 fe 86 3e 8e 0c 56 3e dd 49 dc ba db 82 da be
       0.263659 0.20903227 -0.0016806681 -0.4267796
0001c0 18 eb f8 bc 51 27 e7 3e 02 7c b7 be a2 59 84 bc
       -0.030385539 0.45147184 -0.35836798 -0.016156022
0001d0 6a 1d 8b bc 8b c3 43 bd 5c ce 21 be 57 ff 14 bf
       -0.0169818 -0.047793906 -0.15801376 -0.5820212
0001e0 2a 9e cb 3e 4c 27 9d be ad b8 0b 3d 9e 41 4b 3a
       0.39769107 -0.30694044 0.034111667 0.0007753613
0001f0 e6 e5 de bd d9 42 70 ba c2 eb 18 b9 28 16 95 be
       -0.108836934 -0.00091652345 -0.00014583676 -0.29118466
000200 bc 3c f7 3d 86 d7 29 3f 7a c8 93 be 60 31 c0 3e
       0.12072131 0.6634449 -0.2886389 0.3753767
000210 e7 55 eb 3d 13 ae 4c be 07 0f 12 bf bf 1b ba 3e
       0.11490994 -0.19988279 -0.5705418 0.36349294
000220 d0 16 17 bf 02 a9 3f 3d 41 e2 9f 3d 25 55 69 3e
       -0.59019184 0.046792038 0.078068264 0.22786386
000230 5a 9e bd 3e 74 4d 13 3c d5 93 80 be a1 d0 df 3e
       0.37034875 0.008990634 -0.25112787 0.4371386
000240 d9 ac cf 3e e4 73 5c be 26 7a 07 3f 61 08 5c 3e
       0.4056156 -0.21528584 0.5292076 0.21487571
000250 c4 93 04 be a6 32 45 3f 99 3b 73 3e f5 f0 3c 3c
       -0.12946993 0.7703041 0.23753203 0.011532058
000260 ce 27 97 bd 7a de f1 bd 54 c9 46 3f af ae 2a bc
       -0.07380639 -0.11810012 0.7765095 -0.010417624
000270 26 40 27 3f 7c e0 a6 bb d0 96 41 bc b7 e8 85 3b
       0.6533226 -0.0050926786 -0.011815742 0.0040865797
000280 dc c7 7e 3c a6 91 8b 3b 6b e8 3e bf 17 b0 30 3e
       0.01555058 0.004259306 -0.7457339 0.17254673
000290 89 4f bf 3c a2 e9 5f 3e c1 84 63 be 87 94 25 bf
       0.023353355 0.21866468 -0.2221861 -0.6467976
0002a0 f6 8f 9a be 0b 55 ad 3e 7b 4a 37 ba a2 65 03 ba
       -0.30187958 0.33853945 -0.00069919945 -0.0005012398
0002b0 92 ac b5 bc 89 09 41 3f 47 e2 a7 3e 57 2e 6a bc
       -0.022177014 0.75405174 0.32789823 -0.014293275
0002c0 84 32 c0 bc a7 fa a8 bd d3 e3 5e 3f 19 cc 21 bd
       -0.023461588 -0.08250933 0.8706638 -0.039501283
0002d0 f1 d5 01 3e b8 d8 a3 3e 3b ee cb be 9c 7f f7 3d
       0.12679268 0.3200128 -0.39830193 0.120848864
0002e0 e5 7f 0f 3e ec 49 88 3b 9d 8b 1d 3b 3d 8b 52 bf
       0.14013632 0.004159203 0.0024039515 -0.8224371
0002f0 e6 06 9c be 5f aa 33 bf 85 c2 c5 be 2f ef a0 3c
       -0.30474013 -0.7018184 -0.3862497 0.019645302
000300 f8 cd 1e bd 05 1c 67 3f 23 3f 35 3d dd 01 23 3f
       -0.038770646 0.9027713 0.044249665 0.6367472
000310 24 72 f3 3d 38 98 5c be cc 28 14 3d 9e 74 75 3e
       0.11887005 -0.21542442 0.03617172 0.23970267
000320 2c d1 0f 3c 1e db bd ba a9 ef 3c 3f e8 12 0c bf
       0.008777898 -0.0014484858 0.7380319 -0.5471635
000330 b3 57 f0 3e 3a af a3 3e c0 65 94 3e 72 14 7b 3e
       0.4694191 0.31969625 0.2898388 0.24519518
000340 ef 84 65 3f 15 a2 8f 3e 9c a0 8d 3e 4e 79 b3 3e
       0.89655966 0.28053346 0.27661598 0.35053486
000350 f2 4d a7 3e 8c 86 f3 3e 92 70 12 3c 24 78 4d b9
       0.32676655 0.4756359 0.008937972 -0.0001959508
000360 18 fb 0a ba d7 2d 96 3d 3d 74 42 bf 34 d4 11 3d
       -0.0005301698 0.07332962 -0.75958616 0.035602763
000370 72 bb 03 3e f0 48 65 be b5 0a 4a be 36 b3 9f 3e
       0.12864473 -0.22391105 -0.19730647 0.31191415
000380 29 f3 0c be e8 b6 fe 3e 60 81 c0 3e 17 72 db be
       -0.13764633 0.4974892 0.37598705 -0.4286048
000390 7a bf 2c bf fc c4 38 bf d9 d1 fe 3c 11 37 1d 3b
       -0.6747967 -0.72175574 0.031105923 0.002398912
0003a0 bd ac 0e 3f 6a 4a 82 be 59 d2 f3 bd 77 fc 12 bc
       0.5573233 -0.25447398 -0.11905355 -0.008971325
0003b0 ca 7b 67 3c ab ff 78 be 78 63 fd be d7 5f 8d 3f
       0.014128635 -0.2431628 -0.4948995 1.1044873
0003c0 7c 69 fc 39 78 f5 f0 b9 c9 63 09 bd 63 1a 36 bf
       0.00048143778 -0.00045959256 -0.03354243 -0.7113401
0003d0 fa d7 12 bf 52 03 9c bd c4 c8 21 3d bf c8 54 be
       -0.57360804 -0.07617821 0.039498106 -0.20779704
0003e0 b4 3c d9 3e e5 d4 c9 bd 5a 69 51 3a 22 29 83 ba
       0.42429125 -0.098550595 0.0007988416 -0.0010006765
0003f0 09 f7 62 3e 58 aa f7 3e 20 60 04 3f 1f a6 72 3d
       0.22164549 0.4837215 0.51709175 0.059240457

net.0.bias f4 [64]
000000 ec 95 0a bf 12 48 e7 3e cd 7e e0 3e 3c bb 45 be
       -0.5413501 0.45172173 0.4384674 -0.19309705
000010 31 22 00 3e e4 6b b6 3d f0 b0 3c bf 2a 84 93 bd
       0.12513043 0.08907297 -0.73707485 -0.07202943
000020 3f ed f2 be 98 73 f1 3d 1e 2a 38 3f 26 ae cd bd
       -0.4744663 0.11789626 0.71939266 -0.10042982
000030 45 86 34 3f b1 48 e3 3d 45 7a bb bd 42 c3 61 be
       0.7051738 0.11097849 -0.091541804 -0.22047141
000040 bf d0 ea 3d 92 e9 41 3f 83 4c b9 be c9 10 a1 3c
       0.114655964 0.75747025 -0.36191186 0.019661324
000050 f1 cf 99 3e f1 93 90 3e 4c 97 19 3e a2 27 2e 3f
       0.3004146 0.2823787 0.14999121 0.68029225
000060 59 4f ed 3e 25 a1 cb 3d 5c 17 68 3e 85 1e d4 bc
       0.463496 0.09942845 0.22665161 -0.02589346
000070 d1 17 f9 be 75 7c 33 3e 29 d0 dd be 64 be cb 3d
       -0.48650983 0.17527945 -0.43322876 0.099484235
000080 70 6b de be ae f5 6c bd 66 11 81 3e 15 3c fa 3c
       -0.43441343 -0.057851486 0.25208586 0.030546227
000090 28 0f bc be ca ab 88 be 98 74 1b be d5 d8 2c bd
       -0.36730313 -0.26693565 -0.15181196 -0.042198975
0000a0 ef ed 1b 3f 22 98 38 3e 0c 10 e9 bd 02 76 8f be
       0.6090993 0.18026784 -0.11380014 -0.2801972
0000b0 d7 50 00 bf 2f 03 06 be 45 9c 06 3f df bf 0e 3f
       -0.5012335 -0.13087152 0.525822 0.5576152
0000c0 df 8e 5c 3f b0 37 69 bf 5e 8c 80 bf df 3a 8a be
       0.86155504 -0.911006 -1.0042837 -0.2699804
0000d0 bd a5 3f bf 08 46 df 3d db 2b 33 be 59 8f ac 3e
       -0.7486227 0.10902029 -0.17497198 0.33703116
0000e0 6a 76 1c be c6 a8 f0 3e 0e 66 86 be 71 42 b2 3d
       -0.15279546 0.47003764 -0.26249737 0.08704079
0000f0 fe 3a 07 3f 76 a6 15 3f 04 c1 33 3f 7f 52 b8 3e
       0.5282439 0.58457124 0.70216393 0.3600044

net.2.weight f4 [32, 64]
000000 e1 34 08 3f c7 ea 9d be b1 fd 8a be ec a8 e2 3c
       0.53205687 -0.30843183 -0.27146676 0.027668439
000010 9c 67 6f bf c9 cd 70 3e e7 78 27 be 01 6e 26 be
       -0.9351747 0.23516001 -0.16354714 -0.162529
000020 b5 0b a4 be 5c 87 70 3d 80 14 c7 3c 6b 43 ab be
       -0.32040182 0.05872284 0.024301767 -0.33449873
000030 3d d0 91 bd 1e 8d b3 3d 5a 01 03 be 23 ae 4e be
       -0.071197964 0.0876715 -0.12793484 -0.20183615
000040 de 49 13 be 02 69 72 3e bb 63 45 be ba 4c a3 be
       -0.14383647 0.2367287 -0.19276325 -0.31894475
000050 72 1f 2e be 51 d7 c9 bd 12 f1 e7 3d de e4 88 3e
       -0.17004183 -0.098555215 0.113252774 0.26737112
000060 dd 0e 6c 3d 83 69 8f bd 85 c5 e9 3d 67 75 02 bd
       0.057631362 -0.07002547 0.11414627 -0.031850245
000070 63 b8 82 be 2f e8 3e be 5e 9e 95 be e6 1b 45 bd
       -0.255313 -0.18643259 -0.29222387 -0.04812231
000080 15 76 11 bf 41 a4 8c be c0 8e 06 3d c4 48 59 bf
       -0.56820804 -0.27469066 0.03285098 -0.84876657
000090 fc c3 22 be e8 f8 3d bd 3c 02 07 be 6b ac 8a 3d
       -0.15895075 -0.046379954 -0.13184446 0.06771167
0000a0 69 30 8f 3d 2a 2e ec bd 99 95 2e bd cf 34 0a 3f
       0.069916554 -0.115322426 -0.042623136 0.5398683
0000b0 35 c7 15 be 74 05 21 bb a2 77 7e bd c3 bc 64 be
       -0.14626773 -0.00245699 -0.06212581 -0.22337632
0000c0 90 b4 cc 3d 71 aa bf bc d6 d5 b3 3d bd 1b 97 be
       0.09995377 -0.023396702 0.0878102 -0.2951335
0000d0 de 61 c3 3d a6 b2 96 3d e0 3f 9b be 78 23 80 bd
       0.09540151 0.07358293 -0.3032217 -0.06256765
0000e0 a5 d3 0f 3e 53 0c 88 3e 44 af 18 be c5 de bf 3e
       0.1404558 0.26571903 -0.14910609 0.37474647
0000f0 0d 23 51 3d 95 77 58 3e c9 25 68 3e 26 c6 51 3d
       0.051058818 0.21139367 0.22670664 0.05121436
000100 a6 c1 5e be 3e b6 62 bf dc 32 64 3e eb 2c f9 bd
       -0.21753559 -0.8855933 0.22285026 -0.121667705
000110 63 93 39 3e 9b 11 fd bd 57 dc 37 be 37 cb 0b be
       0.1812263 -0.123568736 -0.17955147 -0.13651739
000120 c2 ab 71 be 0d ff b7 bc 80 6a 33 bd cd 24 d4 3e
       -0.23600677 -0.022460485 -0.04380274 0.41434327
000130 01 85 e2 3d 15 6f 01 3e f0 11 f7 3b 1e 5e 00 3f
       0.11060525 0.1264003 0.00753998 0.5014361
000140 4d 65 1b 3e 8b bf 7e be 51 6f 61 bc b1 ba f3 3d
       0.15175362 -0.24877755 -0.01375945 0.11900843
000150 95 ad 8d bd fe 41 88 3d f9 6c 9d be 22 80 69 be
       -0.06917874 0.06653212 -0.30747202 -0.22802785
000160 53 39 42 3b db 18 00 be 3b e5 16 be fe 7a 70 3d
       0.0029636219 -0.12509482 -0.14735882 0.058711044
000170 7a 49 0a bd 9f 83 4f 3e 47 b3 60 3d 3e 28 5e bd
       -0.03376148 0.20265053 0.054858472 -0.054237597
000180 00 dc e3 3e 82 0b 4e 3d bc 43 c1 be bd 60 bb 3d
       0.44503784 0.050303943 -0.3774699 0.09149311
000190 3a cd 87 3d dc a8 90 bd c3 bf 50 be bc de 26 bd
       0.06630941 -0.07063457 -0.20385651 -0.04073976
0001a0 90 4c 21 3e f8 bf ac 3d 87 7e 24 3d 34 f1 99 3d
       0.15751863 0.08435053 0.04015973 0.07516709
0001b0 2e b0 5c be 47 c0 c3 bd 61 07 dc 3c be c3 36 3e
       -0.21551582 -0.09558158 0.026858987 0.17848107
0001c0 30 2d cd be 4d d6 96 be 34 f2 8c be 0b c3 5c 3e
       -0.40073538 -0.29460374 -0.27528536 0.21558778
0001d0 b1 6e 2c 3e 6c ef b7 bd c1 fc 50 3e 14 d7 90 3e
       0.168391 -0.08981213 0.20408918 0.28289092
0001e0 33 4e 6b bd 4d 84 35 bc 89 31 f0 3d 6d 53 f0 be
       -0.057447623 -0.011078906 0.11728198 -0.4693865
0001f0 d3 35 a5 bd 8c f2 12 be 9a 71 cc be 7d 47 41 3d
       -0.08066907 -0.14350337 -0.3993042 0.047187317
000200 ab c3 5a be 61 6b 95 3e f8 de 16 be 11 57 5c 3c
       -0.21363704 0.29183486 -0.14733493 0.013448493
000210 22 9f b9 3e 31 46 8c 3d bd 82 0f be b9 01 94 3e
       0.3625422 0.068493254 -0.14014716 0.28907564
000220 02 3b a0 3d fe 2c e4 3d 88 23 2e be c5 26 cd 3d
       0.07823755 0.11141394 -0.17005742 0.1001716
000230 c7 73 90 3b c6 19 d4 be 53 9b 66 be 89 05 21 3e
       0.004408333 -0.41425914 -0.22520189 0.15724768
000240 c4 5c fb bd 0b 70 99 be 20 4f 49 3c 87 8d 0f 3f
       -0.12273553 -0.29968295 0.012286931 0.5607533
000250 5b 46 8f 3c 3f 6b ac 3d 58 d8 93 3d 49 00 44 3e
       0.017489603 0.08418893 0.07218999 0.19140734
000260 57 36 63 3d 8e 88 54 be d6 1c 5b bd c3 f0 c3 3d
       0.055471744 -0.20755216 -0.053494297 0.09567406
000270 d2 12 53 3d a8 97 90 bc f7 fb 54 3c 23 7a 3d 3d
       0.05153162 -0.01765044 0.012999526 0.046259057
000280 8b 4d 17 3e 49 8e 20 3d c1 1a 8a 3e b2 92 57 3f
       0.14775674 0.039198194 0.26973537 0.84208214
000290 35 76 1d 3d c3 bc 11 be 24 12 f5 3e b4 ce d4 3a
       0.03844281 -0.14232163 0.47865403 0.0016235919
0002a0 d0 ae 0f be 5c 9f a7 3e 98 4b f0 3d b4 3e ea be
       -0.1403153 0.3273877 0.11733168 -0.45750964
0002b0 80 64 41 3e 3e 38 bd bd 2b 34 03 3e a1 3d d7 3d
       0.18885994 -0.09239243 0.12812869 0.10509802
0002c0 08 19 bd be 6f 93 5c be 8d 23 8b bd 88 25 e4 3c
       -0.3693316 -0.21540616 -0.0679389 0.027849928
0002d0 2a e7 16 be c4 e5 66 3e 15 a5 78 3e 72 64 15 bd
       -0.1473662 0.22548586 0.24281724 -0.036472745
0002e0 54 6c c7 3d ff df df bc 97 2e 1d be 42 70 4c bd
       0.09737459 -0.02732849 -0.15349804 -0.049911745
0002f0 bb 7e 30 bd 7f 5b ee bd 0d ba 84 3e c8 98 aa be
       -0.04308961 -0.11638545 0.25923195 -0.33319688
000300 5b d5 01 3e 5e 50 d1 3e 2e 3f 58 3d 30 3b 5e bd
       0.12679045 0.40881628 0.052794628 -0.054255664
000310 01 90 28 be 68 2a 38 3e 72 99 0a 3e 63 6e 40 bd
       -0.16461183 0.17984927 0.13535097 -0.046980273
000320 81 df 34 3e 8c e0 87 bd 25 0c 21 3e 9b 97 0c ba
       0.17663385 -0.06634626 0.15727289 -0.0005363167
000330 7d d9 bd bd bf 16 29 3e 26 4d 4f 3e bb 30 7b be
       -0.09269998 0.16512583 0.20244274 -0.24530308
000340 7d ba f2 3d 5f c9 8d 3e 60 07 5b bd 0e 9a a4 be
       0.11851976 0.27692696 -0.05347383 -0.32148784
000350 61 c1 3f 3d a9 17 ff 3d 50 28 ab 3d 18 c0 a0 bd
       0.04681528 0.12455685 0.083572984 -0.07849139
000360 ab e8 68 bd de 44 b3 3e 7a 3b e1 3d c1 2d e6 3d
       -0.056862514 0.3501348 0.109976724 0.112391956
000370 eb b6 75 3e 67 4d 7c bc 0d c9 a3 bc b4 08 02 be
       0.23995559 -0.0153993135 -0.01999333 -0.12698632
000380 ff 09 0a be 6a 11 a7 3d 81 2d 16 3e 19 f4 18 bf
       -0.13480376 0.08157618 0.14665796 -0.59747463
000390 95 02 0e 3d 81 83 93 3e ac ad 16 3e b1 f6 c0 3c
       0.03467043 0.28811267 0.14714688 0.023555132
0003a0 cd 38 ef 3d 1d 95 e2 3c 3d 9a ac 3c 24 30 c6 3e
       0.11680756 0.027658993 0.02106964 0.38708603
0003b0 10 61 39 3e cb a5 5e 3d d2 78 22 be 9f fd b2 bd
       0.18103433 0.05435733 -0.15866402 -0.08739781
0003c0 4f 47 bc 3e d8 68 2d 3e eb 2c 95 3e ea 0c ae 3d
       0.36773154 0.16934526 0.29135832 0.08498557
0003d0 c4 b6 a0 3d c7 c5 b4 bd d3 40 02 bd 15 bd de bd
       0.0784736 -0.088267855 -0.031800102 -0.10875908
0003e0 c9 3c 2c 3d 04 94 93 3e f7 cc 02 3e 43 e0 c2 3e
       0.042050157 0.28823864 0.127735 0.38061723
0003f0 e4 0d 11 be c1 75 06 3e 11 d6 5c bd 5c 10 20 3e
       -0.14165455 0.13130857 -0.053915087 0.1563124

net.2.bias f4 [32]
000000 e6 1a 1a 3c f5 9b c3 bd 5e 07 08 3e d0 cb 1b 3e
       0.009405827 -0.09551231 0.1328406 0.15214467
000010 cd f6 4c bd 87 25 41 bd 20 e2 90 bc 60 78 8b 3d
       -0.050040055 -0.04715493 -0.01768595 0.06810069
000020 f4 17 d8 3d 49 60 e9 3d ca 3c 67 3d 58 8e df bc
       0.10551444 0.11395318 0.056454457 -0.027289554
000030 67 16 e6 3c 6b a3 35 bc 91 de ba bc 7f c9 28 bd
       0.028086854 -0.011086325 -0.022811206 -0.041207787
000040 35 88 fd 3d f4 25 7c bd 62 be 77 bc 00 7f c5 bd
       0.12379495 -0.061559632 -0.015121074 -0.09643364
000050 88 7c 6c bb cf 46 d7 3b bb 3b b7 bd e4 9c e6 3c
       -0.0036084969 0.0065697203 -0.089469396 0.028150983
000060 6a c6 a3 3e 10 7b de bd b1 4f 2f 3e b3 4b 02 be
       0.31987315 -0.10863316 0.17120244 -0.1272419
000070 c8 ff 13 bf db 98 aa 3d 19 06 08 3e c3 1a e3 3c
       -0.57812166 0.08329936 0.13283576 0.027722722

net.4.weight f4 [1, 32]
000000 db 24 15 bf 28 9f 30 3f fd 27 1a 3f fa 2d 30 bf
       -0.5825936 0.68992853 0.6021727 -0.68820155
000010 3f cf 10 3f 45 72 34 3f 56 77 1b bf ed 82 3a bf
       0.5656623 0.7048686 -0.6072897 -0.72856027
000020 f6 8c 07 3f fb 4b 2b 3f 86 30 16 bf 00 7c 19 bf
       0.52949464 0.6691281 -0.5866779 -0.59954834
000030 5a cf 9b 3e a6 98 0c bf fa f4 17 3f 1b 8a 79 3f
       0.30431634 -0.54920423 0.5935818 0.9747636
000040 6e 49 05 3f d3 78 0b bf 64 3b 27 bf 9e cc 2c 3f
       0.5206517 -0.5448124 -0.65325 0.6749972
000050 76 1b 10 3f 2e e0 ea 3e fe c8 41 bf 1c 0b 1a bf
       0.562919 0.4587416 -0.75697315 -0.601732
000060 d5 ee e6 3e fa 42 16 bf b9 34 2f 3f 8a ab 00 bf
       0.4510409 -0.5869595 0.68439823 -0.5026175
000070 33 05 78 bf 71 9a eb 3e 3c 12 33 3f c8 a5 cf 3e
       -0.96882933 0.46016267 0.699497 0.4055617
