data_augmented/checkpoints/discriminator_epoch25.pth (torch, 12820 bytes, 5 tensors)

net.0.weight f4 [64, 5]
00000000: bf51 17ba bce9 0039 c199 8c3e c73e 7f3e
00000010: b31a 22bf d9ef 7838 0e05 5639 5a8b b639
00000020: db7a 4b3f e987 68b9 8b49 043b 9e30 273a
00000030: a43e 8ebe 4898 f4be f4d8 763f 0660 b7bd
00000040: d34e 1d3f 2d36 5ebd 7d05 cb3e 9f64 87be
00000050: 2ed4 2b3a 862d 3a3b 9443 b0be 69ec c93e
00000060: 142b 143f 824d eabd 6248 fdbc 59e3 c93e
00000070: 8b25 9d3d ab4a 8bbf ca5e 7b39 d62d ff39
00000080: 8fd7 f8be 9488 e13d d5af 143e d275 c2be
00000090: f546 ffbb a93c 3e3e bd0e 5c3f 87c0 183e
000000a0: f0b6 b3b9 9c74 1c3a c0ee babe c2db df3e
000000b0: c553 eb3e 2f0a 28bf e893 ca3c b033 373d
000000c0: c562 52bb 8e50 d2be 0fe5 1fbd 89f3 e03e
000000d0: 78e1 2abe 3ee6 24bf 21a1 88be ef07 2d3b
000000e0: b2ea 78b9 0d51 50bf 94bc d9be 2c9a a2be
000000f0: 53d4 13ba 9f0e 93be 1ca1 5a3e 8071 3ebe
00000100: 5db1 0b3f d4ac 98b7 4987 3bb9 be52 b63e
00000110: b3d7 44bf 0372 693f 114d a239 8548 c839
00000120: 01be 77bf bc87 24bc 418f 9cbe e686 97ba
00000130: 668d 4fbb be96 903f 2db1 17be 466e b73e
00000140: 0e1d 65be 02db 47bd c81a 15be 0f05 19bf
00000150: abab 5d3f 873a fdbb 5e6b 0d3b 357d 0d3d
00000160: 7345 0bbf a95e bbbe f2cd aabe 09ae 1f3c
00000170: 5b59 773d 35a2 ce3e 61d3 763f 9036 593d
00000180: 9d3d 68bc aef2 d03d 9af1 8b3f eb17 8d3b
00000190: deb0 1ebc 52a5 a73b 72a5 56bf e8b8 26bf
000001a0: b7c3 79be b4b1 21be 3eb2 083f c4a7 1fbf
000001b0: bede 803e 9dfb 4a3e e8d3 39ba 6283 e7be
000001c0: c1e7 fabc d623 ec3e fe7f c5be a1b2 77bc
000001d0: d01a fabc 1a52 cbbb f39c 39be 5ca8 32bf
000001e0: e07f c73e 20e7 3dbe 1e4b 5d3d ee47 9b3c
000001f0: 29f6 c1be c915 68b9 a76a 1bb8 8273 acbe
00000200: 31d9 d13d 0f16 443f c59c 43be 6156 a43e
00000210: 8581 8f3d 9e03 a3be d5f8 6cbf d832 c33c
00000220: b432 2fbf 3955 b83c 4903 8c3e 2c3b ba3e
00000230: 479c ac3e 6682 173d 5339 7dbe f7d6 db3e
00000240: 4076 dc3e 794b 32be 9911 fc3e a594 6f3e
00000250: e49f 89be 5a51 6c3f 7b06 743c f9f2 c8ba
00000260: 6c8e d83c ccc6 10be 64a0 573f aca1 f2bb
00000270: b2a9 2f3f fd9b 7d3b 2898 493b 0631 cebb
00000280: b450 483b b909 f8ba 1534 5ebf 7438 283e
00000290: 72c0 4d3c 4ed7 363e 1b7a 26be a61d 23bf
000002a0: 92bf c9be f82b fa3e 6ad4 3aba 9c1c 073a
000002b0: 5e22 dbbb 29e1 433f 353b cf3e f44f 58bb
000002c0: c61c 1cbd 0a8c b0bc c8e8 723f 8649 c2bd
000002d0: 59e0 e23c ee94 c53d cddd 05bf 00e9 533e
000002e0: b762 123e c323 5b3a 1f08 6f39 3b5f 70bf
000002f0: e3d0 87be 018a 21bf 6b05 d4be a70b ea3c
00000300: 5937 c6bc 4a1f 6d3f 7501 003d 39e0 233f
00000310: 5550 6a3d 19a3 20be 6f86 593e ca33 103e
00000320: 047c eb39 5a4a 703c 7fe8 4c3f c436 2ebf
00000330: 70bd 063f 59a1 4a3e dcdf 443e 75d1 aa3e
00000340: 96bb 623f 291b 9e3e 86ab 763c 5ac9 d43e
00000350: 2bbb 7c3e f98e 033f 4f9a d83c 77cb ebbb
00000360: fc70 633b b4bf a63d 282a 4dbf 4e4d ee3d
00000370: fd02 d63c 7c4a 3fbe 7ffd 7dbe 988c b83e
00000380: 9cc2 42be cf90 b33e 2330 cb3e 0b7a c4be
00000390: 340d 3fbf 01e6 79bf 2788 a63b 1a23 cabb
000003a0: 0e9e 103f 8d64 9dbe 1204 8e3b 9912 ba3b
000003b0: 3c6c 423b b0ff aabe 37c7 08bf 6de8 9b3f
000003c0: 2af0 a8b8 f2ba a339 4144 9dbd 21be 40bf
000003d0: f32f 1abf 5870 acbd 353c 7c3d 38ac 8cbe
000003e0: ba6e c33e 4673 80bd e895 88b9 9de3 2e39
000003f0: 3813 cb3e 57e7 e93e 7fc7 eb3e 8f51 6b3d
-0.0005772374 0.00012294104 0.27461055 0.24926291 -0.6332199 5.9351183e-05 0.00020410513 0.0003481757
0.7948434 -0.00022175875 0.0020185437 0.0006377789 -0.27782166 -0.4777243 0.96424794 -0.08953862
0.614484 -0.054250885 0.39652625 -0.26443955 0.00065547496 0.0028408482 -0.34426558 0.3943818
0.5787823 -0.11440565 -0.030918304 0.39431265 0.076731764 -1.0882162 0.00023972537 0.0004867154
-0.48601958 0.11012378 0.145202 -0.37980515 -0.007790441 0.18577828 0.8595999 0.14917193
-0.0003427784 0.0005968304 -0.36510277 0.4372235 0.4596235 -0.6564054 0.02472873 0.044727027
-0.0032102328 -0.41077083 -0.039036807 0.43935803 -0.16687572 -0.6441382 -0.26685432 0.0026402434
-0.00023738554 -0.81373674 -0.42526686 -0.3175825 -0.0005639244 -0.28722093 0.21350521 -0.18597984
0.5456751 -1.8200291e-05 -0.00017884107 0.35610002 -0.7689163 0.91189593 0.00030956467 0.00038201004
-0.967743 -0.010042127 -0.30578044 -0.0011560589 -0.0031669973 1.1296003 -0.14813681 0.3582632
-0.22374365 -0.048792847 -0.14560997 -0.59773344 0.8659007 -0.0077279243 0.0021578888 0.034543235
-0.54402846 -0.36595657 -0.3336025 0.009746083 0.06038795 0.4035813 0.9641629 0.05303055
-0.014174846 0.102025375 1.0933106 0.0043058298 -0.009685723 0.0051161433 -0.838462 -0.65125895
-0.24391066 -0.15790445 0.53396976 -0.62365365 0.2516994 0.19822545 -0.00070887664 -0.45217425
-0.030628087 0.4612109 -0.38574213 -0.015118272 -0.030530363 -0.0062048556 -0.18126278 -0.69788146
0.38964748 -0.18545198 0.054026715 0.018955197 -0.37883118 -0.0002213336 -3.7054207e-05 -0.33681875
0.10246504 0.7659616 -0.19102772 0.32097152 0.07007126 -0.31838697 -0.9256719 0.023827955
-0.6843674 0.022501575 0.27346256 0.3637327 0.3371298 0.036989592 -0.24728899 0.42937443
0.43058968 -0.17411603 0.49232176 0.23396547 -0.268798 0.9231163 0.014894123 -0.00153312
0.0264351 -0.14138335 0.8422911 -0.0074045267 0.6861831 0.0038697713 0.0030760858 -0.006292465
0.003056568 -0.0018923796 -0.8679822 0.16427785 0.01255809 0.1785557 -0.16257517 -0.63717115
-0.3940397 0.4886167 -0.0007126989 0.00051541044 -0.0066874465 0.7651544 0.4047486 -0.003300664
-0.038113378 -0.02155115 0.94886446 -0.0948668 0.027694868 0.09647547 -0.52291566 0.20694351
0.14295469 0.0008359516 0.00022795842 -0.9389531 -0.26526555 -0.631012 -0.41410384 0.02857001
-0.024196314 0.9262587 0.03125139 0.6401401 0.057205517 -0.15687217 0.21242689 0.14082256
0.00044915092 0.014666164 0.8004226 -0.68052316 0.5263281 0.19788112 0.1922602 0.33362928
0.88567483 0.30880097 0.015055543 0.4155987 0.24680774 0.51390034 0.026440768 -0.0071958858
0.0034704795 0.08142033 -0.8014245 0.116358384 0.026124472 -0.18680757 -0.24803732 0.36044765
-0.1901955 0.35071418 0.39685163 -0.3837436 -0.7462952 -0.97616583 0.0050821486 -0.006168735
0.5649117 -0.30740777 0.0043339813 0.0056784865 0.0029666563 -0.333982 -0.5342898 1.2180306
-8.055598e-05 0.00031229068 -0.07679034 -0.75290114 -0.60229415 -0.08419865 0.061580855 -0.27475142
0.38170415 -0.06271987 -0.0002605163 0.00016678726 0.396631 0.4568431 0.4605064 0.057450827

net.0.bias f4 [64]
00000000: 9a03 3bbf bb93 eb3e 895c 103f 3c7a 5bbe
00000010: 8c18 0f3e 8cec b43d 4ae2 4bbf 6ff0 e0bd
00000020: 3cd8 fbbe a27d 3c3e 58f4 333f 6a50 afbd
00000030: e751 3d3f 292f 653e a15e 1cbd b9d7 5dbe
00000040: 922e 313e 88d8 453f 9481 c4be 9928 edbc
00000050: 474b 063f 5fe9 833e e16c 193e 49e0 313f
00000060: e8cc ef3e ec7e c03d 0663 b43e fc55 07be
00000070: 3ae7 efbe dbab ae3e cb81 bfbe 17d5 013e
00000080: 8213 eabe 563a a6bb 35ac 4b3e e7ca c1bc
00000090: b10a e5be 6fb0 84be 5fed 55be f233 26be
000000a0: 62f3 203f ed59 843e 5257 fabd 2cc5 75be
000000b0: 3521 06bf d65b cebc 06d6 193f 1a58 3a3f
000000c0: fc2b 6e3f fe4a 60bf 7691 82bf 77a0 e7bd
000000d0: f91e 44bf 9e26 353e 8dea 5ebe 239d dd3e
000000e0: 4481 86be c913 0d3f c6b3 ae3c 4a29 413d
000000f0: 4a13 183f 96a1 2a3f 5163 253f 3d1a cd3e
-0.7305237 0.46011147 0.563912 -0.21433347 0.13974208 0.0883418 -0.79642165 -0.10983359
-0.4918841 0.184073 0.70294714 -0.0856026 0.739531 0.22381271 -0.038176183 -0.21664323
0.17302921 0.77283525 -0.3838011 -0.028950023 0.52458614 0.25763986 0.1498294 0.69482857
0.4683602 0.093992084 0.352318 -0.13216394 -0.468561 0.3411549 -0.37403712 0.12678944
-0.45718008 -0.005072872 0.1988991 -0.023656322 -0.4473472 -0.25915858 -0.20891331 -0.16230753
0.6287137 0.25849858 -0.12223686 -0.24000996 -0.5239442 -0.025190275 0.600922 0.7279068
0.93035865 -0.8761443 -1.0200641 -0.11309903 -0.7660976 0.17690513 -0.21769162 0.43283948
-0.26270497 0.55108315 0.021325957 0.047158517 0.5940443 0.6665281 0.6460467 0.4005908

net.2.weight f4 [32, 64]
00000000: e0d2 5b3f 1fa8 7dbe eb50 03bf 4b86 8dbc
00000010: 2b81 a2bf 05de 0d3e 0b30 61be 70b8 4abe
00000020: 47fb c4be b8f8 2d3d 8862 ce3d ee60 babe
00000030: a1c0 e73c 7535 193e 4c89 d5bc d4d3 90be
00000040: db96 dabd 406d a13e 9f19 7fbe 0a75 e0be
00000050: ba28 79be d3f2 27be 3bbc 023e 096d 9e3e
00000060: 120f b43d d169 a73d 884d d73d 4deb 983d
00000070: 2dbb aebe 8046 d6bd 851e dcbe 8a8d 27bd
00000080: 1b45 72bf 2bf5 bbbe 0ca3 3b3d 92a9 7cbf
00000090: d19a 6bbe 4d8e 3a3d 2f59 34be b33b 73bb
000000a0: 4f3f 9c3d f4a1 99bd 8430 a0bd 9679 3a3f
000000b0: 0162 76be de2c 54bc a556 8ebd 5e07 f2be
000000c0: 724b 2c3e a602 13be 8bfc 963c eba4 8dbe
000000d0: c155 52bb 41eb 65bc b4d4 38bf 52c8 56bd
000000e0: 26ca e83e f70f c23e df75 e6bd ce51 f83e
000000f0: 6b66 943d 254a 863e ee2f 3a3e 24c2 bc3d
00000100: e1c8 77be 0f8b 13bf 04b8 623e 52b9 dfbd
00000110: 2a76 313e 8590 87bd 4943 c0be 1185 1fbd
00000120: cf75 36be 297e b53d 5036 1cbe 3639 a03e
00000130: 93b7 0d3e e1b6 143e ce49 d13d 1ec9 363f
00000140: 7f75 153e 03ff a7be e336 6a3c 4776 833e
00000150: d95f 17be e87c 873d 49c2 8ebe 9661 babe
00000160: ca78 773c 9888 8fbe 01c0 18be 498f d43d
00000170: 18a7 a13d d44f 7e3e 04de 0e3e 8f5d c7bb
00000180: 959e 323f ee4d 3bbb 82c9 c8be a897 113e
00000190: 4408 383e f810 d73d 81c0 53be accd 883d
000001a0: 4dde 643e b597 573e 40da e93d bddb 203d
000001b0: 747c 67be e562 01be 2eda cd3d c264 393e
000001c0: 7e95 0abf b561 97be f00a d6bd dd7a 843e
000001d0: de77 4f3e b8db 22bd 287b cb3e 5fc4 9b3e
000001e0: 40db b4be 5831 90bd 7088 413e 9ecf 0fbf
000001f0: 24b2 6abd c84c 6fbe 7b29 debe 3ecf a73d
00000200: 369d cdbe d104 fe3d a374 5ebd 43ab 1b3c
00000210: 1e53 b63e 87b9 2c3e 972a 91be 0261 8e3e
00000220: 8812 ce3d 0ca5 c53d 003d 50be 7bb5 df3d
00000230: 49c7 3dbc e7dd 00bf 1228 a2be 1212 ab3e
00000240: 6d78 07be 8bd6 9abe 152e 613c 3652 233f
00000250: e775 6d3d d862 b53d 28b6 753d 5d16 573e
00000260: 1a38 8d3d 56de a0be 3c96 2bbb 92b4 5d3d
00000270: 805a d13d d0ae 42bd 560b 933d 49bb be3d
00000280: c517 953e 07b5 213d 85d7 6c3e f843 653f
00000290: 3beb 2abc 13a4 46be c91b e33e 9ed9 ab3c
000002a0: 6013 40be 1642 a83e 9d75 133e 186b fabe
000002b0: e66d 3e3e d810 bebd e44c 233e 8a58 493e
000002c0: 16ef c2be 916c 4bbe c011 d2bc 04a8 923c
000002d0: d4c6 e6bd 8c51 893e 886d b83e a208 b1bd
000002e0: 3945 05be 861d dfbd 2158 2bbe 3f59 44be
000002f0: f30c f1ba 7c8c f0bd 4963 b03e 21d5 9dbe
00000300: 6654 a03e 9015 1a3f d3ab 1fbd 9c9a 4dbd
00000310: cfba 1fbe 4389 a33d a0f0 8d3e ed61 ebbc
00000320: 5f65 203e 8704 52bd c8ca 423e 465d 28bc
00000330: 8ae4 99bd 4581 823e 2bf6 953e f5dc d6be
00000340: 68d6 033e ce19 8f3e d561 56bd d2e2 c1be
00000350: e4d6 bd3b 9001 f73d a26f c43d 7a6c c7bd
00000360: 70d0 8fbd f87b ea3e 2db3 713d 2f42 1e3e
00000370: be00 443e 9e4c 843c 7982 9ebd 1d73 31be
00000380: 0985 8ebe 4ef4 a53d a8d4 433e fd75 22bf
00000390: 3d45 aa3d f762 ad3e 30ee 423e 4053 913b
000003a0: 232c 293e cbd3 013d b8f8 32bb 9fdb d53e
000003b0: b366 3b3e c52d 5d3d 9c87 41be f5c9 35be
000003c0: 7eec c13e 8b75 1b3e c4c0 813e 9c3f c53d
000003d0: 2b40 313d 72b7 05be 348b 15be d5da 6bbd
000003e0: c99f 893e 2c95 bd3e 921b 123e df77 053f
000003f0: 7be0 3abe c138 073e 5583 0ebe a3d5 063e
0.85868645 -0.24771164 -0.51295346 -0.01727595 -1.2695669 0.13854225 -0.21990983 -0.1979692
-0.3847296 0.042473525 0.10077387 -0.36402076 0.028290095 0.14961798 -0.026066445 -0.28286612
-0.10673305 0.31528664 -0.24912117 -0.43839294 -0.24331942 -0.16401224 0.12767117 0.30942562
0.08791937 0.0817448 0.10512835 0.07466755 -0.3412718 -0.104626656 -0.42992035 -0.040906467
-0.94636697 -0.36710486 0.04580979 -0.98696244 -0.23008277 0.045545865 -0.17612146 -0.003711444
0.07629263 -0.07501593 -0.078217536 0.72841775 -0.24060823 -0.01295015 -0.0695012 -0.47271246
0.16825655 -0.14356479 0.018430969 -0.27664885 -0.003209457 -0.01403314 -0.7219956 -0.052437134
0.45466727 0.37902805 -0.11252951 0.48499912 0.07246097 0.26228443 0.18182346 0.09216717
-0.24197723 -0.5763406 0.22140509 -0.10924019 0.17330232 -0.06619362 -0.37551335 -0.03894526
-0.17818378 0.08861954 -0.15255094 0.31293648 0.1383956 0.14522888 0.10219155 0.7140063
0.14595602 -0.32811746 0.014295313 0.25676176 -0.14782657 0.06615621 -0.27882603 -0.36402577
0.015104482 -0.280339 -0.14916994 0.10378892 0.07893199 0.2483514 0.1395188 -0.006084151
0.69773227 -0.0028580385 -0.39216238 0.14218009 0.17971903 0.105012834 -0.20678903 0.06679854
0.22350426 0.21053965 0.11418581 0.03927206 -0.22606069 -0.12635382 0.1005138 0.18104842
-0.54134357 -0.29566732 -0.10451305 0.25874987 0.2026057 -0.03976032 0.39742398 0.30423257
-0.35323524 -0.070406616 0.18899703 -0.56176174 -0.057298794 -0.23369133 -0.43391022 0.08193825
-0.40159005 0.124032624 -0.054310452 0.009501281 0.35610288 0.16867648 -0.28352806 0.27808386
0.10062128 0.09650621 -0.2033577 0.109232865 -0.011583158 -0.50338596 -0.31671196 0.33412224
-0.13229533 -0.30241808 0.013743897 0.6379732 0.05797377 0.088567436 0.05998817 0.21004625
0.06895466 -0.3141963 -0.0026182076 0.054127283 0.1022234 -0.047529995 0.071798965 0.093130656
0.29119697 0.03947928 0.23129089 0.8955684 -0.01043206 -0.19398527 0.44357136 0.020977791
-0.18757391 0.3286292 0.14400335 -0.4890983 0.1859661 -0.092805564 0.159473 0.19662681
-0.38073033 -0.19865634 -0.02564323 0.017902382 -0.11268392 0.26820028 0.36021066 -0.08644225
-0.13014688 -0.10894303 -0.16732837 -0.1917467 -0.00183907 -0.11745545 0.3445075 -0.30826667
0.3131439 0.6018915 -0.038982224 -0.050196275 -0.15598606 0.07985165 0.27722645 -0.028733218
0.1566367 -0.05127385 0.19022667 -0.010276144 -0.075142935 0.2548925 0.29289374 -0.41965452
0.12874758 0.27949375 -0.052339394 -0.37868363 0.005793439 0.12060845 0.09591605 -0.09737487
-0.07022178 0.45797706 0.059008766 0.15454935 0.19140908 0.016149815 -0.077397294 -0.17329068
-0.27835873 0.08103238 0.1912409 -0.63461286 0.083139874 0.33864567 0.19036174 0.004434973
0.16520743 0.031696122 -0.0027308892 0.4176912 0.18300895 0.053998727 -0.18899387 -0.17752822
0.37875742 0.15181558 0.2534238 0.09631273 0.043274086 -0.1305826 -0.14603883 -0.05758174
0.2687972 0.37027872 0.1426833 0.52136034 -0.18249695 0.13205244 -0.13917287 0.13167433

net.2.bias f4 [32]
00000000: 6b55 023e 8742 09be c2f3 aa3d eb7d 4f3e
00000010: 19e6 cfbd d8ec c9bd bec7 0b3d ce88 573e
00000020: c4d4 023e 3916 d23d eeb9 ed3d 205b b0bd
00000030: 666d bbbb 4a3d 2dbd 84f6 d9bc 7f63 a4bd
00000040: e11b 923d c644 35bc 6e23 113d cae3 d6bd
00000050: 6037 9cb9 da1b 863d ba08 20bd eef4 a03d
00000060: 3612 8b3e 2775 4dbd f661 2d3e be96 80bd
00000070: 7aa8 1ebf 4c80 073d 7ac7 a73d 614c 953d
0.12727897 -0.13404284 0.08347274 0.20262878 -0.101513095 -0.098596275 0.034126036 0.2104828
0.12776476 0.10258145 0.11607729 -0.08611131 -0.0057198284 -0.042294778 -0.026606806 -0.0802679
0.07134224 -0.01106376 0.03543418 -0.10492666 -0.00029795896 0.06548281 -0.039070822 0.07859217
0.2716233 -0.050160553 0.169319 -0.06278752 -0.61975825 0.033081338 0.08192344 0.07289959

net.4.weight f4 [1, 32]
00000000: 8b8a 58bf 4d50 4e3f 0630 573f b467 64bf
00000010: f79a 4d3f 464e 803f ad66 53bf 7542 84bf
00000020: 362c 213f 8f2b 453f 1335 55bf 8641 4bbf
00000030: d28f 183f 26e5 3fbf 803f 223f 937e 993f
00000040: e41b 383f 61ba 49bf ad03 71bf 76a7 353f
00000050: debe 353f c2c9 693f 6c65 7abf 4145 4fbf
00000060: 1f60 153f 4192 50bf 2358 4d3f aea4 25bf
00000070: b1c1 97bf fb37 273f 18db 643f 3b62 243f
-0.845864 0.8059128 0.8405765 -0.8922074 0.8031458 1.0023887 -0.82578546 -1.0332781
0.62958086 0.7701959 -0.8328411 -0.79396856 0.5959445 -0.7495903 0.63378143 1.1991752
0.7191756 -0.78800017 -0.94146234 0.7095865 0.70994365 0.91323483 -0.9781101 -0.8096505
0.58349794 -0.81473166 0.8021261 -0.64704406 -1.1855985 0.65319794 0.8939681 0.6421239
