data_augmented/checkpoints/discriminator_epoch75.pth (torch, 12820 bytes, 5 tensors)

net.0.weight f4 [64, 5]
00000000: c295 e7b8 022a 6a39 abbf 9a3e 3fd7 87bd
00000010: 3377 31bf 3e52 8cb6 0da4 8138 f7e0 1ab9
00000020: e673 5e3f 3e49 fab8 9658 cb3b a685 ba3a
00000030: ffaf a9be 2f86 acbe 02af 8c3f d579 40ba
00000040: ce8a 543f aa93 56bd 80f3 9d3e ed8c a4be
00000050: 7948 f83a b074 06bb 0aea d2be a86f cd3e
00000060: 246d 2c3f 0964 1a38 1a20 95bb 5f97 e33e
00000070: 5359 823e 8b92 babf 8070 c233 447e e1b7
00000080: d9d1 f2be 7102 453b 04ba 0e3e 6d71 41be
00000090: f3c9 8a3b 8817 003f 04c5 633f 8e14 633e
000000a0: fe33 64b9 202b 2cb9 7444 ccbe 89f7 d63e
000000b0: 8a9b ff3e 3ab3 00bf baa2 923c 1c2f 783e
000000c0: 7508 d6bd 03d4 04bf c6d0 e23a 2689 293f
000000d0: 580d a4bd cda7 2cbf 6152 5cbe 943d d4bb
000000e0: c757 05ba 81f8 6bbf 18c1 c2be a941 9fbe
000000f0: a6ca 0239 7d8c b5be af82 913e dc46 1bbe
00000100: c9a6 003f 2749 3db7 e7b3 48b8 806d b03e
00000110: f21d fabe 34aa 613f be1f fb37 814f 0239
00000120: 699e 8ebf c0a1 2139 161f 45b9 5ed0 43bb
00000130: bc91 51bb 7dd3 a93f ca03 fcbe 4e81 373e
00000140: 872f 8cbb 7e59 333a 13ba 2abe 4c19 20bf
00000150: b6a1 b23f 3678 093b 1de4 243a 77e3 3d3c
00000160: c64c fbbe d93c cdbe c971 4bbd 1e5b 173e
00000170: b40b abbd c70d 0b3f dd27 a33f 6d4a 893d
00000180: c041 bbbd 1354 f13d fb6c 933f c16d ca3b
00000190: f29b 6bbc 380e 973a ba28 8bbf 6fd7 02bf
000001a0: 3453 a9be 0f67 8039 f874 f43e f632 20bf
000001b0: 8263 d43c 1674 aa3e 332d 83b9 3178 12bf
000001c0: 2af1 c0bc 2db7 b63e 7d39 02bf e8af 4abc
000001d0: dee3 8dbd dd37 953c 1a3d 85be 4bbc 3abf
000001e0: 23fe 9e3e eb27 9ebd 553e 4d3e f18e f6bb
000001f0: 720b 0ebf fb4b 19b9 0e3b b038 0393 c9be
00000200: 708e 133a 6a90 663f 6de5 d53b 43f9 c83e
00000210: f295 463e c58c 02bf 1a55 e5bf e77d a839
00000220: a4e2 62bf c019 103d 52f1 ed3e a57c d13e
00000230: 5159 2e3e 9d67 193d c2a9 c4be 5d2c 3f3f
00000240: 2777 463f bd96 3fb9 9dee 093f 0691 723e
00000250: 5f5a b5be 671a 923f 62c1 47bb 9b69 8abc
00000260: 2f6f 093d b7c2 15be 8287 713f e44e ef39
00000270: a201 563f d578 8b3b c53d ce3a 3c77 f93b
00000280: 1f24 ecbb 02b5 3c39 5f55 6cbf 9f0e 6c3d
00000290: eae3 5b3e 9a05 45b9 159e a339 f34b 7dbf
000002a0: 0742 c0bb 5368 1d3f 19db 03ba 45f5 b6b9
000002b0: e1af ccbb 1a2e 493f 1105 153f 42ac 853c
000002c0: 9f6c f0bd 12bf 30bc 4fdc 803f c2d4 c1bd
000002d0: 5c60 54bb b73c f23d 9c34 08bf 49fa a33e
000002e0: b375 513d 9115 0eba cc04 073a 084a 85bf
000002f0: d22e 643c 7398 1abf 5974 ecbe e7fd 983b
00000300: 1bb3 88bc c959 553f dd05 5f3b e269 0a3f
00000310: 13b5 103c 00dc a7bd 2913 f53d eed9 973e
00000320: 7519 fd39 11a7 c939 d6dd 5f3f 355e 71bf
00000330: abce 043f 9562 a4b9 e2ac 3d3c b9ed 323f
00000340: 8a0a 813f 7084 cc3e bbcc 4d3b 63b0 1e3f
00000350: 7d3c b43e 0947 d13e 3404 f13d 8203 0539
00000360: ac3d 6f39 de1a 613e 4fe2 59bf 1e3f ee3d
00000370: 2950 60b9 0119 44be 6551 89be e9dd b93e
00000380: 0e1f 64be 2097 623d e601 573e 210f fabe
00000390: a02c 7abf 41dd c0bf 7f70 383a 4eb9 36bc
000003a0: 4f7f 1e3f d117 aabe 3b42 223d ca06 463c
000003b0: 1515 6539 cb15 ccbe adce d5be 4cb8 ac3f
000003c0: 5c4b c0b8 377a 23b9 d98f abbd 65ed 44bf
000003d0: 71f1 29bf 40a2 ccbd 1871 0f3e cc6e 95be
000003e0: 0e88 b23e b186 97bd e5e2 96b9 104a f0b9
000003f0: a5b4 073f b197 103f be2c f63e 314e df3a
-0.00011042833 0.00022331628 0.30224356 -0.06632852 -0.6932251 -4.1818994e-06 6.181756e-05 -0.0001477039
0.86895597 -0.000119345714 0.0062056286 0.0014230504 -0.33142087 -0.33696124 1.0990908 -0.0007342373
0.830243 -0.052386917 0.30849838 -0.32138768 0.0018942497 -0.0020516329 -0.41194183 0.4012425
0.67354035 3.6809626e-05 -0.004550946 0.44451424 0.25458774 -1.4575971 9.0542926e-08 -2.6880887e-05
-0.47425726 0.003006127 0.13938147 -0.18890925 0.0042355 0.50035906 0.88972497 0.2217581
-0.00021763143 -0.00016419264 -0.39895976 0.4198573 0.49923354 -0.5027348 0.01789986 0.24236721
-0.10450832 -0.51886004 0.0017304651 0.66224897 -0.080103576 -0.67443544 -0.215158 -0.0064770672
-0.0005086627 -0.9217606 -0.38037944 -0.31104782 0.00012473259 -0.35458747 0.28420016 -0.1516375
0.50254494 -1.128231e-05 -4.7851263e-05 0.34458542 -0.4885097 0.88150334 2.9936313e-05 0.00012427384
-1.1142093 0.00015414413 -0.00018798964 -0.0029878835 -0.0031977734 1.3267666 -0.4922164 0.1792042
-0.0042781266 0.00068416435 -0.16672544 -0.625386 1.39556 0.0020976192 0.0006290095 0.011589876
-0.4908201 -0.40085486 -0.04966906 0.14780852 -0.083518416 0.543179 1.274654 0.06703649
-0.091434 0.11783614 1.1517633 0.0061776345 -0.014380442 0.0011524623 -1.0871804 -0.51109976
-0.3307129 0.00024490847 0.4774549 -0.6257776 0.025926355 0.33291692 -0.00025019943 -0.5721465
-0.023552496 0.35686627 -0.5086897 -0.012371041 -0.06928228 0.018215114 -0.2602318 -0.7294356
0.31053266 -0.077224575 0.20043309 -0.007524364 -0.55486214 -0.00014619522 8.403334e-05 -0.39369974
0.000562883 0.9006411 0.006527594 0.39252672 0.19393137 -0.5099605 -1.7916596 0.00032137262
-0.88627076 0.035180807 0.46473175 0.4091541 0.17026259 0.03745233 -0.38410765 0.7467707
0.7752556 -0.00018271334 0.5387972 0.23688135 -0.3542051 1.1414307 -0.0030480255 -0.01689606
0.0335533 -0.14625059 0.94347394 0.0004564441 0.8359624 0.0042563477 0.0015734961 0.007613091
-0.0072064544 0.00017996508 -0.92317766 0.05763113 0.21473661 -0.00018789471 0.00031207563 -0.98944014
-0.005867246 0.6148731 -0.00050299015 -0.00034896485 -0.0062465523 0.7858597 0.58210856 0.01631749
-0.11739468 -0.010787742 1.0067233 -0.094644085 -0.0032406067 0.11827987 -0.53205276 0.3202689
0.051137637 -0.0005420084 0.0005150556 -1.0413218 0.013927178 -0.6038887 -0.46182516 0.0046689394
-0.016686967 0.83340126 0.0034030594 0.54067814 0.008832234 -0.081962585 0.11966545 0.29658455
0.00048274887 0.00038462182 0.8744787 -0.94284374 0.5187785 -0.00031353967 0.011576863 0.69893986
1.0081341 0.39944792 0.0031402546 0.61987895 0.352024 0.40874508 0.1176838 0.00012685175
0.0002281579 0.21982905 -0.85110945 0.116331324 -0.00021392167 -0.19150163 -0.26819912 0.36302117
-0.22277471 0.055319905 0.20996818 -0.48839667 -0.9772434 -1.5067521 0.0007035806 -0.0111525785
0.6191301 -0.33221295 0.039613944 0.01208658 0.00021846996 -0.39860377 -0.41759244 1.3493743
-9.16931e-05 -0.0001559042 -0.08377046 -0.76924735 -0.66384035 -0.09991884 0.14007986 -0.29186094
0.34869426 -0.07398737 -0.0002877928 -0.00045831548 0.53010017 0.5648146 0.4808101 0.0017036853

net.0.bias f4 [64]
00000000: d395 7fbf 9db2 003f 0a6a 463f 8b35 c4be
00000010: cafd e33d 34ff a3bd b82a 56bf d222 00be
00000020: eb9b 10bf e321 9c3e 5de1 413f df03 073e
00000030: cab1 593f ab6b ba3e f262 503d f4d9 cfbe
00000040: 968f 933e de84 613f 3bc8 c8be 5269 70bd
00000050: d9fe 463f 6fdf 993e bda5 893d 1b86 4a3f
00000060: 9148 0d3f 5723 3b3d ea9b b93e 3eb1 27be
00000070: 1444 9dbe 6a74 153f 77de c0be baa1 1b3e
00000080: 1bac dcbe d441 4c3e fd4f e43d 51ff 59bd
00000090: cec2 d4be 3183 cabd b708 aebe 22bb 5bbe
000000a0: 1e65 143f 3cac 7d3e 2680 afbe fbc8 6ebd
000000b0: c412 21bf af4f 503e 4392 303f 3e19 733f
000000c0: ecc3 873f 6214 60bf 1831 8cbf bf56 6b3d
000000d0: f3d7 4bbf 216b 9e3e 9e12 bebe 4206 533f
000000e0: 6419 dfbe e711 313f aaa2 41bc 26c4 f8bd
000000f0: 1ee8 483f da89 4f3f 264d 2a3f c06b 023f
-0.9983799 0.5027254 0.7750555 -0.383221 0.11132391 -0.080076605 -0.83658934 -0.12513283
-0.5648791 0.30494604 0.757345 0.1318507 0.8503691 0.3641027 0.05087561 -0.40595973
0.28820485 0.88093364 -0.39215264 -0.05869419 0.77732617 0.3005328 0.06721065 0.7911088
0.5518885 0.045688 0.36251765 -0.16376206 -0.30716002 0.5838076 -0.37669727 0.15198413
-0.43100056 0.19946986 0.11148069 -0.053222004 -0.41554874 -0.09888304 -0.33991024 -0.21458104
0.5796679 0.24772733 -0.34277457 -0.05829714 -0.6291926 0.20342897 0.6897318 0.9496039
1.0606666 -0.875311 -1.0952482 0.057455774 -0.7962639 0.30941108 -0.3712358 0.82431424
-0.4357406 0.6916794 -0.011818567 -0.12146787 0.7847918 0.8106972 0.6652397 0.50945663

net.2.weight f4 [32, 64]
00000000: 6700 d13f 10b5 093f d65f 7abf 75d0 3a3c
00000010: 8b62 00c0 3e4c 11bd b602 c5be 4645 88be
00000020: 9507 07bf 8e55 413e 9cd9 803e 8233 fbbe
00000030: f50b 933d af1c 5dbc d976 cb3d 1921 3dbe
00000040: 6d75 1e3e 333c df3e 4c56 94be 509a fabe
00000050: f884 92be 4023 6ebe f220 f63d 39e7 e63e
00000060: 21ee 573e b3a0 723d 849a 9c3e 69fb 9b3e
00000070: 117f f3be acb7 88bd 8b25 2cbf 4ba1 3fbe
00000080: 6c63 afbf 048f cdbe 558b b23d 55ca 87bf
00000090: 8f65 bdbe 128b 0a3e fdd3 63be 81a2 a7bd
000000a0: 77bf 783e 8c0a f4bd 1a2a adbd 864f 483f
000000b0: 3cfc 88be 8d4d f33c 5537 383d 2fe6 72bf
000000c0: 40ee 8f3e 2023 8cbe b1b5 0abd e838 35be
000000d0: 876a 88bd fec3 98bc b1c3 81bf bb9d 8d3d
000000e0: daff 0b3f 6c51 1a3f 4a22 4ebe b9d6 1c3f
000000f0: 55ba 8fbb 95e7 933e 7521 923e 2e5b 933e
00000100: 07e8 a4be 47b0 243d 0c8d 823e f4ba 1f3c
00000110: a251 723e 6366 2dbd 06e6 e7be cde0 923e
00000120: 0a4f 78be 0c28 5ebd 9204 bdbe 8698 e53e
00000130: a37b 513e e400 6e3e 10ea e03e 0a3f 993f
00000140: de56 1c3e 3b55 f2be d751 773c 8edf db3e
00000150: 4cb4 a93d eae6 5a3d 0dfe cabe 55d6 0dbf
00000160: 9403 cebc fc48 e7be 1d56 b2be b207 993e
00000170: 4777 e23d 6842 a03e ecb6 8e3e b1f2 8b3a
00000180: 90a2 713f 3e6f 47bd c0c0 f5be b6f4 5b3e
00000190: 8891 9d3e 5ab0 903e 4668 6dbe 1879 65bd
000001a0: 616d bc3e e199 363f cce4 813e 695c 373d
000001b0: 103e 90be c69c 83be 031f 8c3e d109 5e3e
000001c0: 9dd2 40bf 25e7 a7be 1cdc 1cbd b7c8 ad3e
000001d0: 4c65 473e 8935 67be 2a09 0c3f efea b43e
000001e0: aa1d 18bf 9863 42be 5c05 7d3e fb1b 41bf
000001f0: b51e 443c 7f41 efbe 079b acbe b79f cd3d
00000200: 2e4d 44bf 4b29 0dbf 0338 5a3d 9e43 edbd
00000210: 7c3a be3e 81e7 b93e 7c6b 8dbe 1242 823e
00000220: 6c07 4d3d dd87 ec3d 5b58 97be de71 493e
00000230: e27d 6bbc f229 e1be d8e2 cabe 6fe1 da3e
00000240: 941c 89be 8117 a4be 7d17 6bbc 6b75 253f
00000250: c5de 933d 1a94 883d d371 7e3b 5001 4e3e
00000260: 2c97 963d 275b e9be a6cf 14bd 9873 e83c
00000270: 3b98 663d 55e9 b2bd 3247 3f3e 1b3f 5b3e
00000280: 5d05 953e 8a43 14be 3b15 f33d 83d1 673f
00000290: 534d 203d f766 6cbe 10b4 d93e ddb7 4d3d
000002a0: a7c7 70be 5f40 de3e ca3c a03d 2a5b f7be
000002b0: c416 e73d c854 78bd ca4c 573e 41c6 9d3e
000002c0: f236 cdbe cd2c 3bbe 515f 8fbd decf 143b
000002d0: ca06 24be ed11 9c3e 565d 003f bece 1ebe
000002e0: 0a61 24be d1e5 87be 336f 29be 8bd9 b3be
000002f0: 1d0f 2e3e fce9 eebd 4543 ee3e ab2a debe
00000300: 5dfb 2c3f 31dc 9f3f 0a23 15be debf a33d
00000310: d92d 2cbe 9c79 06be d9d8 913e d541 a0bc
00000320: 0cb8 5d3e d30e b3bd d231 903e d9e4 c6bd
00000330: 9b2b aabd 0cd0 403e 78a1 bf3e 7742 07bf
00000340: 2de4 873e 69e8 923e e84d acbc cf5a c4be
00000350: ef35 0cbc 92b7 143e 5a0e 0b3e a5cc cdbd
00000360: ea2d afbd e21e 1a3f 4856 ab3d d302 2f3e
00000370: 2647 793e 67ee 693d 79c4 42be 4e77 95be
00000380: faf2 8bbe 4114 893e 4ecf 9c3e 1111 24bf
00000390: ea36 333d 1dd5 c03e c4fc 563e d148 9fbc
000003a0: 0ce4 4e3e e732 afbd 6ab3 893d 1a19 ce3e
000003b0: e6c8 863e e400 a13c 90e4 81be e283 93be
000003c0: df5e c73e 9c8b 183e f379 9a3e e84a e43d
000003d0: 733e d33d adff 3abe 9b8e 8dbe 6439 213c
000003e0: 05c2 8f3e 0fdd 063f 2b19 113e 5bc2 2d3f
000003f0: ab27 b5be 2231 f43d 997d 8abe 2c50 783e
1.6328248 0.53791904 -0.97802484 0.011402239 -2.0060146 -0.0354731 -0.3847863 -0.2661535
-0.52745944 0.18880293 0.25166023 -0.49062735 0.07180015 -0.013495608 0.09934778 -0.18469657
0.15474482 0.43600616 -0.2897209 -0.48945856 -0.28617072 -0.23255634 0.120180026 0.45098284
0.21086933 0.059235286 0.30586636 0.30465248 -0.4755788 -0.06675658 -0.67244786 -0.18713872
-1.3702216 -0.40148175 0.08717982 -1.0608622 -0.36991546 0.13529614 -0.22248836 -0.08185292
0.24291788 -0.11916074 -0.08455296 0.78246343 -0.2675494 0.029700065 0.044974644 -0.9488248
0.28111458 -0.27370548 -0.03386468 -0.1769749 -0.066609435 -0.018648144 -1.0137845 0.0691485
0.54687274 0.6028049 -0.20130268 0.6126514 -0.004386226 0.2888762 0.2854115 0.28780502
-0.32208273 0.040207174 0.25498235 0.009749163 0.23663953 -0.04233397 -0.4529268 0.28687134
-0.24248901 -0.05423741 -0.3691755 0.4484293 0.2045732 0.23242527 0.43928576 1.1972363
0.15267512 -0.4733065 0.015095196 0.42943996 0.08286342 0.053442873 -0.3964695 -0.5540517
-0.02514819 -0.4517287 -0.34831324 0.29888684 0.110579066 0.31300664 0.27873933 0.0010677186
0.94388676 -0.048690073 -0.4799862 0.21480069 0.30775094 0.28259546 -0.23184308 -0.056023687
0.368022 0.7132855 0.2536987 0.044765864 -0.2817235 -0.25705546 0.2736741 0.21683432
-0.7532137 -0.32793537 -0.03829585 0.33942196 0.19472235 -0.22579016 0.54701483 0.3533549
-0.59420264 -0.18983305 0.24709076 -0.7543332 0.011970212 -0.46729657 -0.33712026 0.10040229
-0.76680267 -0.55141133 0.053276073 -0.115851626 0.37153995 0.36309436 -0.27621067 0.25441033
0.050055906 0.11549351 -0.29559597 0.19672343 -0.0143732745 -0.43977314 -0.39626193 0.42750117
-0.26779616 -0.32049182 -0.014348862 0.6463229 0.07220224 0.06668873 0.0038825169 0.20117688
0.073530525 -0.45577356 -0.03633084 0.028375432 0.056297522 -0.08735911 0.18679503 0.21410792
0.29105654 -0.14478889 0.11869284 0.90554065 0.039136242 -0.23086153 0.4252019 0.050224174
-0.23513661 0.43408486 0.078240946 -0.4831174 0.11283639 -0.06062773 0.21025386 0.30815318
-0.40080982 -0.18278809 -0.07000602 0.0022706906 -0.16018215 0.30482426 0.5014242 -0.15508553
-0.16052642 -0.26542524 -0.16546325 -0.3512691 0.16997953 -0.11665723 0.46535698 -0.43391928
0.6757105 1.2489072 -0.14564148 0.0799558 -0.16814364 -0.13132328 0.28485754 -0.019562641
0.2165224 -0.08743062 0.2816301 -0.09711618 -0.08309098 0.18829364 0.37427878 -0.5283579
0.26541272 0.2869294 -0.021033242 -0.3835053 -0.008557781 0.14523152 0.13579693 -0.100487985
-0.08553679 0.60203373 0.08366066 0.17090921 0.24343547 0.057112124 -0.19020261 -0.29192585
-0.27333814 0.26773265 0.3062691 -0.6408854 0.043753542 0.37662593 0.2099486 -0.019443901
0.2020418 -0.08554631 0.06723674 0.40253526 0.26325148 0.019653745 -0.25369692 -0.28811556
0.38939568 0.14897007 0.30171165 0.111471 0.103146456 -0.18261595 -0.27647862 0.009840343
0.28077713 0.5268106 0.14169757 0.6787469 -0.35381827 0.11923434 -0.27048948 0.24249333

net.2.bias f4 [32]
00000000: 4dcc 813e f44f 1ebe 1c86 5c3d 1855 633e
00000010: 36c3 f6bd dfd8 eebd d463 9d3d b4bf b13e
00000020: 39db 663e 8b8c 8b3d 66b1 1b3e 4859 fabd
00000030: 9f1f 4bbd be89 b3bd 40a4 ecbc 8c67 02be
00000040: 6d77 763d 28b7 063c dd54 5f3d 7ff7 f3bd
00000050: d636 6fbd 52e5 4c3e afd0 b83d 9329 bd3d
00000060: 76bd 863e 46dd fbbc fae3 5a3e ce1b 87bd
00000070: 4553 2bbf 8f7c c93c 4254 953d a406 233e
0.25351182 -0.15460187 0.053838834 0.2220043 -0.12048952 -0.11662459 0.07685056 0.3471657
0.22544564 0.06813916 0.15204391 -0.1222406 -0.049590703 -0.087665066 -0.028886914 -0.12734812
0.060172487 0.008222379 0.05452429 -0.119124405 -0.058401905 0.20009354 0.09024178 0.09236445
0.26316422 -0.03074516 0.21376029 -0.065971 -0.66923934 0.024595527 0.072914615 0.15920502

net.4.weight f4 [1, 32]
00000000: e12d a2bf 53c3 8b3f 3bdc 9b3f 23f1 a0bf
00000010: 3c3b 9b3f 4cba c03f 9b81 9cbf 3d6e b7bf
00000020: 4fcd 653f 0767 9d3f 7543 a3bf 60e5 7fbf
00000030: 82aa d13f 3073 88bf 8b82 463f 1f47 c23f
00000040: 032c 8c3f f8e3 9abf 5be0 b3bf abe6 533f
00000050: 9c83 ab3f a735 1540 dd6a b4bf b315 92bf
00000060: 62ec 5d3f 5a3d 9ebf 1df9 783f 18ad 14c0
00000070: 6472 b2bf 4775 813f 08fc a03f 6ed6 633f
-1.2670251 1.0918983 1.2176584 -1.2573589 1.2127452 1.5056853 -1.2227052 -1.4330517
0.897664 1.2297066 -1.2754961 -0.99959373 1.638016 -1.0660152 0.7754294 1.5177954
1.0950931 -1.210082 -1.4052843 0.82773846 1.3399539 2.3313997 -1.4095112 -1.1412872
0.86688817 -1.2362473 0.97255117 -2.3230648 -1.3941159 1.0113915 1.2576914 0.8899907
