data_augmented/checkpoints/discriminator_epoch41.pth (torch, 12820 bytes, 5 tensors)

net.0.weight f4 [64, 5]
-0.0002887502 6.6064735e-05 0.29734892 0.11668116 -0.6904292 -0.00026890676 0.0002399967 0.00015775923
0.8182905 -0.00010738647 0.00547696 -0.007308502 -0.28135127 -0.42122197 1.0641068 0.0003184156
0.7112966 -0.038844183 0.37071297 -0.27656436 0.0040468257 -0.0020138144 -0.37005478 0.41932493
0.6181044 -0.012532673 -0.004883679 0.36723444 0.2003699 -1.3899153 0.00049425964 0.00055715884
-0.49463472 0.11352494 0.14822006 -0.20063877 -0.05948095 0.30445498 0.9208735 0.26037666
-0.0005362067 4.7599315e-05 -0.3768034 0.4376597 0.47083277 -0.60143065 0.00880339 0.15309153
-0.031663865 -0.48588562 -0.0047031706 0.53077304 -0.10349361 -0.6692681 -0.25863293 0.0014349584
-0.0015018557 -0.8305322 -0.49753538 -0.27670482 -0.0009572126 -0.2985449 0.23122472 -0.16473787
0.5623413 -0.00023993621 -0.00039014473 0.37138078 -0.69155484 0.95083237 -0.00036939105 0.0009547953
-1.0363584 -0.018213429 -0.11470187 0.004562043 -0.006279056 1.2698928 -0.21200453 0.2902437
-0.0020976076 0.0005245969 -0.15809606 -0.5913343 1.2189908 -0.012308533 0.007812986 0.010207679
-0.56161445 -0.371389 -0.2678475 0.19889022 -0.046464674 0.44540185 1.0417751 0.055883985
-0.0476149 0.13523754 1.1336004 -0.011125888 -0.008512529 0.001495246 -0.97086966 -0.5898421
-0.25884032 -0.0005722167 0.50876445 -0.67681354 0.119090885 0.27784935 -0.0022038594 -0.49248552
-0.023450563 0.43948922 -0.43650207 -0.014037262 -0.03610255 0.02849021 -0.2136135 -0.7311781
0.3699571 -0.05820695 0.16066483 -0.027862929 -0.5660606 -0.0003519921 0.000300923 -0.36123636
0.023838865 0.8263825 -0.06796459 0.2726005 0.1737149 -0.39999917 -1.529348 -0.0019582817
-0.760334 0.030518444 0.38515776 0.35196897 0.22012204 0.01882971 -0.32251433 0.5191961
0.69435185 2.7001704e-05 0.49286386 0.2173854 -0.39055288 1.0496116 -0.000317019 -0.008704927
0.031330466 -0.13557914 0.88327223 0.0014806287 0.757864 0.0029360685 0.012246043 -5.2647072e-05
-0.0014429974 0.0037544875 -0.8949594 0.15668765 0.07524424 -0.0005727676 0.0006357394 -0.9012122
-0.27894616 0.55594623 -0.0008270179 -5.836165e-05 -0.0035042982 0.7747052 0.48556888 0.0015448517
-0.07038422 0.0077642016 0.9882728 -0.11141855 -0.0003182601 0.11005484 -0.54717743 0.24384739
0.11153191 0.00044889006 0.0016002631 -1.0001777 -0.05826338 -0.61641926 -0.4158714 -0.007190988
-0.0020102672 0.87636477 0.020356273 0.59714407 0.03729684 -0.15149337 0.14753804 0.35245475
-6.501662e-05 0.0015574769 0.85132736 -0.78795415 0.4649665 -0.008545944 0.035244208 0.6077466
0.9371192 0.34185582 0.0037445219 0.47354022 0.26464036 0.4660766 0.10555999 -0.00052911905
-7.082679e-06 0.15275183 -0.8293015 0.12272725 -0.00066729076 -0.17187692 -0.26745647 0.37996367
-0.20353256 0.21502987 0.35897824 -0.30035055 -0.8882063 -1.201193 0.010420053 -0.015243961
0.60429025 -0.33169666 0.04031274 0.007236894 -0.008473795 -0.34386617 -0.48968259 1.3173506
-0.0002522765 9.2097616e-05 -0.080035634 -0.77862275 -0.63757163 -0.08251813 0.09413152 -0.31239235
0.35332897 -0.05155865 -0.00014125256 -0.0010121018 0.5031334 0.4921808 0.45533222 0.00093468605
00000000: 6563 97b9 3c8c 8a38 1e3e 983e 88f6 ee3d
00000010: f8bf 30bf 0efc 8cb9 a0a7 7b39 2c6c 2539
00000020: 7c7b 513f ac34 e1b8 1278 b33b 297c efbb
00000030: 460d 90be 68aa d7be a734 883f 05f1 a639
00000040: 8917 363f 141b 1fbd 17ce bd3e d899 8dbe
00000050: 3c9b 843b 33fa 03bb d277 bdbe c2b1 d63e
00000060: 173c 1e3f d755 4dbc 4507 a0bb 2706 bc3e
00000070: c42d 4d3e bfe8 b1bf 3491 013a 4c0e 123a
00000080: c340 fdbe c47f e83d 00c7 173e 4074 4dbe
00000090: 4ca2 73bd 86e1 9b3e 5ebe 6b3f 1750 853e
000000a0: 3990 0cba 60a5 4738 60ec c0be ef14 e03e
000000b0: fe10 f13e 5cf7 19bf 183c 103c 07c4 1c3e
000000c0: f8b1 01bd 00c6 f8be 0e1d 9abb bee0 073f
000000d0: 75f4 d3bd 2755 2bbf 896b 84be 3715 bc3a
000000e0: ead9 c4ba c29d 54bf f5bc febe 41ac 8dbe
000000f0: 73ed 7aba e1da 98be 2cc6 6c3e 0bb1 28be
00000100: 99f5 0f3f 6397 7bb9 578c ccb9 9f25 be3e
00000110: bd09 31bf c069 733f d4aa c1b9 3a4b 7a3a
00000120: 64a7 84bf 5434 95bc d0e8 eabd 317d 953b
00000130: 8ac0 cdbb d98b a23f b717 59be d29a 943e
00000140: 0478 09bb 1a85 093a efe3 21be af61 17bf
00000150: e407 9c3f bba9 49bc 0a02 003c 1c3e 273c
00000160: f7c5 0fbf b326 bebe 4f23 89be e1a9 4b3e
00000170: be51 3ebd b60b e43e e358 853f 9be6 643d
00000180: d707 43bd b67b 0a3e d119 913f 5b49 36bc
00000190: 2278 0bbc 21fc c33a ea8a 78bf e4ff 16bf
000001a0: b886 84be d000 16ba 633e 023f a743 2dbf
000001b0: ece5 f33d 4542 8e3e a06e 10bb 1027 fcbe
000001c0: 651b c0bc bb04 e13e 337d dfbe 8bfc 65bc
000001d0: 44e0 13bd 4d64 e93c 7fbd 5abe 7d2e 3bbf
000001e0: 046b bd3e 696a 6ebd 5285 243e cc40 e4bc
000001f0: 59e9 10bf 948b b8b9 34c5 9d39 f9f3 b8be
00000200: b949 c33c ce8d 533f 0531 8bbd 4b92 8b3e
00000210: 52e2 313e b1cc ccbe adc1 c3bf 8456 00bb
00000220: 40a5 42bf d101 fa3c 6633 c53e 4735 b43e
00000230: ac67 613e c440 9a3c 9920 a5be 09ea 043f
00000240: 0bc1 313f b881 e237 a758 fc3e 479a 5e3e
00000250: 8cf6 c7be ac59 863f 9235 a6b9 1c9f 0ebc
00000260: 6054 003d 42d5 0abe 211e 623f a811 c23a
00000270: 6003 423f 0e6b 403b a1a3 483c 5dd1 5cb8
00000280: f522 bdba d90d 763b 0f1c 65bf ba72 203e
00000290: a719 9a3d c825 16ba c0a7 263a d8b5 66bf
000002a0: 08d2 8ebe 7e52 0e3f 3bcc 58ba 58c9 74b8
000002b0: 5ea8 65bb 1453 463f 7c9c f83e 9f7c ca3a
000002c0: 9a25 90bd d86a fe3b 72ff 7c3f 692f e4bd
000002d0: 26dc a6b9 6f64 e13d d213 0cbf 21b3 793e
000002e0: d86a e43d 0159 eb39 ebbf d13a d305 80bf
000002f0: 95a5 6ebd a7cd 1dbf 19ed d4be 61a2 ebbb
00000300: b0be 03bb 7159 603f 33c2 a63c 6fde 183f
00000310: 92c4 183d 1421 1bbe 3614 173e f374 b43e
00000320: 8859 88b8 4124 cc3a 97f0 593f 5db7 49bf
00000330: 1710 ee3e 4904 0cbc 3b5c 103d 4895 1b3f
00000340: 0be7 6f3f ba07 af3e a766 753b dd73 f23e
00000350: f17e 873e 98a1 ee3e d62f d83d 94b4 0aba
00000360: c0a7 edb6 fa6a 1c3e 1a4d 54bf 6d58 fb3d
00000370: 20ed 2eba 8100 30be 0ef0 88be 998a c23e
00000380: d76a 50be ca30 5c3e ffcb b73e 8cc7 99be
00000390: 7d61 63bf b1c0 99bf dfb8 2a3c cec1 79bc
000003a0: c4b2 1a3f 25d4 a9be f91e 253d 7823 ed3b
000003b0: acd5 0abc 3a0f b0be adb7 fabe f29e a83f
000003c0: fb43 84b9 8824 c138 b9e9 a3bd d253 47bf
000003d0: e537 23bf 44ff a8bd 07c8 c03d e4f1 9fbe
000003e0: 89e7 b43e 2a2f 53bd 321d 14b9 80a8 84ba
000003f0: 5acd 003f 1fff fb3e 4e21 e93e b805 753a

net.0.bias f4 [64]
-0.88530964 0.4737393 0.6436404 -0.27333665 0.14398582 -0.057979826 -0.8131556 -0.12539285
-0.5086721 0.2569349 0.74462575 0.013254582 0.7917273 0.29784882 0.009886416 -0.28309715
0.24178608 0.815367 -0.4184565 -0.067032516 0.6672303 0.3507666 0.12958111 0.745254
0.5542591 0.05503852 0.36252165 -0.1491744 -0.41350442 0.502266 -0.3774743 0.1403517
-0.46301168 0.03443819 0.16110492 -0.056688756 -0.45755422 -0.14027001 -0.24862468 -0.102777384
0.626217 0.27317682 -0.18128654 -0.14823565 -0.5837712 0.15059593 0.64336723 0.8098568
0.9960905 -0.8626254 -1.063694 -0.028188432 -0.78381765 0.22675751 -0.2766555 0.636933
-0.37936717 0.6176632 0.13231294 0.0131185595 0.6770267 0.72258556 0.6535436 0.45944348
00000000: a7a3 62bf f58d f23e 9ec5 243f c8f2 8bbe
00000010: 0571 133e 417c 6dbd f72a 50bf fc66 00be
00000020: 5638 02bf f98c 833e cb9f 3e3f bf29 593c
00000030: a4ae 4a3f a47f 983e a2fa 213c 1cf2 90be
00000040: c596 773e e4bb 503f ee3f d6be 5848 89bd
00000050: 9bcf 2a3f ae97 b33e e9b0 043e f7c8 3e3f
00000060: ede3 0d3f 1270 613d 709c b93e 2dc1 18be
00000070: dab6 d3be 8194 003f 5044 c1be 5bb8 0f3e
00000080: de0f edbe 0f0f 0d3d b0f8 243e 7832 68bd
00000090: 8c44 eabe f1a2 0fbe 7897 7ebe f37c d2bd
000000a0: c24f 203f d5dd 8b3e 2ea3 39be 16cb 17be
000000b0: 0872 15bf d235 1a3e b7b3 243f c652 4f3f
000000c0: c9ff 7e3f 05d5 5cbf 2027 88bf 6deb e6bc
000000d0: 46a8 48bf 1f33 683e caa5 8dbe 0b0e 233f
000000e0: 6a3c c2be 2d1f 1e3f 0b7d 073e 3aef 563c
000000f0: 9f51 2d3f 5efb 383f a24e 273f 2d3c eb3e

net.2.weight f4 [32, 64]
1.350534 0.22265066 -0.7973934 0.026626578 -1.6881099 0.05912616 -0.31551737 -0.19524318
-0.47242793 0.13019952 0.18248077 -0.40133423 0.060051497 0.15554084 0.01765393 -0.21519235
-0.030097213 0.3927938 -0.29575133 -0.47740352 -0.2837986 -0.19386345 0.16338967 0.39153856
0.15463199 -0.08854177 0.20509948 0.15973401 -0.42421764 -0.06430596 -0.57499003 -0.09464286
-1.1199598 -0.44519162 0.0507115 -1.0391517 -0.37074688 0.10936698 -0.2064412 -0.016868623
0.15224735 -0.02150597 -0.075048275 0.74774307 -0.26585108 0.019970417 -0.008606377 -0.76376534
0.24011599 -0.23228526 -0.027117006 -0.23962207 -0.067785226 -0.023105895 -0.9017463 -0.007177938
0.6773663 0.49412036 -0.14705595 0.5761823 0.066022456 0.28875315 0.22728059 0.19672127
-0.26921403 -0.49999192 0.21964501 -0.036072597 0.13727242 -0.047866073 -0.42035654 0.044622984
-0.18093663 0.12517692 -0.24832182 0.31099606 0.15593992 0.16521694 0.2295559 0.9216256
0.13183191 -0.3888928 0.021688635 0.34578204 -0.033083707 0.09340601 -0.2761484 -0.44494268
-0.02276776 -0.39225718 -0.24136683 0.17694649 0.1061872 0.2665329 0.20061518 0.019195283
0.84180087 -0.10835903 -0.4365144 0.18486042 0.24903515 0.24055462 -0.19112909 0.09290623
0.2852476 0.372981 0.19483747 0.039611056 -0.24439187 -0.1265882 0.18101625 0.1807017
-0.6377082 -0.2996152 -0.040409822 0.28157496 0.21095183 -0.058289554 0.46871227 0.31294367
-0.6208837 -0.13561104 0.20682336 -0.6290056 -0.040082823 -0.32663798 -0.35352105 0.108356304
-0.62414175 -0.12831952 0.0014600425 -0.05340144 0.3429595 0.2855738 -0.31103057 0.27606246
0.08598806 0.11044504 -0.23968546 0.12804306 -0.007125368 -0.51380295 -0.34089977 0.41435328
-0.19529653 -0.30288494 0.0047735525 0.66600883 0.06946464 0.08002277 0.029296922 0.21892805
0.08816045 -0.37482262 -0.0057775597 0.029610656 0.08507671 -0.07033993 0.11987059 0.1497465
0.3058784 -0.050814077 0.17531894 0.9186597 -0.016446112 -0.21166778 0.43832266 0.022751305
-0.19553155 0.37832204 0.124903165 -0.48374605 0.1365073 -0.08099744 0.2060907 0.2547717
-0.38692424 -0.19852072 -0.026456524 0.00064044533 -0.120903775 0.30696145 0.3973411 -0.117148876
-0.2542778 -0.17817599 -0.17811458 -0.27570805 0.06357067 -0.11293371 0.42560682 -0.3481235
0.53539807 0.8541964 -0.09452884 0.01261531 -0.142766 -0.037033807 0.30440822 -0.026472373
0.17123728 -0.0653189 0.22646584 -0.029454987 -0.07929404 0.26565713 0.3166701 -0.49940234
0.19192013 0.27988702 -0.043168228 -0.40654892 -0.006020441 0.12896012 0.12634656 -0.10642184
-0.08943464 0.5186846 0.062013984 0.17911913 0.20863454 0.039267655 -0.12521209 -0.2297559
-0.29341033 0.17107472 0.24738328 -0.6577915 0.088816725 0.35590982 0.19553746 0.00273162
0.17357865 -0.017542556 0.01664521 0.4127401 0.23204625 0.04195528 -0.23520204 -0.23544545
0.38479412 0.15140253 0.25452676 0.11380332 0.051522747 -0.16961212 -0.18354283 -0.026565453
0.3927688 0.43956503 0.15374689 0.60483986 -0.24774271 0.12733099 -0.22047621 0.17179805
00000000: 4cde ac3f 89fe 633e f921 4cbf fb1f da3c
00000010: fc13 d8bf 462e 723d 7e8b a1be d4ed 47be
00000020: 13e2 f1be 0653 053e 3ddc 3a3e ae7b cdbe
00000030: 8ff8 753d 1946 1f3e f99e 903c 625b 5cbe
00000040: 6e8e f6bc 451c c93e b86c 97be 3c6e f4be
00000050: 0d4e 91be 2484 46be 9f4f 273e be77 c83e
00000060: d957 1e3e 6355 b5bd 9905 523e 5091 233e
00000070: 0e33 d9be d8b2 83bd 8c32 13bf 1ed4 c1bd
00000080: d85a 8fbf 28f0 e3be ddb6 4f3d ec02 85bf
00000090: 89d2 bdbe ccfb df3d 5265 53be 1130 8abc
000000a0: bbe6 1b3e 4a2d b0bc e9b2 99bd 176c 3f3f
000000b0: a21d 88be 0099 a33c c301 0dbc 2086 43bf
000000c0: f7e0 753e 30dc 6dbe 7c24 debc 7d5f 75be
000000d0: fbd2 8abd 9348 bdbc d8d8 66bf e834 ebbb
000000e0: e167 2d3f 58fd fc3e d695 16be af80 133f
000000f0: c836 873d 74d7 933e 3ebc 683e 4d71 493e
00000100: 6cd6 89be f1fe ffbe 9fea 603e dcc0 13bd
00000110: 2491 0c3e 370f 44bd f938 d7be 97c6 363d
00000120: 7447 39be 612e 003e 1348 7ebe e03a 9f3e
00000130: b7ae 1f3e a12e 293e b410 6b3e a8ef 6b3f
00000140: f2fe 063e f51c c7be 5dac b13c 580a b13e
00000150: c882 07bd a64b bf3d 5363 8dbe 87cf e3be
00000160: 7483 babc efd5 c8be de28 77be 7631 353e
00000170: ad78 d93d 0077 883e 116e 4d3e 6d3f 9d3c
00000180: 4380 573f 57eb ddbd d17e dfbe 0d4c 3d3e
00000190: 1203 7f3e f353 763e 58b7 43be 9f45 be3d
000001a0: f90b 923e 5ef7 be3e 7983 473e 343f 223d
000001b0: dd41 7abe 56a0 01be 535c 393e de09 393e
000001c0: d840 23bf 2a67 99be c584 25bd 982a 903e
000001d0: c203 583e 07c1 6ebd 0efb ef3e 273a a03e
000001e0: 3cf2 1ebf 9fdd 0abe 81c9 533e 8306 21bf
000001f0: e32d 24bd 183d a7be b600 b5be e9e9 dd3d
00000200: c1c7 1fbf 3166 03be e65e bf3a 78bb 5abd
00000210: 6398 af3e bb36 923e 663f 9fbe 0f58 8d3e
00000220: 821a b03d 0231 e23d 1b70 75be b81d 033e
00000230: eb7b e9bb 9788 03bf 6a8a aebe 1d26 d43e
00000240: d0fb 47be bc13 9bbe 766b 9c3b 8e7f 2a3f
00000250: 7a43 8e3d fae2 a33d 1900 f03c ad2e 603e
00000260: 778d b43d c0e8 bfbe af51 bdbb 0c92 f23c
00000270: b33c ae3d 620e 90bd b67e f53d 2657 193e
00000280: 189c 9c3e 6c22 50bd cf86 333e 482d 6b3f
00000290: ffb9 86bc 70bf 58be d46b e03e f260 ba3c
000002a0: 6c39 48be 6db3 c13e 3bcd ff3d 90ad f7be
000002b0: 92c8 0b3e fce1 a5bd 7109 533e 7071 823e
000002c0: ef1a c6be 0449 4bbe 5abb d8bc 8fe3 273a
000002d0: 669c f7bd 0d2a 9d3e 4b70 cb3e c0eb efbd
000002e0: b330 82be c473 36be ab63 36be 9b29 8dbe
000002f0: 5731 823d ca49 e7bd 23e9 d93e 3e3d b2be
00000300: d90f 093f 9eac 5a3f 5698 c1bd 72b0 4e3c
00000310: 4031 12be c3b0 17bd 65db 9b3e 97dc d8bc
00000320: d358 2f3e eac5 85bd a9e6 673e 964b f1bc
00000330: ea64 a2bd 3604 883e 9522 a23e aab1 ffbe
00000340: b686 443e 5a4d 8f3e 2bd1 30bd 2e27 d0be
00000350: 1f47 c5bb 1f0e 043e fe60 013e b2f3 d9bd
00000360: 8229 b7bd 84c8 043f 6002 7e3d 016b 373e
00000370: 4ba4 553e 1fd7 203d 9937 00be 2145 6bbe
00000380: e139 96be 362e 2f3e 0b52 7d3e 0665 28bf
00000390: 8be5 b53d d039 b63e f93a 483e fb04 333b
000003a0: 9abe 313e 68b5 8fbc 895b 883c ac52 d33e
000003b0: 889d 6d3e 4dd9 2b3d ced8 70be 9d18 71be
000003c0: bc03 c53e 4409 1b3e 5551 823e b711 e93d
000003d0: 8409 533d cdae 2dbe a7f2 3bbe cb9f d9bc
000003e0: fe18 c93e ab0e e13e d36f 1d3e c9d6 1a3f
000003f0: 44b0 7dbe 0e63 023e 84c4 61be d4eb 2f3e

net.2.bias f4 [32]
0.21907504 -0.16501296 0.060413685 0.22573489 -0.12518632 -0.12223818 0.07331971 0.3210656
0.1357874 0.06685172 0.14819503 -0.10252196 -0.02860204 -0.06680111 -0.040793028 -0.1288721
0.054185387 0.012013514 0.058606375 -0.12670977 0.0045191795 0.14348443 0.025573317 0.10168894
0.25768688 -0.02347434 0.21036585 0.007954386 -0.64304245 0.018381285 0.06619904 0.12306828
00000000: 3555 603e 28f9 28be 5774 773d 0c27 673e
00000010: d830 00be 0358 fabd a528 963d b662 a43e
00000020: da0b 0b3e 8ee9 883d 70c0 173e 09f7 d1bd
00000030: d34e eabc 05cf 88bd 9716 27bd 0cf7 03be
00000040: 7ff1 5d3d 54d4 443c 3d0d 703d 35c0 01be
00000050: a015 943b 95ed 123e 227f d13c 4a42 d03d
00000060: 89ef 833e 424d c0bc 256a 573e 1d53 023c
00000070: 6e9e 24bf 5994 963c 5d93 873d 390b fc3d

net.4.weight f4 [1, 32]
-1.0907757 0.91801614 1.0374817 -1.071615 1.0136094 1.2527895 -1.0221041 -1.2641926
0.7372713 0.97018766 -1.0533837 -0.9399966 1.1176345 -0.91821384 0.6759607 1.3283672
0.8990347 -0.9960497 -1.18444 0.7457784 1.0680395 1.5505314 -1.1812662 -0.97794986
0.72235465 -1.0176437 0.84023297 -0.9952953 -1.3152837 0.83147967 1.074137 0.800638
00000000: 8a9e 8bbf 1b03 6b3f 33cc 843f ae2a 89bf
00000010: f4bd 813f 685b a03f 4fd4 82bf 10d1 a1bf
00000020: d0bd 3c3f 385e 783f 47d5 86bf 9ea3 70bf
00000030: a60e 8f3f 1010 6bbf c30b 2d3f f007 aa3f
00000040: 2327 663f 1dfd 7ebf bb9b 97bf 55eb 3e3f
00000050: 85b5 883f d077 c63f bb33 97bf ec5a 7abf
00000060: 3cec 383f 2642 82bf 8219 573f accb 7ebf
00000070: 375b a8bf dadb 543f 527d 893f 9df6 4c3f
