data_augmented/checkpoints/discriminator_epoch98.pth (torch, 12820 bytes, 5 tensors)

net.0.weight f4 [64, 5]
0	0x386f216e	5.7013174e-05
1	0x39e945e4	0.00044493296
2	0x3e97c518	0.29642558
3	0xbdea7943	-0.1144891
4	0xbf2dd49d	-0.6790255
5	0xb98af7c5	-0.00026506014
6	0x396edbb5	0.00022779296
7	0x385e4248	5.2990654e-05
8	0x3f6423f7	0.8911738
9	0xb843eca5	-4.6712015e-05
10	0xbb8bdfab	-0.0042686067
11	0xba0d7a13	-0.00053969136
12	0xbeac6754	-0.33672583
13	0xbe8a5798	-0.27019954
14	0x3f913624	1.1344647
15	0xba3cf664	-0.0007208346
16	0x3f6285f0	0.8848562
17	0xbd6744f1	-0.056462232
18	0x3e8c4a86	0.27400607
19	0xbeaf860d	-0.3428196
20	0xbae44392	-0.0017415157
21	0xbb7d228f	-0.0038625335
22	0xbee0878d	-0.43853417
23	0x3ec726cc	0.38896787
24	0x3f311502	0.6917268
25	0xbb321e8c	-0.0027178852
26	0xbbada368	-0.0052990206
27	0x3ef1cf52	0.47228485
28	0x3e873ac8	0.26412034
29	0xbfbeca96	-1.4905574
30	0xba3ae217	-0.0007129027
31	0x3a117d1a	0.00055499526
32	0xbefaa751	-0.48955777
33	0xbb365cb1	-0.0027826244
34	0x3e13b158	0.1442312
35	0xbda54390	-0.08069527
36	0xbb505820	-0.0031790808
37	0x3f243b43	0.64152926
38	0x3f2c6d01	0.67353827
39	0x3e884d29	0.2662137
40	0xb9c73941	-0.00037998895
41	0x39dcec87	0.00042137897
42	0xbecfeaba	-0.4060877
43	0x3ec52f62	0.38512713
44	0x3f02ef13	0.5114605
45	0xbec970ed	-0.39343968
46	0xbc3cad11	-0.011515872
47	0x3daeb61e	0.0853083
48	0xbe2f66e5	-0.17129095
49	0xbed4bda8	-0.41550946
50	0x3b23e41c	0.002500779
51	0x3f3874cc	0.7205322
52	0xbd88a49f	-0.06672024
53	0xbf2fee0d	-0.6872261
54	0xbe44c84a	-0.19217029
55	0xbbafa900	-0.0053607225
56	0x3b727d22	0.0037000854
57	0xbf731d8c	-0.9496696
58	0xbebe3ee9	-0.37157372
59	0xbeaca3bb	-0.33718666
60	0xb9c4c506	-0.00037530827
61	0xbec345ee	-0.3813929
62	0x3e9c3e37	0.30516216
63	0xbe179684	-0.14803511
64	0x3efc0bdb	0.49227795
65	0xb93b69a8	-0.0001787307
66	0x398c369d	0.0002674357
67	0x3ea3ec68	0.320163
68	0xbeae27e0	-0.34014797
69	0x3f51de20	0.8197956
70	0xb9ceca18	-0.00039441953
71	0x38abb6e4	8.1879814e-05
72	0xbf93d27b	-1.1548609
73	0xb9477991	-0.00019023406
74	0xb9f61dd7	-0.0004694301
75	0xb9bf87d5	-0.00036531562
76	0xbbd7dcb9	-0.0065875915
77	0x3fad5f36	1.3544681
78	0xbf0c3f77	-0.5478434
79	0x3e13d306	0.14435968
80	0x392a8cc9	0.0001626491
81	0x3a72813e	0.0009250826
82	0xbe33431a	-0.17506066
83	0xbf310192	-0.6914302
84	0x3fb64dc0	1.4242477
85	0x3c0067cc	0.007837247
86	0x3c2bf0c5	0.010494416
87	0x3c08460d	0.008317483
88	0xbeea5218	-0.45765758
89	0xbed01605	-0.406418
90	0xbabf3514	-0.0014587962
91	0x3ba4e58f	0.0050322483
92	0xbe470925	-0.19437082
93	0x3f1b4c83	0.6066362
94	0x3fbaf16b	1.4604925
95	0x3d5bffe9	0.05371085
96	0xbdd93561	-0.10605884
97	0x3df43a07	0.1192513
98	0x3f95a50e	1.1690996
99	0x3c9d12d9	0.019174026
100	0xbb958f07	-0.0045641693
101	0xba499a41	-0.0007690527
102	0xbf996f71	-1.1987134
103	0xbea46121	-0.32105353
104	0xbe928458	-0.28616595
105	0xbadc81d7	-0.0016823363
106	0x3ef3e9cd	0.47639313
107	0xbf1ec6fa	-0.62022364
108	0x3c983bf4	0.018583275
109	0x3ea6a75d	0.32549563
110	0xb8692f4e	-5.5595585e-05
111	0xbf1d36fb	-0.6141202
112	0xbccb457e	-0.02481341
113	0x3e9e1c08	0.3088076
114	0xbf0ab4dc	-0.5418222
115	0x3accc573	0.0015622809
116	0xbdb7ce8a	-0.08974941
117	0xbb8e35dd	-0.004339917
118	0xbe8ef9df	-0.27925012
119	0xbf3d4cd5	-0.7394536
120	0x3e8c6239	0.27418688
121	0xbc5359e2	-0.012899848
122	0x3e72ece0	0.23723173
123	0xbcad0b50	-0.021123558
124	0xbf144fc3	-0.57934207
125	0xb98ee83a	-0.00027257373
126	0x39abc695	0.00032763617
127	0xbecf83d4	-0.40530264
128	0x3c92d3e8	0.01792331
129	0x3f6d6a85	0.9274066
130	0x3bb03a6d	0.0053780586
131	0x3ee8e196	0.45484608
132	0x3e2c6b53	0.16837816
133	0xbf1430ce	-0.5788697
134	0xbfe4f84f	-1.7888278
135	0x3a765f15	0.00093983236
136	0xbf6ed8e3	-0.9329969
137	0x3d171335	0.03688355
138	0x3efe0ec6	0.49620646
139	0x3edd063f	0.43168828
140	0x3dc9d38f	0.09854805
141	0x3e0ad91f	0.13559388
142	0xbea8523c	-0.3287524
143	0x3f485606	0.7825626
144	0x3f50c6cc	0.8155334
145	0xb9fc96ec	-0.0004817763
146	0x3f0ce7ed	0.5504139
147	0x3e78716a	0.24262014
148	0xbea9adce	-0.33140415
149	0x3f95a01f	1.168949
150	0xbbc5f087	-0.006040636
151	0xbca37193	-0.019951617
152	0x3c3f8f2e	0.011691852
153	0xbe32cc0c	-0.1746065
154	0x3f7805a3	0.968836
155	0xb94bb31a	-0.00019426309
156	0x3f60ae37	0.8776583
157	0x3b934510	0.004494317
158	0xbafc90d5	-0.0019269238
159	0x3c5bf4f4	0.013425101
160	0xbb6c1788	-0.0036024768
161	0x3af02f43	0.0018324632
162	0xbf75d4fb	-0.9602811
163	0x3d4cfb8f	0.050044592
164	0x3e5b84a5	0.21437319
165	0xba3bfa7e	-0.000717081
166	0x39864f68	0.00025617634
167	0xbf818b30	-1.0120602
168	0xba9de219	-0.0012045532
169	0x3f210aa6	0.62906873
170	0xb99d9779	-0.0003005823
171	0x3ac044ee	0.001466898
172	0xbbc008e2	-0.005860434
173	0x3f4e53d0	0.8059664
174	0x3f1d8370	0.6152868
175	0x3ca78565	0.02044935
176	0xbe0b2161	-0.13586952
177	0xbc288c16	-0.010287305
178	0x3f82a776	1.0207355
179	0xbda6962e	-0.08134113
180	0xb99a584a	-0.0002943895
181	0x395c5cac	0.00021015358
182	0xbf1ddf1d	-0.6166857
183	0x3ed274af	0.41104648
184	0xbd38216c	-0.04495375
185	0xba854941	-0.0010168926
186	0x393f0e68	0.00018220546
187	0xbf83b1ff	-1.0288695
188	0x3c980bb0	0.01856026
189	0xbf19f492	-0.6013881
190	0xbefcf754	-0.49407446
191	0xbb33a564	-0.0027411813
192	0xbce0133e	-0.027352925
193	0x3f60c050	0.87793446
194	0x3cd19f3a	0.02558862
195	0x3ef45c8d	0.4772686
196	0x3c7237e6	0.014783835
197	0xbd2aff1a	-0.04174719
198	0x3e003b80	0.12522697
199	0x3e500f4f	0.2031834
200	0x3ab2ffdf	0.0013656578
201	0x3a47986b	0.00076139596
202	0x3f5ff038	0.8747592
203	0xbf808000	-1.0039062
204	0x3f0b34e2	0.5437757
205	0x3beb7cdc	0.0071865153
206	0x3c2a8b16	0.010409137
207	0x3f2f5dcb	0.6850249
208	0x3f8cb520	1.0992775
209	0x3ec660c9	0.38745716
210	0xbad075b7	-0.0015904222
211	0x3f27c0c3	0.65528506
212	0x3ebf0e5e	0.3731565
213	0x3eacf7ed	0.33782902
214	0x3db01e67	0.08599549
215	0xba0f7a8f	-0.000547328
216	0x3a337798	0.0006846129
217	0x3e753fe2	0.2395015
218	0xbf5785a8	-0.8418832
219	0x3df01d2d	0.11724315
220	0x39cab130	0.00038660457
221	0xbe47083d	-0.19436736
222	0xbe8acb56	-0.27108258
223	0x3eab715a	0.33484918
224	0xbe65116c	-0.22369927
225	0xba135e4c	-0.00056216563
226	0x3e02cfce	0.12774584
227	0xbf110bca	-0.56658614
228	0xbf8362fc	-1.0264583
229	0xbfcf894b	-1.6213773
230	0xb8c47bd6	-9.3690745e-05
231	0xbc1baa51	-0.009501056
232	0x3f221659	0.6331535
233	0xbeb112d7	-0.34584686
234	0x3cd19cdb	0.02558749
235	0xbb52b68d	-0.0032152266
236	0xbaaf97fd	-0.0013396736
237	0xbed2457c	-0.41068637
238	0xbeb3351f	-0.35001466
239	0x3fb185e1	1.3868982
240	0xb9492e78	-0.00019186165
241	0x399d943a	0.0003005581
242	0xbdadefad	-0.0849298
243	0xbf49c26d	-0.78812295
244	0xbf2e106d	-0.67993814
245	0xbdd36559	-0.10322065
246	0x3e29223c	0.16516966
247	0xbe93591d	-0.28778926
248	0x3eb07ca3	0.3447009
249	0xbdb1c3a0	-0.08679891
250	0xb901472a	-0.0001232891
251	0x39a2f92a	0.0003108469
252	0x3f0a41d4	0.54006696
253	0x3f15f22d	0.58572656
254	0x3ef5ae80	0.47984695
255	0xbaabe754	-0.0013115206

net.0.bias f4 [64]
0	0xbf80d3da	-1.0064652
1	0x3f0409eb	0.51577634
2	0x3f4ea832	0.80725396
3	0xbedf367d	-0.4359626
4	0x3db6543d	0.08902786
5	0xbda13d96	-0.07873075
6	0xbf5dc045	-0.86621505
7	0xbe32ccce	-0.1746094
8	0xbf1b27b6	-0.6060747
9	0x3e68ab4e	0.22721598
10	0x3f417859	0.7557426
11	0x3de7fa54	0.11327043
12	0x3f61f779	0.8826824
13	0x3ecf3041	0.40466502
14	0x3d55fe69	0.052244578
15	0xbecbe9f0	-0.39826918
16	0x3e88e09a	0.26733857
17	0x3f6e3ead	0.93064386
18	0xbebfa188	-0.37427926
19	0xbd470974	-0.048593
20	0x3f4a8776	0.79112947
21	0x3e95e1f5	0.29273954
22	0x3d09f87a	0.03368423
23	0x3f4ee4ab	0.8081767
24	0x3f0f0322	0.55864155
25	0x3d68e7cc	0.056861684
26	0x3ec7876c	0.38970506
27	0xbe2c6df7	-0.16838823
28	0xbe86eaa8	-0.26350904
29	0x3f1e2a45	0.6178325
30	0xbecfad4e	-0.40561908
31	0x3e22e13d	0.15906234
32	0xbef22e0f	-0.47300765
33	0x3e53293e	0.20621201
34	0x3dd70d54	0.10500589
35	0xbd40536a	-0.04695455
36	0xbebe6fbd	-0.37194625
37	0xbdc4154a	-0.09574373
38	0xbecde540	-0.40213966
39	0xbe9d6ed9	-0.30748633
40	0x3f0e482e	0.5557889
41	0x3e98c199	0.29835203
42	0xbeda9d7b	-0.42698273
43	0xbcab92ff	-0.020944117
44	0xbf27816b	-0.6543185
45	0x3e59ebb7	0.21281324
46	0x3f306725	0.68907386
47	0x3f79b477	0.9754099
48	0x3f8b10ca	1.0864499
49	0xbf629acd	-0.8851746
50	0xbf8b5952	-1.0886633
51	0x3dc9f23f	0.09860658
52	0xbf4b8e2f	-0.7951383
53	0x3e9fd031	0.31213525
54	0xbeba72ab	-0.3641561
55	0x3f679ce0	0.9047375
56	0xbef66248	-0.48121858
57	0x3f3b931e	0.7327136
58	0xbdb29b0f	-0.08720981
59	0xbe3dd427	-0.18537961
60	0x3f566be4	0.8375838
61	0x3f583a1d	0.84463674
62	0x3f2e96f1	0.6819907
63	0x3f09f6d5	0.5389226

net.2.weight f4 [32, 64]
0	0x3fd2d5f0	1.6471539
1	0x3e45ca27	0.19315396
2	0xbf8772ea	-1.0581944
3	0x3c184fcd	0.00929637
4	0xc0092e8a	-2.1434655
5	0xbd4847aa	-0.04889647
6	0xbec6c534	-0.3882233
7	0xbeaa0e49	-0.33214024
8	0xbf0d2898	-0.55140066
9	0x3e78f033	0.24310379
10	0x3e8b7d3b	0.2724398
11	0xbf01ea2b	-0.50747937
12	0x3db09ae4	0.08623293
13	0xbe120247	-0.14258681
14	0x3e0adcd1	0.13560797
15	0xbe32c1ba	-0.17456713
16	0x3e1ee769	0.15517963
17	0x3ee7f6f2	0.45305592
18	0xbe96bc77	-0.29440662
19	0xbf08618c	-0.53273845
20	0xbe94d588	-0.2906916
21	0xbe876010	-0.26440477
22	0x3db892a9	0.09012348
23	0x3ef58c32	0.47958523
24	0x3e61a0ec	0.22034043
25	0x3ddf7d1c	0.109125346
26	0x3eb207f8	0.34771705
27	0x3ea32a2a	0.31868106
28	0xbf056f8e	-0.52123344
29	0xbdc1cac5	-0.09462503
30	0xbf471565	-0.7776702
31	0xbe8836eb	-0.266044
32	0xbfc731a6	-1.5562027
33	0xbecca9c2	-0.39973265
34	0x3d98fa5f	0.074696295
35	0xbf8c8fa6	-1.0981338
36	0xbe9d407a	-0.30713254
37	0x3d8aba0d	0.067737676
38	0xbe583127	-0.211125
39	0xbdfa7155	-0.122286476
40	0x3e8cc5c7	0.27494642
41	0xbe260c22	-0.16215566
42	0xbdbc5e51	-0.09197677
43	0x3f4f9dcb	0.8110015
44	0xbe822439	-0.2541826
45	0x3cd7b38c	0.026330732
46	0x3d5f7fe9	0.054565344
47	0xbf83eadc	-1.0306048
48	0x3e9af78e	0.30266994
49	0xbe8bb478	-0.27286124
50	0xbd415a0d	-0.04720502
51	0xbe07ea50	-0.13272977
52	0xbdb7fbca	-0.08983572
53	0xbd453b95	-0.048152525
54	0xbf8a3de3	-1.0800136
55	0x3d97acf4	0.07406035
56	0x3f0e3574	0.55550313
57	0x3f225acc	0.63419795
58	0xbe72ea69	-0.23722233
59	0x3f1b0683	0.6055681
60	0xbd82b23f	-0.06381654
61	0x3e9af764	0.3026687
62	0x3e9669db	0.29377636
63	0x3ea0dabc	0.3141688
64	0xbeb0b9f0	-0.3451686
65	0x3f6cae56	0.92453516
66	0x3e8ce782	0.27520376
67	0x3da54e78	0.08071607
68	0x3e905097	0.28186485
69	0xbd920189	-0.07129199
70	0xbf0a7957	-0.540914
71	0x3ef10b7b	0.4707907
72	0xbe87ebb6	-0.2654702
73	0x3c5ad10b	0.013355504
74	0xbed95c94	-0.42453444
75	0x3f07093d	0.5274847
76	0x3e71b7a5	0.23605211
77	0x3e8b2f56	0.27184552
78	0x3f0921c9	0.5356718
79	0x3fa7781d	1.3083531
80	0x3e2c7cc5	0.16844471
81	0xbf0532a7	-0.52030414
82	0xbcc88f6b	-0.02448245
83	0x3efaadd7	0.48960754
84	0x3dba7a41	0.09105349
85	0x3d151891	0.03640038
86	0xbecd3461	-0.40079024
87	0xbf187e22	-0.59567463
88	0xbdb1d403	-0.08683016
89	0xbef048b5	-0.4693047
90	0xbec4cf8d	-0.384396
91	0x3eb13555	0.34611002
92	0x3dee82fc	0.11646077
93	0x3ead1240	0.33802986
94	0x3e9f25eb	0.31083617
95	0x3c994893	0.018711364
96	0x3f815b48	1.0105982
97	0xbc2c3836	-0.010511449
98	0xbefdf7b9	-0.4960306
99	0x3e80231d	0.2502679
100	0x3e392717	0.18081318
101	0x3e86e739	0.26348284
102	0xbe31350d	-0.17305394
103	0xbdc4e235	-0.09613458
104	0x3ecc81ee	0.39942878
105	0x3f5cdd27	0.8627495
106	0x3e83cbd2	0.2574144
107	0x3cfe9e6a	0.031081397
108	0xbe9c2cb1	-0.30502847
109	0xbea34aa6	-0.3189289
110	0x3e9be945	0.30451408
111	0x3e72d973	0.23715763
112	0xbf4f5a20	-0.80996895
113	0xbeadb50e	-0.33927196
114	0x3d037cc3	0.032101404
115	0x3eb978cc	0.36224973
116	0x3dd45425	0.10367612
117	0xbe8b9372	-0.2726093
118	0x3f053c41	0.52045065
119	0x3ec20eac	0.3790182
120	0xbeff55b5	-0.49870077
121	0xbe564076	-0.20923027
122	0x3e8e7156	0.27820843
123	0xbf524074	-0.821296
124	0x3d498e44	0.04920794
125	0xbf082fef	-0.5319814
126	0xbea259b2	-0.31709057
127	0x3ddc584d	0.107590295
128	0xbf41f80b	-0.7576911
129	0xbf4d802b	-0.80273694
130	0x3d92228d	0.07135496
131	0xbe17b764	-0.14816052
132	0x3ebe2b91	0.37142614
133	0x3ebe6fb8	0.3719461
134	0xbe981963	-0.2970687
135	0x3e6f3694	0.23360664
136	0x3d21e0b4	0.039520934
137	0x3db34638	0.087536275
138	0xbea4a9c3	-0.32160768
139	0x3e623cbf	0.22093485
140	0xbcef0430	-0.029176801
141	0xbec5c2ae	-0.3862509
142	0xbeda1bd0	-0.42599344
143	0x3ed2c1fa	0.41163617
144	0xbe8cadaf	-0.2747626
145	0xbeab8a8d	-0.33504143
146	0xbd5cc52e	-0.053898983
147	0x3f232c25	0.63739234
148	0x3db016cc	0.08598098
149	0x3d712a9d	0.05887853
150	0xbc6b3e79	-0.014358156
151	0x3e416b8f	0.18888687
152	0x3d8a0f79	0.067412324
153	0xbef9ec53	-0.48813114
154	0xbd432504	-0.047642723
155	0x3ca81d5b	0.02052181
156	0x3d661fd9	0.056182716
157	0xbdcf24e1	-0.10114456
158	0x3e5d93b4	0.21638376
159	0x3e7b88a4	0.24563843
160	0x3ea987aa	0.33111316
161	0xbe2ad0c1	-0.16681196
162	0x3dbfad44	0.0935922
163	0x3f650d6f	0.89473623
164	0xbd82b863	-0.06382825
165	0xbe569e5e	-0.2095885
166	0x3eca790d	0.3954548
167	0x3d8db4ca	0.069192484
168	0xbe7dc816	-0.24783358
169	0x3eccdd2b	0.40012488
170	0x3d8da4fb	0.06916233
171	0xbeef2fc2	-0.46716124
172	0x3dd57af8	0.10423845
173	0xbd263364	-0.040576354
174	0x3e517474	0.2045458
175	0x3ea7591a	0.32685167
176	0xbed224c6	-0.4104368
177	0xbe3b17b6	-0.18270764
178	0xbd7d2ea1	-0.061812047
179	0xbc0b5ad3	-0.008505541
180	0xbe18b89a	-0.1491417
181	0x3e949d4d	0.2902626
182	0x3f08b9a7	0.53408283
183	0xbe2b123a	-0.16706172
184	0xbe2cde78	-0.1688174
185	0xbea1a89a	-0.31573945
186	0xbe30bc62	-0.17259362
187	0xbec64bc3	-0.38729677
188	0x3e60feff	0.21972273
189	0xbdfb13e2	-0.12259652
190	0x3ef09d0d	0.4699482
191	0xbee57640	-0.4481678
192	0x3f2a4961	0.6651822
193	0x3fbd91c8	1.4810114
194	0xbe2744d3	-0.16334848
195	0x3deb232a	0.114813164
196	0xbe2a5da5	-0.16637285
197	0xbe18ea27	-0.14933072
198	0x3ea08ddc	0.3135823
199	0xbbebc134	-0.0071946625
200	0x3e6d6c81	0.23185922
201	0xbd8b5a58	-0.06804341
202	0x3e9d7cab	0.30759177
203	0xbdf773b1	-0.12082613
204	0xbd97dcfb	-0.074151956
205	0x3e086048	0.13317978
206	0x3ecf7137	0.40516064
207	0xbf054b36	-0.5206789
208	0x3e8bbe14	0.27293456
209	0x3e97aea1	0.2962542
210	0x3ca406b0	0.02002272
211	0xbebf3de3	-0.37351903
212	0xbcb636b2	-0.022242878
213	0x3e1e4613	0.15456419
214	0x3e14e992	0.14542225
215	0xbdc112ea	-0.09427436
216	0xbdadc252	-0.08484329
217	0x3f22bb4e	0.63567054
218	0x3db945a6	0.090464875
219	0x3e31e996	0.17374262
220	0x3e7c8a8c	0.24662226
221	0x3d921ec1	0.07134772
222	0xbe6001fa	-0.21875754
223	0xbea50746	-0.32232112
224	0xbe9f105f	-0.31067178
225	0x3e9511a8	0.29115033
226	0x3eaa3e11	0.33250478
227	0xbf20f54f	-0.6287431
228	0x3e1ab326	0.15107402
229	0x3eb6523d	0.35609618
230	0x3e754997	0.23953854
231	0xbd10e0cd	-0.035370637
232	0x3e5651ac	0.20929593
233	0xbd702a97	-0.058634367
234	0x3da078ca	0.07835539
235	0x3ec382f9	0.38185862
236	0x3e8d1d73	0.2756153
237	0xbadcf862	-0.0016858692
238	0xbe82b602	-0.25529486
239	0xbe9ce6c6	-0.30644816
240	0x3ec9e8a8	0.39435315
241	0x3e1f4a8e	0.15555784
242	0x3e973b2d	0.29537335
243	0x3df9a954	0.121905
244	0x3dc9ecb8	0.09859604
245	0xbe351fc3	-0.17687897
246	0xbe9b6d7f	-0.30356976
247	0x3cad6e2b	0.021170696
248	0x3e8ee4aa	0.27908832
249	0x3f13be2a	0.5771204
250	0x3e18ca21	0.14920856
251	0x3f36b4ec	0.71369815
252	0xbece8cf4	-0.40341914
253	0x3df40ed9	0.119168945
254	0xbe8fbb04	-0.2807237
255	0x3e7f0bfe	0.24906918

net.2.bias f4 [32]
0	0x3e7bef74	0.24603063
1	0xbe03379e	-0.12814185
2	0x3d5b5a3e	0.05355286
3	0x3e5e4a30	0.21707988
4	0xbdebcc2d	-0.11513553
5	0xbde33162	-0.110934034
6	0x3d99029c	0.07471201
7	0x3eb8fd38	0.3613069
8	0x3e99f679	0.30070856
9	0x3d9afc7c	0.07567689
10	0x3e187257	0.14887367
11	0xbe2b91a6	-0.16754779
12	0xbd3fb8d2	-0.046807118
13	0xbdd7f529	-0.105448075
14	0xbccfb502	-0.025354866
15	0xbdce40c5	-0.100709476
16	0x3d8b47db	0.06800815
17	0x3b66348f	0.0035126542
18	0x3d477be2	0.04870213
19	0xbded7d86	-0.11596207
20	0xbdba62a7	-0.09100848
21	0x3e4c3e19	0.19945563
22	0x3de7b8c8	0.11314541
23	0x3dc5fddb	0.0966756
24	0x3e8a7639	0.27043322
25	0xbd5f42f0	-0.054507196
26	0x3e3e7ab2	0.18601492
27	0xbdec7bcb	-0.11547049
28	0xbf314c3b	-0.69256943
29	0x3d0332a7	0.032030728
30	0x3da50462	0.080574766
31	0x3e39b710	0.18136239

net.4.weight f4 [1, 32]
0	0xbfad79d9	-1.355281
1	0x3f96312e	1.1733758
2	0x3fa12c51	1.2591649
3	0xbfa9f936	-1.3279178
4	0x3fa6d6b4	1.3034272
5	0x3fced1b0	1.6157742
6	0xbfa5c378	-1.2950277
7	0xbfbeee69	-1.4916507
8	0x3f78390d	0.9696205
9	0x3fa929db	1.3215898
10	0xbfae47b1	-1.3615628
11	0xbf84fa60	-1.0388908
12	0x3fef6c74	1.8704972
13	0xbf90122b	-1.1255544
14	0x3f4ef734	0.8084595
15	0x3fc9973d	1.5749279
16	0x3f969219	1.1763335
17	0xbfa551a2	-1.2915537
18	0xbfbe884e	-1.4885347
19	0x3f5a65ce	0.8531159
20	0x3fb86876	1.4406879
21	0x402f798a	2.7417932
22	0xbfbfaa08	-1.4973764
23	0xbf9aeedb	-1.2104143
24	0x3f6cab93	0.924493
25	0xbfa7f4e1	-1.3121606
26	0x3f82f9f5	1.0232531
27	0xc02a0db4	-2.6570864
28	0xbfbb3d42	-1.4628069
29	0x3f8b75a4	1.0895276
30	0x3faaa0e8	1.3330355
31	0x3f6d698d	0.9273918
