data_augmented/checkpoints/discriminator_epoch56.pth (torch, 12820 bytes, 5 tensors)

net.0.weight f4 [64, 5]
0	0xb8808a9e	-6.129335e-05
1	0x39010b1f	0.00012306542
2	0x3e99ffc9	0.3007796
3	0xbc90da66	-0.017682265
4	0xbf3143c5	-0.69244033
5	0xb95d934d	-0.00021131076
6	0xb8066d30	-3.204978e-05
7	0xb8d9e1a2	-0.00010389394
8	0x3f58151c	0.8440721
9	0xb9143046	-0.00014132363
10	0x3bd811c8	0.0065939166
11	0xbb3087a8	-0.0026936326
12	0xbe9bbb65	-0.30416408
13	0xbebfaad7	-0.37435028
14	0x3f8b4709	1.0881053
15	0x39ca6d6f	0.00038609977
16	0x3f46b989	0.77626854
17	0xbd3e0d3b	-0.046399336
18	0x3eb0f666	0.34562987
19	0xbe9b270b	-0.30303225
20	0x3ab89702	0.001408309
21	0xbb0422be	-0.002016231
22	0xbecab879	-0.39593866
23	0x3ed4ac9d	0.41537943
24	0x3f275193	0.6535885
25	0xb70ca5b0	-8.383227e-06
26	0xbb8fa0d5	-0.0043831863
27	0x3ed5358d	0.41642419
28	0x3e6bb0bf	0.23016642
29	0xbfb6526a	-1.4243901
30	0x39331f9a	0.00017082543
31	0x3a0ce5a0	0.0005374793
32	0xbef2930d	-0.47377816
33	0x3d5c55cc	0.05379276
34	0x3e0ffead	0.14061995
35	0xbe4125f1	-0.1886213
36	0xbb8bc1f0	-0.0042650625
37	0x3ecf7a50	0.40523005
38	0x3f719f0e	0.94383323
39	0x3e8574ee	0.26065773
40	0xba0e1730	-0.00054203253
41	0x37355d68	1.08101885e-05
42	0xbec83300	-0.3910141
43	0x3ee45d09	0.4460223
44	0x3efa6294	0.48903334
45	0xbefceb38	-0.49398208
46	0x3c67c97e	0.014147161
47	0x3e57b232	0.2106407
48	0xbd96a76e	-0.073561534
49	0xbf02ed55	-0.5114339
50	0x3a88d31c	0.0010438892
51	0x3f1a2f5b	0.6022851
52	0xbdb1cb72	-0.08681382
53	0xbf2ae0de	-0.6674937
54	0xbe6f2445	-0.2335368
55	0xba82f48a	-0.0009991091
56	0xbb4cded0	-0.0031260736
57	0xbf60604f	-0.87646955
58	0xbede1789	-0.4337733
59	0xbe8bb407	-0.27285787
60	0xba75c6e4	-0.00093756453
61	0xbea54ef7	-0.32286808
62	0x3e82efb1	0.25573495
63	0xbe25698f	-0.16153549
64	0x3f0a6b0d	0.54069597
65	0xb7ad0b30	-2.0628417e-05
66	0xb99ffcfc	-0.0003051533
67	0x3eb8cc19	0.36093214
68	0xbf153152	-0.5827838
69	0x3f6ceb10	0.92546177
70	0x38c78dc6	9.515467e-05
71	0xb9972cae	-0.00028834253
72	0xbf897d14	-1.0741296
73	0xbd01461e	-0.03156101
74	0xbc65f389	-0.014035114
75	0x3a1479a9	0.0005663881
76	0xbbcb1f29	-0.006198783
77	0x3fa72e2d	1.3060967
78	0xbebfc1eb	-0.37452635
79	0x3e6d1537	0.23152624
80	0xbb021b5e	-0.0019852738
81	0x39800881	0.00024420398
82	0xbe307194	-0.17230827
83	0xbf177c24	-0.591738
84	0x3faa1763	1.3288387
85	0x3b802122	0.0039101997
86	0x3a80df99	0.0009832262
87	0x3cdf9f25	0.027297566
88	0xbf08a0f5	-0.533706
89	0xbec756d9	-0.38933447
90	0xbe15f9f8	-0.14646137
91	0x3e73b841	0.23800756
92	0xbd87bfeb	-0.06628402
93	0x3ee3d8e2	0.44501406
94	0x3f92efd2	1.1479437
95	0x3d7a4cb6	0.061108314
96	0xbd928da7	-0.07155924
97	0x3dfa0c3f	0.12209367
98	0x3f92128c	1.141191
99	0xbbebb300	-0.0071929693
100	0xbc927d55	-0.017882029
101	0x3b05395d	0.002032838
102	0xbf839a13	-1.0281395
103	0xbf126fc1	-0.5720177
104	0xbe9bb4a7	-0.30411264
105	0x3a5989dc	0.0008298436
106	0x3f00ecaa	0.5036112
107	0xbf2863c7	-0.6577725
108	0x3da6017c	0.08105752
109	0x3e91a384	0.28445065
110	0xba91c9e8	-0.0011122795
111	0xbf07f61c	-0.5310991
112	0xbcc7d055	-0.024391333
113	0x3ed13f06	0.40868396
114	0xbef08bcc	-0.46981657
115	0xbcbd5b90	-0.02311495
116	0xbd37d990	-0.04488522
117	0x3cd7fa9c	0.026364617
118	0xbe779601	-0.24178316
119	0xbf3ba5ac	-0.7329967
120	0x3e9504ac	0.29105127
121	0xbdada9f4	-0.084796816
122	0x3e251907	0.16122828
123	0xbd14500c	-0.03620915
124	0xbf15eb6a	-0.5856234
125	0x38d27c60	0.00010036747
126	0xb94d1a31	-0.0001956008
127	0xbec27ecf	-0.37987372
128	0x3c35a76f	0.011087283
129	0x3f5e6e63	0.86887187
130	0xbd1e1d8f	-0.038602408
131	0x3e9a48f3	0.3013378
132	0x3e657f8f	0.22411941
133	0xbeedb8ea	-0.4643014
134	0xbfdbea92	-1.718096
135	0xb9c17090	-0.00036895694
136	0xbf517769	-0.8182283
137	0x3d060c61	0.03272665
138	0x3edad1db	0.42738232
139	0x3ec139f5	0.3773953
140	0x3e22d0d5	0.15899976
141	0x3c2ac41f	0.0104227355
142	0xbec8f68c	-0.392506
143	0x3f20b412	0.62774765
144	0x3f41f486	0.7576374
145	0xb921b720	-0.00015422376
146	0x3f0412dd	0.51591283
147	0x3e6879ae	0.22702667
148	0xbec333b7	-0.38125393
149	0x3f8c5845	1.0964438
150	0xbb398c2f	-0.0028312316
151	0xbc2a3f56	-0.010391077
152	0x3cdefa2e	0.027218904
153	0xbe193390	-0.14961076
154	0x3f6a4217	0.91507095
155	0xbb0244fb	-0.0019877541
156	0x3f4bbf4b	0.79588765
157	0x3b55c7cf	0.0032620316
158	0x3c21d059	0.009876334
159	0x3ad98865	0.0016596435
160	0xbbc6df91	-0.0060691317
161	0xba24c9dc	-0.0006286183
162	0xbf681296	-0.9065336
163	0x3d9217fd	0.07133482
164	0x3e6443b0	0.22291446
165	0xb8c6dc46	-9.482405e-05
166	0x38d4033f	0.000101095524
167	0xbf75e922	-0.9605886
168	0xbe1e4ea3	-0.15459685
169	0x3f182666	0.5943359
170	0xba3fa88c	-0.0007311187
171	0x3a6c0ee4	0.00090049044
172	0xbb8c8949	-0.0042888266
173	0x3f48636b	0.782767
174	0x3f08d082	0.5344316
175	0x3bf63719	0.0075138924
176	0xbdc07f1f	-0.093992464
177	0xbbaec7ff	-0.0053339
178	0x3f7f68b2	0.9976913
179	0xbddd8b8f	-0.10817634
180	0x3b7abdc8	0.003826009
181	0x3dde55f9	0.10856242
182	0xbf0ab533	-0.5418274
183	0x3e8b2b54	0.27181494
184	0x3e040fa6	0.12896594
185	0x395ad63a	0.00020869906
186	0xba4ccf33	-0.00078128575
187	0xbf83c49c	-1.0294375
188	0xb91b24d5	-0.00014795673
189	0xbf1c7dd0	-0.61129475
190	0xbed64449	-0.41848972
191	0x3ba24713	0.0049523204
192	0xbd52650b	-0.051365893
193	0x3f595b93	0.84905356
194	0x3d0b00a2	0.03393615
195	0x3f0fa624	0.56112885
196	0x3d530259	0.05151591
197	0xbdea23ee	-0.11432634
198	0x3e47f848	0.19528306
199	0x3ecc535f	0.39907357
200	0xb8eae618	-0.00011200848
201	0xb9bfeb15	-0.0003660551
202	0x3f5cb882	0.86219037
203	0xbf5b87ec	-0.85754275
204	0x3ef56273	0.47926673
205	0x3baa4b55	0.0051969686
206	0x3bdfd911	0.0068312963
207	0x3f299b26	0.6625236
208	0x3f7aa6da	0.97910845
209	0x3ec9d535	0.39420477
210	0x3b7cab40	0.0038554221
211	0x3f114f80	0.5676193
212	0x3ea4bfa4	0.3217746
213	0x3ee41f3d	0.44555083
214	0x3df80538	0.121103704
215	0xb9e642fe	-0.00043918932
216	0xb92d4d68	-0.00016527402
217	0x3e42db4b	0.19028966
218	0xbf58d3b1	-0.84698015
219	0x3dfb6262	0.122746244
220	0xb99e3f9a	-0.00030183495
221	0xbe3d5b41	-0.18491842
222	0xbe86e4b9	-0.26346377
223	0x3ec107f2	0.37701374
224	0xbe5eda09	-0.21762861
225	0x3dd3dd20	0.103449106
226	0x3e9bf229	0.3045819
227	0xbec38d66	-0.38193816
228	0xbf6cccce	-0.9250001
229	0xbfb1a7bd	-1.3879315
230	0xba110341	-0.0005531796
231	0xbbe99c35	-0.007129217
232	0x3f1d5c13	0.6146862
233	0xbeaa2ef1	-0.33238938
234	0x3d1dcfc6	0.038528226
235	0x3bfc8cdd	0.007707222
236	0xbb8cf22c	-0.00430133
237	0xbebf5dda	-0.3737629
238	0xbee542a5	-0.44777408
239	0x3fab842a	1.3399708
240	0x39034164	0.00012517493
241	0xb95837ac	-0.00020620105
242	0xbda777eb	-0.081771694
243	0xbf44fe69	-0.769507
244	0xbf261961	-0.64882475
245	0xbdb6b8e9	-0.089219876
246	0x3df034fd	0.11728857
247	0xbe99f6f9	-0.30071238
248	0x3eb55d9e	0.35422987
249	0xbd707450	-0.058704674
250	0xba124e85	-0.00055811583
251	0xb82326e0	-3.8898434e-05
252	0x3f088c2d	0.5333889
253	0x3f0967cd	0.5367401
254	0x3ef0ce93	0.47032604
255	0x3aa874f3	0.0012852236

net.0.bias f4 [64]
0	0xbf77a3f4	-0.9673455
1	0x3efa2ca7	0.48862192
2	0x3f386fd4	0.72045636
3	0xbea725ea	-0.32646114
4	0x3e02dbc9	0.12779154
5	0xbd82cdd5	-0.063869156
6	0xbf4f20f3	-0.8090965
7	0xbda43d7a	-0.08019538
8	0xbf087a43	-0.53311557
9	0x3eaa28de	0.33234304
10	0x3f406573	0.751548
11	0x3dc07ef8	0.09399217
12	0x3f52be46	0.82321584
13	0x3eaeb6ac	0.34123743
14	0x3d013fc4	0.031554952
15	0xbeb758cf	-0.35809943
16	0x3e961b04	0.29317486
17	0x3f572461	0.84039885
18	0xbebe91d4	-0.37220633
19	0xbd8ec395	-0.06970898
20	0x3f3a7530	0.72835064
21	0x3ea5131f	0.3224115
22	0x3dd822d3	0.10553517
23	0x3f45db05	0.7728732
24	0x3f122986	0.5709461
25	0x3d4dde71	0.050260965
26	0x3eba7e96	0.36424702
27	0xbe1ad84a	-0.1512157
28	0xbeaebe6c	-0.34129655
29	0x3f09a8f7	0.53773445
30	0xbebe0abf	-0.37117574
31	0x3e1820fc	0.14856333
32	0xbed2edfe	-0.411972
33	0x3de8865b	0.11353751
34	0x3e0d042f	0.13771127
35	0xbd76f740	-0.06029439
36	0xbedae50b	-0.4275287
37	0xbddd6cfb	-0.10811802
38	0xbe951e28	-0.2912457
39	0xbe349d88	-0.17638218
40	0x3f1b129c	0.6057527
41	0x3e73c5a1	0.23805858
42	0xbe8b0934	-0.2715546
43	0xbdc8a04c	-0.09796199
44	0xbf1a045a	-0.6016289
45	0x3e341c25	0.17588861
46	0x3f2bd01b	0.6711442
47	0x3f639697	0.88901657
48	0x3f837eef	1.0273112
49	0xbf5d38d4	-0.8641484
50	0xbf8bb2da	-1.0913956
51	0x3c7dffd0	0.015502885
52	0xbf47d73c	-0.78062797
53	0x3e7f7c14	0.24949676
54	0xbead2ec6	-0.33824748
55	0x3f3e4a41	0.7433205
56	0xbecfbcd3	-0.4057375
57	0x3f27f72e	0.6561154
58	0x3c2a7813	0.0104046045
59	0xbd47de9b	-0.048796277
60	0x3f3bc2dd	0.7334421
61	0x3f44c4b5	0.7686265
62	0x3f276de4	0.65402055
63	0x3ef5c721	0.48003486

net.2.weight f4 [32, 64]
0	0x3fc6de0d	1.5536515
1	0x3eb6cb5c	0.35702026
2	0xbf6a25b6	-0.9146379
3	0x3c3d90b1	0.011570142
4	0xbff598d6	-1.9187267
5	0x3a6e5b77	0.0009092609
6	0xbebc387c	-0.36761844
7	0xbe728833	-0.23684768
8	0xbf013a51	-0.5047961
9	0x3e2130c9	0.15741266
10	0x3e5e3217	0.21698795
11	0xbee44c4a	-0.44589454
12	0x3d99d8f2	0.07512082
13	0x3dbc4ce6	0.09194355
14	0x3d565937	0.052331176
15	0xbe30930b	-0.17243592
16	0x3dc0bc70	0.094109416
17	0x3ed5fe15	0.41795412
18	0xbe9a99a7	-0.30195352
19	0xbef72087	-0.48267004
20	0xbe9613c7	-0.29311964
21	0xbe64be1f	-0.2233815
22	0x3e1004f6	0.14064392
23	0x3ed827c3	0.42217836
24	0x3e437d53	0.19090776
25	0xbcc739b5	-0.024319509
26	0x3e880e0e	0.26573223
27	0x3e6f29ec	0.23355836
28	0xbee8b095	-0.4544722
29	0xbd53cb5d	-0.051707614
30	0xbf14b926	-0.58095014
31	0xbe15d34e	-0.14631388
32	0xbf9ceda9	-1.2260028
33	0xbedc9d02	-0.43088537
34	0x3d8b17a1	0.06791616
35	0xbf872c7e	-1.0560453
36	0xbecbd4aa	-0.39810687
37	0x3e1ec319	0.15504111
38	0xbe716c1a	-0.23576394
39	0xbd9e83ea	-0.07740004
40	0x3e5067ef	0.20352148
41	0xbd7cb531	-0.061696235
42	0xbdb0c550	-0.086313844
43	0x3f47f546	0.7810863
44	0xbe8f6965	-0.28010097
45	0x3d21ee3c	0.03953384
46	0x3ce477ff	0.02788925
47	0xbf624365	-0.88384086
48	0x3e85f3e5	0.2616264
49	0xbe88e767	-0.26739046
50	0xbcca8e81	-0.024726154
51	0xbe3c078d	-0.18362255
52	0xbd63f1d1	-0.055650536
53	0xbc771f38	-0.015083127
54	0xbf7d3b08	-0.989182
55	0x3d34b3ef	0.04411691
56	0x3f1aa5b2	0.6040908
57	0x3f0c629d	0.5483797
58	0xbe31e27a	-0.1737155
59	0x3f22fc13	0.63665885
60	0x3d0143b7	0.03155872
61	0x3e93e4b3	0.2888542
62	0x3e875b4c	0.2643684
63	0x3e8395e7	0.25700304
64	0xbe96c298	-0.29445338
65	0xbece4207	-0.4028475
66	0x3e6efc72	0.23338488
67	0xbbfa670b	-0.007641678
68	0x3e3bdc0a	0.18345657
69	0xbcea86e3	-0.028628772
70	0xbec8e7c2	-0.39239317
71	0x3e0626be	0.13100716
72	0xbe696d9a	-0.22795716
73	0x3d1cef97	0.03831443
74	0xbe9c0273	-0.3047062
75	0x3ebca328	0.36843228
76	0x3e30b30d	0.17255802
77	0x3e452a42	0.19254401
78	0x3ea95d29	0.33078888
79	0x3f87809e	1.0586126
80	0x3e0ac0f2	0.13550165
81	0xbeda4b1c	-0.4263543
82	0x3ce13e8d	0.027495647
83	0x3ec391b6	0.38197106
84	0x3d103586	0.035207294
85	0x3da6639e	0.08124469
86	0xbeaeadca	-0.34116966
87	0xbefa34f9	-0.4886854
88	0xbc8faa14	-0.017537154
89	0xbede7e72	-0.43455845
90	0xbe96e53b	-0.29471764
91	0x3e6a59ac	0.2288577
92	0x3de5ae49	0.11214883
93	0x3e91cd10	0.28476763
94	0x3e78cabe	0.2429609
95	0x3ba0d1b4	0.004907811
96	0x3f652f87	0.89525646
97	0xbdb9f3d3	-0.09079709
98	0xbeeb0869	-0.45904854
99	0x3e49f783	0.19723324
100	0x3e95004e	0.29101795
101	0x3e9290e3	0.28626165
102	0xbe59f0ea	-0.21283308
103	0x3d8a9dc3	0.06768372
104	0x3ea5e2ed	0.32399693
105	0x3f0d6406	0.5523075
106	0x3e70587a	0.23471251
107	0x3d2eac6f	0.042644914
108	0xbe836ea0	-0.25670338
109	0xbe38733c	-0.18012708
110	0x3e668b00	0.22513962
111	0x3e479f04	0.19494253
112	0xbf2f30fe	-0.6843413
113	0xbe9d488c	-0.3071941
114	0xbd81a51a	-0.06330319
115	0x3e9d665b	0.30742154
116	0x3e57bbd4	0.21067744
117	0xbde701a2	-0.11279608
118	0x3f07ab0f	0.5299539
119	0x3ea77c71	0.3271213
120	0xbf292650	-0.66074085
121	0xbe2969bf	-0.16544245
122	0x3e62c905	0.22146995
123	0xbf3128c1	-0.6920281
124	0xbc8a6222	-0.016892496
125	0xbec840b5	-0.39111868
126	0xbea42091	-0.32056096
127	0x3dcc75a5	0.099833764
128	0xbf38fab9	-0.7225757
129	0xbea26d42	-0.31723982
130	0x3d0b188f	0.033958968
131	0xbdb3bea4	-0.08776596
132	0x3ebbd2a5	0.36684147
133	0x3eafa9b9	0.34309176
134	0xbe8bf247	-0.2733328
135	0x3e9026cd	0.28154603
136	0x3d56868e	0.052374415
137	0x3df06c7f	0.11739444
138	0xbe8925dd	-0.267867
139	0x3e20b215	0.15692933
140	0xbbe120fd	-0.0068703876
141	0xbef56528	-0.4792874
142	0xbebacb42	-0.36483198
143	0x3edd6a09	0.4324496
144	0xbe785346	-0.24250516
145	0xbe9d17b4	-0.30682147
146	0x3aca29fa	0.0015423887
147	0x3f281c03	0.6566774
148	0x3d8c9602	0.06864549
149	0x3d923566	0.07139091
150	0x3cc3045d	0.023805792
151	0x3e5f5bc6	0.21812353
152	0x3da4b31b	0.08041974
153	0xbed72fe6	-0.4202873
154	0xbca51e19	-0.020155953
155	0x3d0f43ad	0.03497665
156	0x3d8df26c	0.06931004
157	0xbda1a0a9	-0.078919716
158	0x3e1f93b9	0.15583695
159	0x3e36e4b2	0.17860678
160	0x3e969206	0.29408282
161	0xbddd6d1c	-0.108118266
162	0x3e1624ed	0.14662524
163	0x3f6a2621	0.9146443
164	0x3cac925c	0.021065883
165	0xbe6a6277	-0.22889124
166	0x3ee3e7cb	0.44512782
167	0x3d25f039	0.040512297
168	0xbe53a325	-0.20667703
169	0x3ee2937f	0.44253156
170	0x3dcccda0	0.10000157
171	0xbef7350c	-0.4828266
172	0x3e035fd1	0.1282952
173	0xbd9a5231	-0.07535208
174	0x3e5d5dcc	0.21617812
175	0x3e938c30	0.28817892
176	0xbec67ea3	-0.3876849
177	0xbe4251c1	-0.18976499
178	0xbd683d44	-0.056699052
179	0x3b895ac3	0.004191728
180	0xbe1edb57	-0.15513359
181	0x3ea2af84	0.31774533
182	0x3eef01a6	0.46680945
183	0xbe0d54c3	-0.13801865
184	0xbe41c3a8	-0.18922293
185	0xbe655ee9	-0.22399487
186	0xbe2d17c0	-0.16903591
187	0xbea92203	-0.3303376
188	0x3dea57ee	0.114425525
189	0xbddc5c3b	-0.10759779
190	0x3eea7f24	0.45800126
191	0xbec93f46	-0.39306086
192	0x3f223892	0.6336757
193	0x3f857376	1.0425861
194	0xbe01f3d6	-0.12690672
195	0x3d40c551	0.047063176
196	0xbe2a851b	-0.16652338
197	0xbdc27411	-0.09494794
198	0x3e88a580	0.26688766
199	0xbd02e6db	-0.031958442
200	0x3e51f255	0.20502599
201	0xbd94e102	-0.07269479
202	0x3e825aee	0.2546
203	0xbd6fd7ae	-0.058555298
204	0xbda3040f	-0.079597585
205	0x3e6cd7a7	0.2312914
206	0x3eae487a	0.3403967
207	0xbf04814e	-0.51759803
208	0x3e750237	0.23926626
209	0x3e912bc1	0.28353694
210	0xbd22d45c	-0.039753303
211	0xbecb4e4b	-0.3970817
212	0xbbb1851b	-0.0054174787
213	0x3e0cd818	0.13754308
214	0x3e067a80	0.13132668
215	0xbdd90d45	-0.10598234
216	0xbda7caab	-0.08192953
217	0x3f10738b	0.56426305
218	0x3d9bc619	0.076061435
219	0x3e31bfcf	0.17358325
220	0x3e65fa17	0.22458683
221	0x3d44d9b2	0.048059173
222	0xbe24ddfe	-0.16100308
223	0xbe8458fd	-0.25849143
224	0xbe90414d	-0.2817482
225	0x3e69bffc	0.22827142
226	0x3e8d6eea	0.27623683
227	0xbf275d68	-0.653769
228	0x3d524a47	0.051340368
229	0x3ebeebce	0.3728928
230	0x3e413e3d	0.18871398
231	0xbc7345f4	-0.014848221
232	0x3e3d26ac	0.18471783
233	0xbda7685e	-0.08174203
234	0x3d2b47d8	0.041816562
235	0x3ed2dead	0.41185513
236	0x3e75f88a	0.24020591
237	0x3d13dbf8	0.03609845
238	0xbe7b4664	-0.2453857
239	0xbe8996b7	-0.268728
240	0x3ec53fe4	0.38525307
241	0x3e1237c3	0.14279084
242	0x3e91ed33	0.2850128
243	0x3de20f9d	0.11038134
244	0x3db03735	0.0860428
245	0xbe394732	-0.18093565
246	0xbe8189a3	-0.2530032
247	0xbbb596f6	-0.0055416776
248	0x3ea79560	0.32731152
249	0x3ef88b4d	0.48543778
250	0x3e145132	0.14484099
251	0x3f28bd76	0.65914094
252	0xbe98d5dd	-0.29850665
253	0x3df90c54	0.121605545
254	0xbe81ac43	-0.25326738
255	0x3e5dc3dd	0.21656747

net.2.bias f4 [32]
0	0x3e78c5b0	0.24294162
1	0xbe2d55ef	-0.16927312
2	0x3d62ece9	0.055401716
3	0x3e6c1363	0.2305427
4	0xbe04e8d4	-0.12979442
5	0xbe019b44	-0.12656885
6	0x3da5dd68	0.080988705
7	0x3eaa716f	0.33289668
8	0x3e2e621d	0.17029615
9	0x3d7a2197	0.06106719
10	0x3e208f8d	0.1567976
11	0xbddf84f8	-0.10914034
12	0xbd38b5c1	-0.04509521
13	0xbd97ceeb	-0.07412513
14	0xbd42c97b	-0.047555428
15	0xbe0c29c6	-0.1368781
16	0x3d63b2a9	0.055590305
17	0x3c898f44	0.016791947
18	0x3d81f203	0.06344988
19	0xbe0bc0de	-0.13647792
20	0xbcc8a276	-0.02449153
21	0x3e385144	0.1799975
22	0x3d8113d0	0.06302607
23	0x3dda1889	0.10649211
24	0x3e84b079	0.25915888
25	0xbc889f6a	-0.016677577
26	0x3e5ed20b	0.21759813
27	0xbcbd3aa6	-0.023099255
28	0xbf26facf	-0.65226454
29	0x3ca5bb0b	0.02023079
30	0x3d8bf2eb	0.06833442
31	0x3e0abe4e	0.13549158

net.4.weight f4 [1, 32]
0	0xbf9932eb	-1.1968664
1	0x3f7ffe48	0.9999738
2	0x3f92fd85	1.1483618
3	0xbf966996	-1.1750972
4	0x3f8fcfd5	1.12353
5	0x3fb20448	1.3907557
6	0xbf917c10	-1.1365986
7	0xbfaeb5e8	-1.3649263
8	0x3f4f9003	0.8107912
9	0x3f8e2120	1.1103859
10	0xbf96aebb	-1.1772074
11	0xbf7cc479	-0.98737293
12	0x3fb6ef98	1.4291868
13	0xbf7f241f	-0.9966449
14	0x3f3cb231	0.737094
15	0x3fb8c5c4	1.4435353
16	0x3f80d629	1.0065356
17	0xbf8eec4b	-1.1165861
18	0xbfa7a92a	-1.30985
19	0x3f4c4d48	0.7980542
20	0x3f9d834c	1.2305694
21	0x3ff229a5	1.8918959
22	0xbfa79982	-1.3093722
23	0xbf890634	-1.0705018
24	0x3f4dccfb	0.803909
25	0xbf923430	-1.1422176
26	0x3f6bf1c3	0.92165774
27	0xbfe9bc18	-1.8260527
28	0xbfadd225	-1.3579756
29	0x3f6ea37a	0.93218195
30	0x3f967e9d	1.1757389
31	0x3f58b353	0.8464863
