data_augmented/checkpoints/discriminator_epoch24.pth (torch, 12820 bytes, 5 tensors)

net.0.weight f4 [64, 5]
00000000: a8a4 c0ba 0d22 c639 0e60 8b3e bee5 853e
00000010: cde8 20bf 2e34 deb9 5833 9bb9 0443 0839
00000020: 1c1d 4b3f a120 8fb9 f8a6 a8b9 36df 023b
00000030: 17da 91be feb0 f6be d7fe 733f faad fbbd
00000040: b44c 1a3f 8ca5 6fbd f29c cd3e a088 88be
00000050: 035c 043b 2ea1 4e3b ec5f b0be 158a c93e
00000060: a23c 143f 9ec0 fdbd 281f 08bd 8e7e c33e
00000070: 11e6 6e3d 3696 87bf 7220 a2ba 00bb 6236
00000080: 5333 f8be 60fb e23d 8019 133e 2946 c9be
00000090: 83ae 703c d7da 1c3e f429 5b3f 6945 0a3e
000000a0: 069c 6539 2bc0 31ba 319d babe 0b6b e13e
000000b0: ef92 eb3e 7547 2abf 3f1b b53c b8bb 4b3d
000000c0: 4ac5 e5bb e43c c3be b484 20bd 9d99 dd3e
000000d0: a851 2dbe d585 24bf be7b 88be ee15 5439
000000e0: 8b75 c2ba 2164 51bf ad01 d7be 7d4a a1be
000000f0: d204 43ba 0bd4 94be dcfb 5b3e cbdc 3cbe
00000100: f681 093f 0943 10ba a643 89ba 8056 b53e
00000110: aded 44bf 18f8 673f f0fa 0fba 1164 a0ba
00000120: 177b 76bf 1e88 8bbc 95dd 9bbe a092 203b
00000130: e6a3 65ba 4a7f 8f3f d932 12be a884 b33e
00000140: e734 5dbe 716d 40bd 86e8 1cbe eec0 16bf
00000150: 660d 563f e0b2 f8bb 3f38 e83a 8667 233d
00000160: f578 0bbf c120 bbbe 161b a8be 415e d5ba
00000170: feb9 743d 84d5 ce3e 838d 753f e5e0 593d
00000180: c84e 47bc fe90 c63d c067 8b3f a4cc f13b
00000190: faf3 f5bb 0b76 123c 0c89 52bf ac2d 26bf
000001a0: 80c0 79be 5cfb 2cbe 839b 063f 6724 1cbf
000001b0: 6a37 7d3e 9a2e 493e 1f4a 3fbb fd1e e7be
000001c0: 5e17 fcbc 04d0 e93e 9222 c3be 5b7a 82bc
000001d0: 9ec6 e8bc a48c 2cbc de86 37be 4409 31bf
000001e0: 4c94 c83e 11d1 48be 76ba 463d ce88 b23c
000001f0: e223 b8be 710a 7bba 8237 81ba c60f abbe
00000200: e44a db3d 039b 423f 7ba8 50be 509c a73e
00000210: b92e 833d 33c0 9fbe 3d8f 60bf af87 393d
00000220: 8a5c 2ebf 7ea0 d43b f958 853e f044 b83e
00000230: aae9 b23e 89a7 2e3d d456 77be a62f da3e
00000240: 3120 d53e e26f 3cbe 4d29 fd3e f985 713e
00000250: 08f4 7fbe 0483 673f 8f90 753c e024 c9b7
00000260: a6a5 cf3c ec15 10be 9a7c 563f 5b5e 17bc
00000270: 45d4 2e3f 4fd1 603b b84f b738 2cf6 d1bb
00000280: 1e59 333b dba5 4dbb 9c22 5dbf 7b10 223e
00000290: 0360 ec3b bf61 383e c0a1 32be fd71 21bf
000002a0: fb6b c9be 0d19 f43e f96b 223a 6014 a3b7
000002b0: 57b9 e8bb 21be 433f 1cc2 cb3e c4d3 5cbb
000002c0: fce6 13bd 002c d8bc 02ef 713f 880b bbbd
000002d0: 39ba 303d 9c51 d13d a29c 03bf ba98 533e
000002e0: 74ba 163e 96fc 713a f9dc 53ba 64e0 6ebf
000002f0: 2af0 8fbe 9208 22bf 8262 d2be e9c9 143d
00000300: 85fe d5bc 0489 6e3f f7b2 e83c 90b7 233f
00000310: 5d1b 633d a8a2 2dbe 9e3e 573e d87b f03d
00000320: e3fd c63a f8ed 553c bdeb 4a3f ff6a 2bbf
00000330: 7fc3 093f a6c0 593e 6e7d 523e 602d a33e
00000340: e6d1 643f 8770 9a3e 1b95 7f3d 3deb c93e
00000350: 4036 863e 0119 073f a01d 393c d3ea 05bc
00000360: ef06 0c3b 765e a13d ae8f 4cbf 64ea e53d
00000370: dd5f d23c b9be 43be 6e9d 7cbe 99db b63e
00000380: 1700 43be 8012 b33e 47f9 cb3e a2e9 c8be
00000390: af91 3cbf 247b 74bf 871f b93b 138b 83bb
000003a0: 6781 0f3f 0183 9cbe 8c0f 113b ddea 923b
000003b0: a86a 8c3b df71 aebe 0c9e 09bf 9459 9a3f
000003c0: 0b8b b0ba e67c 1bba 4c2e 9bbd 47ee 3fbf
000003d0: d05c 19bf 5cde afbd 40f1 6f3d 9f16 8abe
000003e0: 81ed c43e 8dfd 84bd b756 3c3a f965 2dba
000003f0: 0c9b c23e cff2 e93e d999 ee3e 3c98 813d
-0.0014697509 0.00037790873 0.2722172 0.26151842 -0.62855226 -0.00042382017 -0.00029602158 0.00012994936
0.7934129 -0.00027299396 -0.00032167858 0.001996947 -0.28486702 -0.4818191 0.9531073 -0.12289043
0.6027329 -0.058507487 0.40158802 -0.26666737 0.0020196445 0.0031529176 -0.34448183 0.3936316
0.5790502 -0.123902544 -0.033232838 0.3818249 0.058324877 -1.0592716 -0.0012369289 3.3785473e-06
-0.48476657 0.11083102 0.14365196 -0.3931134 0.014690044 0.15317856 0.8561089 0.1350304
0.00021897265 -0.00067806494 -0.36448053 0.4402698 0.4601054 -0.66515285 0.022107719 0.04973957
-0.007012044 -0.38132393 -0.039189056 0.4328126 -0.1692568 -0.6426671 -0.26656908 0.00020226065
-0.0014836056 -0.8179341 -0.41993466 -0.31502143 -0.0007439378 -0.29068026 0.21482795 -0.18443601
0.5371393 -0.0005503153 -0.0010472431 0.35417557 -0.76925164 0.90612936 -0.00054924097 -0.0012236853
-0.9628157 -0.01703268 -0.3044249 0.0024501458 -0.00087600795 1.121072 -0.1427721 0.35062146
-0.21602212 -0.04697937 -0.15323076 -0.5888814 0.83614194 -0.007589683 0.0017716958 0.03989365
-0.5448144 -0.36548427 -0.32833165 -0.00162787 0.05974769 0.40397274 0.95919055 0.05319299
-0.012164779 0.09695624 1.0891037 0.0073791314 -0.007505891 0.008939276 -0.82240367 -0.6491344
-0.24389839 -0.16892761 0.5258104 -0.60993046 0.2472817 0.19646683 -0.0029188467 -0.4514083
-0.030772861 0.45666516 -0.38112313 -0.015927484 -0.02841502 -0.010531578 -0.17922541 -0.69154763
0.39175642 -0.19611003 0.048517667 0.02179375 -0.35964876 -0.0009576446 -0.0009858462 -0.33410472
0.10707644 0.7601778 -0.2037677 0.32736444 0.06405396 -0.31201324 -0.87718564 0.045295414
-0.68109953 0.0064888587 0.26044443 0.35990095 0.34943897 0.042640243 -0.24154216 0.42614478
0.41626123 -0.18402055 0.49445572 0.23586263 -0.24995434 0.9043429 0.014988079 -2.3978238e-05
0.025347542 -0.14070863 0.83783877 -0.009238805 0.6829265 0.0034304445 8.740969e-05 -0.00640752
0.002736635 -0.0031379375 -0.86380935 0.158266 0.007213594 0.18006037 -0.17444515 -0.6306456
-0.39340195 0.47675362 0.0006195899 -1.9440602e-05 -0.0071021724 0.7646199 0.3979653 -0.0033695558
-0.036108956 -0.026388168 0.9450532 -0.09133059 0.043146346 0.10220644 -0.5141088 0.2066373
0.14719564 0.00092310586 -0.0008081939 -0.9331114 -0.28112918 -0.6329433 -0.4109078 0.03632537
-0.026122341 0.9317782 0.02840565 0.6395197 0.055446018 -0.1695658 0.2101998 0.11742371
0.0015181865 0.013057224 0.7926596 -0.6696014 0.5381393 0.21264896 0.2055566 0.31870556
0.8938278 0.30163977 0.062398057 0.39437285 0.26213264 0.5277253 0.011298567 -0.008173662
0.0021366437 0.07879345 -0.7990674 0.11226347 0.025680477 -0.19115724 -0.2466943 0.35714415
-0.19043003 0.34975052 0.3983862 -0.39240748 -0.73659796 -0.955004 0.0056495103 -0.0040143817
0.5605683 -0.30568698 0.002213451 0.0044835643 0.0042851754 -0.34071252 -0.53756785 1.2058587
-0.0013469172 -0.0005931392 -0.0757719 -0.7497296 -0.59907246 -0.085873336 0.058579683 -0.26970384
0.3846245 -0.064936735 0.00071845524 -0.00066146214 0.38008916 0.4569306 0.4660175 0.063278645

net.0.bias f4 [64]
00000000: 8cce 37bf 7778 eb3e 88ce 0f3f 8c69 5abe
00000010: 62c8 0a3e 3c1d db3d ec41 4bbf 04b9 dbbd
00000020: 9410 fbbe 0a07 3b3e 440f 333f c849 b9bd
00000030: 770f 3c3f d164 603e 6da6 29bd f5bf 5dbe
00000040: c417 293e df80 453f 8052 c5be a8c5 cebc
00000050: 2cda 023f 0410 873e e0c1 193e 6c0e 313f
00000060: 179c ec3e 957a c43d e5c9 b03e 71a4 08be
00000070: 0c59 efbe 2b9d a53e a172 c0be 88fc fc3d
00000080: 5ffc e7be c06b b8ba bbb6 4f3e b5ef a5bc
00000090: b17a e2be c0f4 88be 3dd8 56be c78e 26be
000000a0: 820e 203f 16f0 7c3e 8f26 04be cd53 7cbe
000000b0: 6991 04bf 83ff 27bd 6196 193f 7cb0 393f
000000c0: 37cc 6c3f 48af 60bf 2b33 82bf e7d9 03be
000000d0: ca58 44bf 4f17 293e c6a1 5fbe 9a75 d83e
000000e0: 3216 81be aacf 0b3f f2ef 053c b295 463d
000000f0: 096d 163f 1ccb 283f 5be9 243f e219 c93e
-0.7179954 0.45990345 0.56174517 -0.21329325 0.13553002 0.106989354 -0.79397464 -0.10728648
-0.49036086 0.18264404 0.6994517 -0.09047276 0.734611 0.21913458 -0.04141848 -0.21655257
0.16512972 0.77149767 -0.38539505 -0.025240734 0.51114154 0.26379406 0.15015364 0.6916263
0.46212837 0.09593693 0.34529033 -0.1334398 -0.46747625 0.32346472 -0.37587455 0.12352854
-0.4530973 -0.0014070198 0.2028455 -0.020255903 -0.4423423 -0.2674923 -0.20980926 -0.16265403
0.6252214 0.2470096 -0.12905334 -0.24641342 -0.5178438 -0.04101516 0.59995085 0.7253492
0.9249911 -0.8776746 -1.0171865 -0.12876092 -0.7669798 0.16512798 -0.21839055 0.42277223
-0.25212246 0.54613745 0.008174883 0.048482604 0.58760124 0.6593492 0.6441857 0.3927756

net.2.weight f4 [32, 64]
00000000: 2685 533f ce09 9ebe 6e3d febe 2886 94bc
00000010: 3719 a0bf 26af 133e cfc7 59be 534d 4dbe
00000020: b99b c1be 0e36 f23c 7309 c33d e450 bbbe
00000030: f0c4 b43c 5917 243e 4aca 0bbd eda1 94be
00000040: cc1e dabd cb23 9e3e aac6 80be 4e2c debe
00000050: e4b6 72be 5f06 27be 8c04 f93d 814d 9b3e
00000060: 1c6b af3d a57a b33d 0bf2 ce3d 5b52 8f3d
00000070: 48e0 a8be 2fbc dbbd 9a1e d2be 6e04 17bd
00000080: d96b 6dbf 36e0 b3be 374b 303d 7ca9 7bbf
00000090: 4bbd 58be a7d7 253d 1a9a 38be 830d 0a3a
000000a0: f3ce a23d f10e a0bd 2dd6 a4bd fd0f 3b3f
000000b0: fbd2 6dbe 9983 0cbc 650a 93bd ec1c e9be
000000c0: de51 263e 4854 0bbe 05e9 c33c 9c62 87be
000000d0: 54a1 223c f8af c4bb d92c 33bf 1f4b 2fbd
000000e0: 8b3a df3e 04e1 bd3e fa1c ddbd 5e65 f53e
000000f0: 3992 963d da6a 843e bb0a 393e ec1c b63d
00000100: 80fa 77be adca 13bf 0e55 653e 4b5f e8bd
00000110: ebd0 383e 6f5c 86bd f6f1 bcbe be84 42bd
00000120: 323c 3abe c4a6 9a3d 8ee3 11be 702a a43e
00000130: 4135 0d3e e680 133e 73e1 c23d a1f5 313f
00000140: a1d2 173e fd0c a5be 4540 6b3c f882 7c3e
00000150: 1d67 1fbe ba38 7f3d 4502 91be 1cca b4be
00000160: c21a b63c ff3f 89be 8126 17be 4925 bf3d
00000170: 1ccb 913d 64c7 7c3e 0b54 073e 17db 3cbc
00000180: 2e23 2d3f 2fd4 e53b 4d18 c7be a6b2 0c3e
00000190: 01f9 2f3e e33a ba3d e882 58be 64c9 793d
000001a0: 7d90 5f3e 8ce4 4d3e 756f d03d 52e1 223d
000001b0: a8d8 65be d104 ffbd 1673 bd3d fbbf 3b3e
000001c0: 207e 07bf 14d0 97be 4ebf f0bd 494c 833e
000001d0: ffb9 4c3e a75a 28bd 1fcd c83e 98de 9b3e
000001e0: 7f66 acbe 400f 84bd ceb9 3e3e 855c 0ebf
000001f0: 01f9 6fbd 7445 64be 7bfb dcbe ad09 9b3d
00000200: 0ef6 c4be bcac 0d3e 39f1 6cbd d0c3 4a3c
00000210: b640 b83e 7f68 263e abb4 8ebe aec2 8c3e
00000220: 5c17 cb3d 18d4 c23d d682 4dbe 82b4 e13d
00000230: 2dcb 35bc 4414 00bf 0ff8 9fbe da7c a73e
00000240: ee95 06be e550 9bbe 0129 7e3c e25c 223f
00000250: 9ae7 583d 1cc8 b63d 168c 823d 3010 563e
00000260: f7f0 8f3d 0bda 9dbe c6ee b4bb 2f18 603d
00000270: 7d2c cc3d 310f 37bd a50d 873d c0db b73d
00000280: 88f9 913e c497 243d d07d 713e a777 643f
00000290: 0777 a0ba 4ba9 45be 6447 e33e b152 bc3c
000002a0: 0417 3fbe 7422 a83e 7ee4 143e 8f0d fabe
000002b0: 0d33 423e dbde bfbd 0287 1f3e 3965 453e
000002c0: c388 c2be d87a 4bbe 8b12 dfbc 3897 963c
000002d0: 837e e8bd 9ff5 853e a112 b93e 7d7b a9bd
000002e0: 7e46 f4bd c721 d4bd 23d4 29be 2085 3abe
000002f0: b906 d4bb eb08 f1bd 8751 ad3e 11b6 9dbe
00000300: 91b1 973e dc67 163f f241 11bd 8057 59bd
00000310: d896 23be 4627 b03d 017f 8b3e 6fc0 d1bc
00000320: a5e2 213e da5c 4cbd fd12 403e 87cf 37bc
00000330: daf0 9abd a8ea 803e 1bcb 933e b94d d3be
00000340: 60f0 023e 8294 8f3e aeb1 5dbd 2afe bfbe
00000350: 2f74 313c b8a3 f53d 38ca bc3d 185a c5bd
00000360: 2886 92bd 7d77 e73e 639d 7d3d 7ca7 1d3e
00000370: ad95 463e a6be 593c 1592 92bd 8406 2ebe
00000380: 1d64 8bbe 8e8a a43d 9e29 3f3e 00ab 21bf
00000390: 347d 973d ebe9 ac3e d593 423e e929 1f3b
000003a0: 4227 283e d0a5 023d 4e39 88bb 677a d53e
000003b0: 4cab 373e e2dd 603d 2ccb 3dbe 6bdb 31be
000003c0: c087 c13e ce89 1b3e a78c 823e e539 c43d
000003d0: e2ae 343d 0ef8 fdbd 89cd 16be a40b 7bbd
000003e0: 5911 843e f1d5 ba3e 3392 103e d805 033f
000003f0: 6026 36be 9f7a 073e c85c 08be ff90 063e
0.82625043 -0.30866855 -0.49656242 -0.018130377 -1.2507695 0.14422283 -0.21267627 -0.20049028
-0.3781412 0.02956679 0.09523287 -0.36585152 0.022066563 0.16024531 -0.034128465 -0.2902979
-0.10650405 0.30886683 -0.2515157 -0.43393177 -0.2370258 -0.16311024 0.121590704 0.30332568
0.08565351 0.08763627 0.1010476 0.0699813 -0.32983613 -0.107292525 -0.41038972 -0.03686946
-0.9274269 -0.35131997 0.04304048 -0.9830549 -0.2116596 0.040488865 -0.18027535 0.00052662956
0.07949629 -0.0781535 -0.08048663 0.7307127 -0.23225014 -0.008576297 -0.07179717 -0.45529878
0.16242167 -0.1360637 0.023914823 -0.2644242 0.009926159 -0.0060024224 -0.6999031 -0.04279625
0.43599352 0.37085736 -0.107965425 0.479289 0.073521085 0.2586277 0.180705 0.08892235
-0.24216652 -0.57731134 0.22395727 -0.11346301 0.18048446 -0.06560599 -0.36903352 -0.047489874
-0.18187025 0.07551339 -0.14246961 0.32063627 0.13789846 0.1440464 0.09515657 0.69515425
0.14826442 -0.32236472 0.014358585 0.24659336 -0.15566678 0.062309958 -0.28322044 -0.35310447
0.022229556 -0.26806638 -0.14760782 0.093332835 0.07118818 0.24685436 0.13215654 -0.011526844
0.67631805 0.0070138196 -0.38885728 0.13740024 0.17184831 0.09093263 -0.21143687 0.060983077
0.21832462 0.20106715 0.10177509 0.039765663 -0.22445929 -0.124520905 0.092504665 0.18334953
-0.52926826 -0.2965094 -0.117552385 0.25644138 0.19992827 -0.041102078 0.39218995 0.30443263
-0.33671948 -0.06448221 0.18625566 -0.55609924 -0.058587078 -0.2229212 -0.43160614 0.07570205
-0.38468975 0.13835424 -0.057847235 0.012375787 0.3598687 0.162508 -0.27872214 0.2749228
0.09916565 0.0951311 -0.20069441 0.11020757 -0.011095804 -0.5003092 -0.3124394 0.32712442
-0.13143131 -0.30335155 0.015512706 0.6342298 0.052955247 0.089248866 0.063743755 0.20904613
0.07028382 -0.30830416 -0.005521628 0.054710563 0.09969423 -0.044692222 0.06594399 0.08977461
0.2851069 0.040183797 0.2358315 0.89245075 -0.0012242504 -0.19302861 0.44390404 0.02298865
-0.18661124 0.32838786 0.14540288 -0.4883847 0.18964787 -0.09368678 0.15578845 0.19276895
-0.37994966 -0.1987108 -0.027230522 0.018382654 -0.11352255 0.26163957 0.36147025 -0.08275507
-0.11927508 -0.10358005 -0.1658483 -0.18214846 -0.006470528 -0.11769279 0.33851263 -0.30802968
0.2962766 0.58752227 -0.03546328 -0.053061962 -0.15975511 0.08601241 0.27245334 -0.025604455
0.15809114 -0.049893238 0.18757243 -0.011218912 -0.0756547 0.2517903 0.28865895 -0.41270235
0.12787008 0.2804299 -0.054124527 -0.374986 0.010830923 0.119941175 0.09218258 -0.09636325
-0.071544945 0.4520835 0.061917674 0.15395921 0.19393034 0.013290083 -0.07156769 -0.16994673
-0.27224818 0.0803424 0.1866822 -0.6315155 0.073969275 0.33772215 0.19001706 0.0024286455
0.16421226 0.031896412 -0.004157222 0.41694948 0.17936438 0.054899104 -0.18534535 -0.17368858
0.37798882 0.15189287 0.25497934 0.09581355 0.044112094 -0.12400828 -0.14726843 -0.0612904
0.25794485 0.3649135 0.1411827 0.5118079 -0.17788076 0.1323037 -0.13316643 0.13141249

net.2.bias f4 [32]
00000000: 3c01 f13d 2338 04be b89c af3d 0b28 4d3e
00000010: 5818 cbbd e622 c5bd a3d6 003d ebf1 4b3e
00000020: cb36 033e 9cef d23d c3f0 e83d fe90 a9bd
00000030: 243c 02bb e2ff 20bd f2b9 d9bc 2ec5 99bd
00000040: b63a 983d b09d 5abc 96c4 073d 329d d5bd
00000050: 1480 b6ba 0155 803d 3067 29bd a449 9c3d
00000060: 5052 8c3e 563e 57bd 4eec 283e 95cb 8abd
00000070: 13ec 1dbf d6f9 113d d575 ad3d abea 8a3d
0.117678136 -0.1291204 0.085748136 0.20034806 -0.099167526 -0.09625797 0.031454694 0.19916503
0.1281387 0.10299608 0.11374047 -0.08279608 -0.0019872272 -0.03930653 -0.026577923 -0.07508312
0.07433073 -0.01334326 0.033146463 -0.10430373 -0.0013923668 0.06266213 -0.041358173 0.07631233
0.2740655 -0.052549683 0.16496393 -0.067771114 -0.61688346 0.035638653 0.0846974 0.067830406

net.4.weight f4 [1, 32]
00000000: a4b9 53bf cff5 4b3f 4274 533f da16 61bf
00000010: 783e 493f 6bc7 7b3f 01c1 4fbf 5fb0 81bf
00000020: 59b7 1e3f f9bc 423f 26da 50bf 3573 47bf
00000030: 0728 0f3f 15cb 3bbf da60 223f acab 973f
00000040: 48af 343f 96bc 45bf afe9 6bbf 5fd4 353f
00000050: 864c 2f3f 9b3e 5e3f 7e89 76bf a42e 4cbf
00000060: 8aef 123f 1b6e 4cbf 1dbd 4c3f 3d63 22bf
00000070: 6353 96bf acc9 233f b97d 613f 860a 203f
-0.8270514 0.7967195 0.8259927 -0.87925494 0.78610945 0.9835116 -0.81153876 -1.0131949
0.61998516 0.760696 -0.8158287 -0.77910167 0.5592045 -0.73356754 0.63429034 1.1849265
0.7057996 -0.77240884 -0.9215345 0.7102718 0.6847614 0.8681428 -0.96303546 -0.7975867
0.5739676 -0.7985551 0.79976064 -0.63432676 -1.1744198 0.639796 0.8808246 0.6251606
