data_augmented/checkpoints/discriminator_epoch28.pth (torch, 12820 bytes, 5 tensors)

net.0.weight f4 [64, 5]
0	0x392cf67e	0.00016495024
1	0x3a0be828	0.0005337023
2	0x3e8fbece	0.2807526
3	0x3e63b948	0.22238648
4	0xbf2551ae	-0.6457776
5	0xb8e55d21	-0.000109369175
6	0xb8681f5d	-5.534232e-05
7	0x38aef7a9	8.343097e-05
8	0x3f4c6466	0.79840696
9	0xb99e9644	-0.00030248065
10	0x3bcd4695	0.0062645175
11	0xba96435a	-0.0011464164
12	0xbe87ecf2	-0.26547962
13	0xbeec127d	-0.46107855
14	0x3f7ed402	0.9954225
15	0xbbda1e63	-0.0066564544
16	0x3f23f255	0.64041644
17	0xbd50b076	-0.050949536
18	0x3ebff43f	0.37491032
19	0xbe85a386	-0.2610132
20	0xb85e8074	-5.3048556e-05
21	0x3af1f21d	0.0018458996
22	0xbeafbad0	-0.34322214
23	0x3eceeabd	0.40413466
24	0x3f143079	0.57886463
25	0xbdde3a87	-0.10851007
26	0xbcd49387	-0.025949253
27	0x3ed02db3	0.40659866
28	0x3dda2c17	0.10652941
29	0xbf955fd7	-1.1669873
30	0xba3cd385	-0.000720315
31	0x39ae7ba3	0.00033279983
32	0xbef988ba	-0.48737127
33	0x3de096f0	0.10966289
34	0x3e1cf681	0.15328409
35	0xbeb68a82	-0.35652548
36	0xbd2222fd	-0.03958415
37	0x3e5a2331	0.21302487
38	0x3f5f1b84	0.8715136
39	0x3e32eff2	0.17474344
40	0xb944e372	-0.00018776747
41	0x394f0817	0.00019744072
42	0xbebbbb60	-0.36666393
43	0x3edc4a8c	0.43025625
44	0x3eebefff	0.4608154
45	0xbf23df46	-0.64012563
46	0x3c953c91	0.018217357
47	0x3d0e17d7	0.034690704
48	0xbbfe0601	-0.0077521806
49	0xbee74283	-0.45167932
50	0xbd16a6ef	-0.036780294
51	0x3eeb70fa	0.45984632
52	0xbe20316c	-0.15643853
53	0xbf2618dc	-0.6488168
54	0xbe89c820	-0.26910496
55	0x3ac470ca	0.0014987227
56	0xbbd9d29e	-0.006647422
57	0xbf4e1b44	-0.80510354
58	0xbee3533c	-0.4439944
59	0xbea81a7d	-0.3283271
60	0xba15a3db	-0.00057083153
61	0xbe94a208	-0.2902987
62	0x3e5f13f5	0.21784957
63	0xbe413f42	-0.18871787
64	0x3f0ebb32	0.5575439
65	0x38bc0d2e	8.9669935e-05
66	0x39505d02	0.00019871074
67	0x3eb93491	0.36172917
68	0xbf438339	-0.76372105
69	0x3f6cade4	0.92452836
70	0xba3c95bb	-0.00071939424
71	0xb94e326c	-0.00019664475
72	0xbf7a1eca	-0.9770323
73	0xbb61b5ed	-0.0034440712
74	0xbe9d86a2	-0.3076678
75	0xbaf5fc49	-0.0018767203
76	0x3b277948	0.0025554467
77	0x3f93fd6b	1.1561712
78	0xbe2b28d4	-0.16714793
79	0x3ec37eb3	0.381826
80	0xbe69001b	-0.22753946
81	0xbd390651	-0.04517204
82	0xbe143370	-0.14472747
83	0xbf2476fd	-0.6424406
84	0x3f743274	0.95389485
85	0xbc2a54c0	-0.010396183
86	0x3baed608	0.005335573
87	0x3c90dbb5	0.01768289
88	0xbf0c557e	-0.5481795
89	0xbeb916da	-0.36150247
90	0xbea6a375	-0.32546583
91	0x3cc59827	0.024120403
92	0x3d8e8bb4	0.0696024
93	0x3ed50033	0.41601714
94	0x3f7907f5	0.97277766
95	0x3d621521	0.05519593
96	0xbca12462	-0.019670669
97	0x3dec4478	0.11536497
98	0x3f8d6377	1.1045979
99	0xbb4a5393	-0.0030872568
100	0xbc1ec322	-0.009690078
101	0x3b50e8b1	0.0031876976
102	0xbf60e2a1	-0.8784581
103	0xbf256c18	-0.6461806
104	0xbe7b1f52	-0.24523667
105	0xbe1f90ca	-0.15582576
106	0x3f0afec8	0.54295015
107	0xbf29645b	-0.66168755
108	0x3e6e7293	0.23285894
109	0x3e473e83	0.1945744
110	0x39409346	0.0001836541
111	0xbeeb0fde	-0.45910543
112	0xbceaae92	-0.028647695
113	0x3eefc37c	0.4682883
114	0xbec939a5	-0.39301792
115	0xbbf52112	-0.007480749
116	0xbd01a837	-0.031654563
117	0x3b13b9d6	0.0022541187
118	0xbe3f513b	-0.1868333
119	0xbf356b00	-0.70866394
120	0x3ec2c759	0.38042715
121	0xbe0fb095	-0.14032204
122	0x3da55e19	0.08074588
123	0xbb2d88b8	-0.0026479196
124	0xbee12235	-0.4397141
125	0xb9b9c9f0	-0.00035436405
126	0xb9a85232	-0.00032104697
127	0xbeafd2bd	-0.34340468
128	0x3db0635a	0.086127
129	0x3f486c28	0.78290033
130	0xbe0b24bd	-0.13588233
131	0x3e9cfffd	0.30664054
132	0x3da34518	0.07972163
133	0xbea44ce9	-0.32089928
134	0xbf88eb74	-1.0696855
135	0xb9d237af	-0.0004009581
136	0xbf337a3e	-0.701084
137	0x3cff452c	0.031160913
138	0x3e9b9120	0.3038416
139	0x3ebdd0fd	0.37073508
140	0x3e9f396b	0.31098494
141	0x3cda635c	0.026658706
142	0xbe88695f	-0.26642892
143	0x3ed8ca4e	0.42341846
144	0x3ef6e184	0.4821893
145	0xbe1a6988	-0.1507932
146	0x3ef68e07	0.48155233
147	0x3e77fe36	0.24218068
148	0xbe9b1e18	-0.30296397
149	0x3f7a25dd	0.97714025
150	0x3ba1d96b	0.0049392483
151	0xbbbe5808	-0.005808834
152	0x3cdd0cb9	0.026983606
153	0xbe0c4f89	-0.13702215
154	0x3f5a11c1	0.8518334
155	0xbad578a6	-0.0016286566
156	0x3f3395ab	0.7015025
157	0x3b22319f	0.0024748815
158	0x3c7686ab	0.015046756
159	0xba9a84c2	-0.0011788832
160	0x3b0af42a	0.0021202662
161	0x3a90abb8	0.0011037504
162	0xbf603c18	-0.87591696
163	0x3e33eed4	0.17571574
164	0x3c9be138	0.019028291
165	0x3e14fc35	0.14549334
166	0xbdfd4cfa	-0.12368198
167	0xbf2dd1a2	-0.67898
168	0xbeccf64c	-0.4003166
169	0x3f04dd1a	0.51899874
170	0x37d8f8ea	2.5865116e-05
171	0x3aadbc8b	0.0013255043
172	0xbc025c26	-0.00795654
173	0x3f43c073	0.7646553
174	0x3ed92ee6	0.42418593
175	0xba637cac	-0.00086779404
176	0xbd3217ff	-0.043479916
177	0xbc1bf381	-0.009518505
178	0x3f75ba9a	0.95987856
179	0xbdd2a786	-0.10285859
180	0xbb7d3737	-0.0038637647
181	0x3dce258b	0.100657545
182	0xbf0914c2	-0.535473
183	0x3e52b014	0.20574981
184	0x3e15db1f	0.1463437
185	0xba33cc65	-0.0006858765
186	0xba714552	-0.000920375
187	0xbf7305a1	-0.94930464
188	0xbe63d447	-0.22248946
189	0xbf22e2db	-0.63627404
190	0xbed63507	-0.41837332
191	0x3bbf9dc4	0.0058476645
192	0xbcf0d115	-0.029396573
193	0x3f6bbcd0	0.9208498
194	0x3cdf1e54	0.027236141
195	0x3f231b46	0.6371349
196	0x3d486357	0.048922863
197	0xbe182739	-0.14858712
198	0x3e3d262a	0.1847159
199	0x3e447b66	0.19187698
200	0x3a86dfe6	0.0010290116
201	0x3b458f2c	0.0030145152
202	0x3f535483	0.8255083
203	0xbf37a2ff	-0.7173309
204	0x3ef6f612	0.48234612
205	0x3e2747fa	0.1633605
206	0x3e1ac6c4	0.15114886
207	0x3ec4306f	0.38318202
208	0x3f625331	0.8840819
209	0x3ea477c8	0.32122636
210	0xbb6f6be0	-0.0036532804
211	0x3edcca92	0.431233
212	0x3e773ab7	0.24143492
213	0x3efc2f3a	0.4925478
214	0x3dc66f2b	0.09689172
215	0xbb491214	-0.0030680941
216	0x3ba46f46	0.0050181476
217	0x3dbde81b	0.09272786
218	0xbf4e90c1	-0.80689627
219	0x3e00458a	0.12526527
220	0xb9611cc2	-0.00021468385
221	0xbe385506	-0.18001184
222	0xbe802c79	-0.2503393
223	0x3ec01fb8	0.375242
224	0xbe3e8ad7	-0.1860765
225	0x3eb1b768	0.3471024
226	0x3ecdc497	0.4018905
227	0xbeb4ceaf	-0.35313937
228	0xbf47ee29	-0.7809778
229	0xbf83e685	-1.0304724
230	0x3bf5b6f4	0.0074986164
231	0xbc603cd1	-0.013686375
232	0x3f137e67	0.5761475
233	0xbea06c88	-0.31332803
234	0x3c38b4a7	0.01127354
235	0x3c2692c6	0.010166829
236	0xba789f4b	-0.0009484186
237	0xbea49737	-0.32146618
238	0xbf04e5f7	-0.519134
239	0x3f9ffe91	1.2499563
240	0xb9820156	-0.00024796528
241	0xb8941328	-7.060758e-05
242	0xbd9e42c0	-0.07727575
243	0xbf42f58f	-0.7615594
244	0xbf1ca096	-0.61182535
245	0xbdad0679	-0.084485
246	0x3d8a0160	0.067385435
247	0xbe93b593	-0.28849468
248	0x3ebf14ff	0.37320706
249	0xbd6b106e	-0.057388715
250	0xb7781300	-1.4786376e-05
251	0xb92699d3	-0.00015888298
252	0x3eddac3b	0.43295464
253	0x3ee9ab07	0.45638296
254	0x3ee7410c	0.45166814
255	0x3d193e89	0.037413154

net.0.bias f4 [64]
0	0xbf442f71	-0.7663489
1	0x3eec868c	0.461964
2	0x3f1241ab	0.5713145
3	0xbe5ecce5	-0.21757849
4	0x3e16c19e	0.14722297
5	0x3d638b87	0.055552986
6	0xbf4db373	-0.8035194
7	0xbde1c27a	-0.110234216
8	0xbefe6516	-0.49686497
9	0x3e467c2d	0.19383307
10	0x3f35751b	0.70881814
11	0xbd71d9de	-0.059045665
12	0x3f40a8ae	0.75257385
13	0x3e71441f	0.23561142
14	0xbd124fe1	-0.03572071
15	0xbe666722	-0.2250028
16	0x3e5ccb4b	0.21561925
17	0x3f4880d3	0.7832157
18	0xbec8a96f	-0.39191768
19	0xbd1afa03	-0.037836086
20	0x3f10b1c8	0.5652127
21	0x3e88f2a5	0.26747623
22	0x3e1d72f2	0.1537588
23	0x3f342c37	0.70379966
24	0x3f006de3	0.50167674
25	0x3daea1a0	0.08526921
26	0x3eb22b28	0.3479855
27	0xbdf58c66	-0.119896695
28	0xbee4f3a5	-0.44717136
29	0x3ec0b55b	0.37638363
30	0xbebf7844	-0.37396443
31	0x3e096d69	0.13420643
32	0xbeec2b9d	-0.46127024
33	0xbcaa1c7e	-0.02076554
34	0x3e41fc3b	0.18943875
35	0xbd01409b	-0.031555753
36	0xbee9a51b	-0.45633778
37	0xbe7306dd	-0.23733087
38	0xbe60d1e3	-0.21955065
39	0xbe0cad95	-0.13738091
40	0x3f23f372	0.64043343
41	0x3e8b75a3	0.27238187
42	0xbe033480	-0.12812996
43	0xbe63a6d9	-0.22231616
44	0xbf0c1637	-0.547214
45	0x3cebaf92	0.028770242
46	0x3f1b7f16	0.6074079
47	0x3f3c782f	0.73620886
48	0x3f7240cd	0.9463013
49	0xbf5f3485	-0.87189513
50	0xbf834c15	-1.0257593
51	0xbdaa8ac9	-0.083272524
52	0xbf44cae3	-0.7687208
53	0x3e420074	0.18945485
54	0xbe652b20	-0.22379732
55	0x3eecd189	0.46253613
56	0xbe94f9a7	-0.2909672
57	0x3f10c0ef	0.56544393
58	0x3d6e55a0	0.058187127
59	0x3d157c5b	0.036495548
60	0x3f1dcbf0	0.6163931
61	0x3f2c5479	0.67316395
62	0x3f22ec80	0.6364212
63	0x3ed29339	0.41127947

net.2.weight f4 [32, 64]
0	0x3f791748	0.9730115
1	0xbd91fd52	-0.07128395
2	0xbf1435ec	-0.5789478
3	0xbb0c7a7a	-0.0021435306
4	0xbfab7dbd	-1.3397747
5	0x3e037681	0.12838174
6	0xbe7485b1	-0.23879124
7	0xbe43c0c4	-0.19116503
8	0xbece291a	-0.40265733
9	0x3d8be722	0.068311945
10	0x3dec73ec	0.11545548
11	0xbeb8818e	-0.36036342
12	0x3d1a8fa5	0.037734646
13	0x3e0dea40	0.1385889
14	0xbb64e9c4	-0.0034929374
15	0xbe868923	-0.26276502
16	0xbe0a316a	-0.13495412
17	0x3eaa3abf	0.33247945
18	0xbe8381f5	-0.25685087
19	0xbee3201d	-0.44360438
20	0xbe85f5f5	-0.26164213
21	0xbe2e0107	-0.1699258
22	0x3e1ef532	0.15523222
23	0x3ea871cb	0.32899317
24	0x3dd4e4c3	0.10395195
25	0x3d2da325	0.042391915
26	0x3df511fe	0.11966322
27	0x3dc5b793	0.09654155
28	0xbeb8c04f	-0.3608422
29	0xbdcc4f4e	-0.09976064
30	0xbef54d00	-0.4791031
31	0xbd5f6f0b	-0.05454926
32	0xbf7bc93e	-0.98353946
33	0xbed3583d	-0.41278258
34	0x3d517b8f	0.051143225
35	0xbf7ddf8a	-0.9916922
36	0xbe86b3fa	-0.26309186
37	0x3d840b3a	0.06447454
38	0xbe35792d	-0.17722006
39	0xbb0c8fac	-0.002144794
40	0x3dabcd0b	0.08388718
41	0xbd4af432	-0.04954929
42	0xbd85af34	-0.06527558
43	0x3f366d81	0.7126084
44	0xbe77a821	-0.2418523
45	0xbc0d3957	-0.008619628
46	0xbd7319ca	-0.059350766
47	0xbf0a8082	-0.5410234
48	0x3e3d2dc8	0.18474495
49	0xbe2676bb	-0.1625623
50	0x3b7dbdb7	0.0038717815
51	0xbe95d5a8	-0.2926457
52	0xbcc86725	-0.024463246
53	0xbc74e1ba	-0.0149463955
54	0xbf42a9ba	-0.7604023
55	0xbd62c9cf	-0.05536824
56	0x3f036338	0.5132327
57	0x3ecd7a42	0.40132338
58	0xbdffa007	-0.12481695
59	0x3f03646a	0.51325095
60	0x3d8f4289	0.069951124
61	0x3e8b7394	0.27236617
62	0x3e42caf9	0.1902274
63	0x3de1fe77	0.110348634
64	0xbe7c807e	-0.24658391
65	0xbf34154d	-0.70345
66	0x3e60d0b4	0.21954614
67	0xbdccb520	-0.09995484
68	0x3e1d9d72	0.15392092
69	0xbda114e4	-0.07865313
70	0xbec8105f	-0.3907499
71	0xbcc25f7c	-0.023727171
72	0xbe3269e1	-0.17423202
73	0x3dddb53b	0.108255826
74	0xbe313752	-0.1730626
75	0x3e9b3293	0.30312023
76	0x3e10deae	0.14147446
77	0x3e1acae8	0.15116465
78	0x3e0a79f6	0.13523087
79	0x3f438561	0.76375395
80	0x3e13d18d	0.14435406
81	0xbeae3d6e	-0.34031242
82	0x3c87f967	0.016598416
83	0x3e89f58d	0.26945153
84	0xbdebff40	-0.115232944
85	0x3da7680f	0.081741445
86	0xbe9147a5	-0.28374973
87	0xbeca17ba	-0.39471227
88	0xbaf11292	-0.0018392375
89	0xbe9f91c5	-0.311659
90	0xbe297a5a	-0.1655058
91	0x3e042e01	0.12908174
92	0x3db8d2e8	0.09024602
93	0x3e81c9dd	0.25349322
94	0x3e20ed8a	0.15715614
95	0x3b0d2ec7	0.0021542774
96	0x3f411008	0.75415087
97	0xbcee9542	-0.029123906
98	0xbeceea4b	-0.40413126
99	0x3e15055b	0.14552824
100	0x3e4dbf4e	0.20092508
101	0x3e173583	0.14766507
102	0xbe4fb49a	-0.20283738
103	0x3da34971	0.07972992
104	0x3e7411f5	0.23834975
105	0x3e65f396	0.22456202
106	0x3deb11ec	0.11478028
107	0x3d48c46f	0.04901546
108	0xbe6d7f48	-0.23193085
109	0xbdf5b53d	-0.11997459
110	0x3dfa2f85	0.12216095
111	0x3e37e42e	0.17958137
112	0xbf117309	-0.56816155
113	0xbe97647c	-0.2956885
114	0xbd972b76	-0.073813364
115	0x3e877fb0	0.26464605
116	0x3e5191d7	0.2046579
117	0xbd32de33	-0.043668937
118	0x3ed628f0	0.41828108
119	0x3e9cdd47	0.3063757
120	0xbed12e37	-0.40855572
121	0xbdb05a4e	-0.08610974
122	0x3e4949a8	0.19657004
123	0xbf14211e	-0.5786303
124	0xbd5ed19f	-0.05439913
125	0xbe8427d9	-0.2581165
126	0xbedce178	-0.4314077
127	0x3dc1ee48	0.09469277
128	0xbee685d8	-0.4502399
129	0x3d9ca659	0.07648916
130	0xbd3b2123	-0.0456859
131	0xbad28410	-0.0016061086
132	0x3eb01ef1	0.34398606
133	0x3e42d07c	0.19024843
134	0xbe97fcff	-0.29685208
135	0x3e8f7376	0.28017777
136	0x3dcb06e2	0.09913422
137	0x3dc5b36d	0.096533634
138	0xbe5825c0	-0.2110815
139	0x3ddfc947	0.109270625
140	0xbc5ff2a8	-0.013668694
141	0xbf025bfb	-0.509216
142	0xbea60d98	-0.32432246
143	0x3eb7a5e5	0.35868755
144	0xbe0f06ba	-0.1396741
145	0xbe9a613e	-0.30152315
146	0x3c37acd8	0.011210643
147	0x3f266331	0.64995104
148	0x3d8b6e4f	0.06808149
149	0x3db2c92d	0.087297775
150	0x3d4cbcb6	0.049984656
151	0x3e5806ed	0.21096392
152	0x3d9542bf	0.072881214
153	0xbea9ec45	-0.33188072
154	0x3acf790c	0.0015828921
155	0x3d4791d9	0.048723076
156	0x3dcfb9d1	0.101428635
157	0xbd5a4145	-0.053284902
158	0x3dae40ea	0.08508475
159	0x3ddcc7d4	0.10780302
160	0x3e99d519	0.30045393
161	0x3d0d5647	0.03450611
162	0x3e5eb0bd	0.21747108
163	0x3f6794dc	0.90461516
164	0xbcf1029b	-0.029420188
165	0xbe48ca21	-0.19608356
166	0x3ee180e0	0.44043636
167	0x3cb67bc4	0.022275813
168	0xbe42337a	-0.18964949
169	0x3ea94bad	0.3306555
170	0x3e081b53	0.13291673
171	0xbefae2ea	-0.49001247
172	0x3e308345	0.17237575
173	0xbdb3f7f6	-0.08787529
174	0x3e306793	0.1722701
175	0x3e530588	0.20607579
176	0xbec49b4c	-0.38399732
177	0xbe4c46c7	-0.19948874
178	0xbc993c67	-0.01870556
179	0x3c6b4925	0.014360701
180	0xbdde9c97	-0.10869711
181	0x3e939866	0.28827208
182	0x3eba6122	0.3640223
183	0xbdc039b1	-0.09386004
184	0xbe24dcc6	-0.16099843
185	0xbdfccf61	-0.12344242
186	0xbe3217dd	-0.17391916
187	0xbe5be512	-0.21474102
188	0x3c2c96a3	0.0105339615
189	0xbdf36fcb	-0.11886557
190	0x3ebb38da	0.36566812
191	0xbea0959f	-0.31364152
192	0x3eb9325a	0.36171228
193	0x3f2643d0	0.64947224
194	0xbd42cbf8	-0.0475578
195	0xbd20326d	-0.03911059
196	0xbe135036	-0.14386067
197	0x3d6ecc5d	0.058300365
198	0x3e94b803	0.2904664
199	0xbcfc0a26	-0.030766558
200	0x3e21e9cb	0.15811841
201	0xbd524216	-0.051332556
202	0x3e4aad4f	0.19792674
203	0xbc2a69fa	-0.010401243
204	0xbd957beb	-0.07299026
205	0x3e858771	0.26079896
206	0x3e99ce9e	0.3004045
207	0xbee36054	-0.4440943
208	0x3e0b6d97	0.13616024
209	0x3e8ea2c2	0.2785855
210	0xbd4bd0e9	-0.04975978
211	0xbec7fb02	-0.3905869
212	0xbb8f821b	-0.0043795235
213	0x3df985e9	0.121837445
214	0x3dd8cb0f	0.10585605
215	0xbdc960b0	-0.09832895
216	0xbd97dcf6	-0.07415192
217	0x3ef38b16	0.47567052
218	0x3d60636c	0.054782316
219	0x3e23cdb6	0.15996441
220	0x3e44d575	0.19222052
221	0x3cb400d4	0.021973051
222	0xbdb99622	-0.09061839
223	0xbe406d7b	-0.18791763
224	0xbe934c7c	-0.2876929
225	0x3db00d5e	0.085962996
226	0x3e5205ec	0.20510072
227	0xbf24c682	-0.643654
228	0x3dd0f868	0.1020363
229	0x3eae69cc	0.34065092
230	0x3e4622ac	0.19349164
231	0x3b4e434d	0.003147322
232	0x3e2b6513	0.16737776
233	0x3cf3e6e9	0.029773192
234	0x3c09e60a	0.008416662
235	0x3ed65ea4	0.4186908
236	0x3e4935fd	0.19649501
237	0x3d48ca47	0.04902103
238	0xbe4e87e2	-0.20169023
239	0xbe3f696d	-0.1869256
240	0x3ec393fd	0.38198844
241	0x3e1c3e44	0.15258127
242	0x3e7c7ba3	0.24656539
243	0x3dcc9a59	0.09990377
244	0x3d20f8ff	0.03929996
245	0xbe1a5005	-0.15069588
246	0xbe1987d9	-0.14993228
247	0xbd4d311f	-0.050095674
248	0x3e9965b1	0.29960397
249	0x3ec50362	0.38479143
250	0x3e18ea74	0.14933187
251	0x3f0b5324	0.5442374
252	0xbe478036	-0.19482502
253	0x3e089df0	0.13341498
254	0xbe243715	-0.16036637
255	0x3e0c672e	0.13711235

net.2.bias f4 [32]
0	0x3e1a5156	0.1507009
1	0xbe143666	-0.14473876
2	0x3d9cdf65	0.076597966
3	0x3e568b30	0.20951533
4	0xbdde5dfb	-0.10857769
5	0xbdd85b82	-0.10564329
6	0x3d3aae08	0.045576125
7	0x3e775b85	0.24156006
8	0x3dfcc509	0.12342269
9	0x3dca4f81	0.098784454
10	0x3dfe6bd9	0.12422914
11	0xbdbdfd30	-0.09276807
12	0xb6aa8d80	-5.0828676e-06
13	0xbd40c74f	-0.047065075
14	0xbcd81ccc	-0.026380919
15	0xbdc5e399	-0.096625514
16	0x3d806968	0.06270105
17	0xbb88fa16	-0.004180203
18	0x3d2d6df1	0.042341176
19	0xbdd976f8	-0.106183946
20	0x3bb99de8	0.005664576
21	0x3db7696e	0.08955656
22	0xbd041974	-0.032250836
23	0x3daf0e17	0.08547609
24	0x3e8749b2	0.26423413
25	0xbd2ca1da	-0.04214654
26	0x3e39fc3c	0.18162626
27	0xbd30bb4e	-0.043147378
28	0xbf202988	-0.6256337
29	0x3ccfbd49	0.025358813
30	0x3d96f3b5	0.07370702
31	0x3db6f8d1	0.08934177

net.4.weight f4 [1, 32]
0	0xbf66a05f	-0.90088457
1	0x3f556188	0.83351946
2	0x3f62b224	0.8855307
3	0xbf6ed538	-0.93294096
4	0x3f59fa6d	0.85147744
5	0x3f875c9c	1.0575137
6	0xbf5e9b6b	-0.869559
7	0xbf8bf6cb	-1.093469
8	0x3f27b327	0.6550774
9	0x3f4d1f15	0.8012555
10	0xbf61c5f3	-0.8819267
11	0xbf556378	-0.833549
12	0x3f329e14	0.6977246
13	0xbf4aab84	-0.7916796
14	0x3f21e145	0.6323436
15	0x3f9e42b6	1.2364109
16	0x3f419160	0.7561245
17	0xbf55616c	-0.8335178
18	0xbf7fe3b8	-0.99956846
19	0x3f35485a	0.70813525
20	0x3f4859ec	0.7826221
21	0x3f8adbcc	1.0848327
22	0xbf82d655	-1.0221659
23	0xbf58db9e	-0.8471011
24	0x3f1c328c	0.6101463
25	0xbf5ca57e	-0.8619002
26	0x3f4e877a	0.8067547
27	0xbf3127cd	-0.69201356
28	0xbf9bdbf5	-1.21765
29	0x3f30729c	0.6892488
30	0x3f6e0e0b	0.9299018
31	0x3f2fd00b	0.68676823
