data_augmented/checkpoints/discriminator_epoch39.pth (torch, 12820 bytes, 5 tensors)

net.0.weight f4 [64, 5]
00000000: 685a 4cba 9c2b a039 9907 973e bc8b 013e
00000010: 4d7e 2fbf 9c09 a6b9 80bb 5eb5 f646 7c38
00000020: b177 503f 6a2a 08b9 f94d cf3b 4023 cdbb
00000030: de88 8bbe 774e debe 8d40 873f 3e3f e6ba
00000040: a960 343f f2af 35bd 3ec3 bb3e a9b4 8bbe
00000050: 30cb 143b 93af b0ba 7414 babe 05f6 d53e
00000060: e701 1d3f b341 a5bc 35ec 08bc 4886 b73e
00000070: ddfd 473e 4085 b0bf e955 4f3a be71 dab9
00000080: 2c9d fdbe cccb ec3d 77f6 173e cee4 7cbe
00000090: 1db8 3bbd 1500 a33e b73d 683f 5d21 6b3e
000000a0: d26d 86ba 2f95 063a 2e0a c0be c853 de3e
000000b0: a2fb ef3e 5b39 1fbf 49e6 b93b 4db2 093e
000000c0: e0b6 c8bc 06ed f4be 69a7 7dbc caec 043f
000000d0: 558e e7bd 14f2 2abf 2bda 85be 9a78 513b
000000e0: 2c29 6cb9 5e7f 53bf 4cb9 febe c57d 8fbe
000000f0: 73d7 3bb9 4947 98be 5921 673e 4d85 2dbe
00000100: 3d90 103f 1800 d5b9 92be f038 6e43 be3e
00000110: 4251 35bf f45f 733f acae ea38 53d9 5cb9
00000120: 0bae 83bf 32c2 6fbc 459b 17be fed4 4b39
00000130: 255e eabb 1249 a13f 4cba 49be ea71 9c3e
00000140: e4ef ebb9 e0bf 163a 6f52 21be 5396 16bf
00000150: bee8 983f 2ff2 4dbc ceb6 013c 7674 173c
00000160: 78c1 0fbf 3873 bdbe ed86 88be 7898 373e
00000170: 36b1 febc a366 e83e 444d 833f ba08 703d
00000180: e4d6 2fbd c271 0b3e c7f6 903f f2bc 38bc
00000190: 048d 87bb 9296 ce3a 4031 75bf e312 1abf
000001a0: 7f6e 84be e65b 1ebd cff4 043f f0f1 2fbf
000001b0: 2687 123e 624e 8b3e 4602 d0b8 fd7f f9be
000001c0: 7dcf c0bc df0e e53e 1099 ddbe 1d3e 57bc
000001d0: 7ae2 0fbd ecc7 d93c fce5 55be 77b5 3abf
000001e0: bb5d c03e 0c09 5ebd 7bc8 233e d18d b1bc
000001f0: 59c9 0cbf bfc3 fbb9 1929 3a39 c15d b7be
00000200: 570c f13c 44b9 513f d86e 72bd c9c9 8b3e
00000210: b697 3a3e 00de c6be 862e bcbf 30e4 4bb7
00000220: 6611 41bf ebc0 ee3c 4be2 c33e 3057 b23e
00000230: c167 603e ecba 9d3c 74eb 9ebe 0b43 ff3e
00000240: b979 2d3f aa41 66ba 7af9 f93e f9d2 5b3e
00000250: cb04 c7be 0dc3 843f ed08 023b f5ac 15bc
00000260: 1d80 073d d9c7 07be 8021 613f c201 933b
00000270: 5ab7 3f3f dd27 ce3a e34e 653c 021c a7b9
00000280: c7f1 11bc 4dc1 fd3b aba5 64bf 5058 283e
00000290: 1ce0 863d 8755 6eb9 c1cc 063a 85bf 63bf
000002a0: 7181 98be cd36 0c3f 109b 37ba efe2 4a39
000002b0: e787 85bb 3daf 453f c0ba f43e 0a34 3d3b
000002c0: 00ad 86bd 8d98 0d3c bb98 7c3f 4f4a e4bd
000002d0: 880f 023b 9b62 d93d 8218 0cbf b52d 753e
000002e0: b925 ec3d fcdd 5d39 4618 03b9 a825 7dbf
000002f0: 411a 96bd 9ece 21bf d6fe d6be 8a87 efbb
00000300: 5728 12bc 62ca 603f e3eb 953c a139 1b3f
00000310: de63 133d f9e6 15be ce06 033e e0b5 ad3e
00000320: bde2 abb9 a29a 8c3b 21b0 593f 2922 47bf
00000330: dd33 ed3e 3ab8 913a 0e40 603d 6949 183f
00000340: 2807 693f 6a0e ac3e 9db4 f13a 31e3 ee3e
00000350: c381 843e 6488 ee3e ef82 d53d bc48 8fba
00000360: a91e c539 5036 123e 64a3 53bf fb67 023e
00000370: 5127 1939 f6c0 2ebe 3938 89be caf4 c23e
00000380: 5a7e 4ebe d485 7d3e b256 bc3e 59b5 97be
00000390: 5c0c 60bf 603b 96bf 6e19 343c b510 82bc
000003a0: 7551 1a3f 22b0 a8be 6802 243d cd18 0d3c
000003b0: 960d edbb 8bd1 aabe 1a62 00bf 29ac a73f
000003c0: c854 ccb8 f2fe 7d39 09bc a3bd d40a 47bf
000003d0: fb89 22bf a3f8 a1bd 2a42 ba3d 73b8 9fbe
000003e0: 4f6a b53e 61a6 51bd dd3f 7fba efc0 823a
000003f0: ce87 ff3e d13c f83e e7b7 e73e 41ec ff3a
-0.0007795454 0.0003055007 0.29497984 0.1265096 -0.68552095 -0.00031669147 -8.2974293e-07 6.014757e-05
0.81432635 -0.00012985771 0.0063264337 -0.0062603056 -0.2725286 -0.4341924 1.0566574 -0.0017566455
0.7045999 -0.044357248 0.36672395 -0.2728627 0.0022704117 -0.001348006 -0.3634373 0.4178926
0.6133103 -0.02017293 -0.008357097 0.35844636 0.19530435 -1.3790665 0.0007909225 -0.00041664945
-0.49533975 0.11562309 0.14840113 -0.24696657 -0.04582988 0.31836 0.9071917 0.22961946
-0.0010256118 0.00051339244 -0.37507766 0.43423295 0.46871668 -0.6219689 0.005673204 0.13446923
-0.024501264 -0.47837085 -0.015481808 0.5192381 -0.113064446 -0.6677563 -0.2614301 0.0031962753
-0.00022522052 -0.8261622 -0.49750745 -0.28025642 -0.00017913971 -0.29741886 0.22571315 -0.16945381
0.5647009 -0.00040626596 0.00011479588 0.3716082 -0.70827115 0.9506829 0.00011190525 -0.00021061795
-1.0287489 -0.014633702 -0.14805324 0.00019438934 -0.007152336 1.2600424 -0.19699973 0.3055566
-0.00045001425 0.00057506375 -0.15754102 -0.58823127 1.1946027 -0.012569948 0.007917119 0.009244075
-0.56154585 -0.37001967 -0.2666544 0.17929256 -0.03109036 0.45390806 1.0257955 0.058602072
-0.042929545 0.13617614 1.132531 -0.011275517 -0.0041366834 0.0015761426 -0.95778275 -0.6018507
-0.25865552 -0.03866186 0.5193605 -0.6872854 0.14309368 0.2720824 -9.918636e-05 -0.4873046
-0.023536438 0.44737908 -0.4328084 -0.013137368 -0.035128094 0.026584588 -0.20888513 -0.72933143
0.3757151 -0.054207847 0.15994446 -0.021674069 -0.5499473 -0.00048020293 0.00017753652 -0.35813716
0.02942483 0.8192332 -0.05918774 0.27302387 0.18221936 -0.38841248 -1.4701698 -1.2152872e-05
-0.7541717 0.029144725 0.38258585 0.34832144 0.21914579 0.01925417 -0.3103901 0.49855837
0.6776386 -0.00087835884 0.48823148 0.21467198 -0.38870844 1.0372025 0.0019841746 -0.009135474
0.033081163 -0.1325983 0.8794174 0.0044862935 0.7488915 0.0015728433 0.013995859 -0.0003187359
-0.008907742 0.0077439905 -0.8931529 0.16439939 0.06585714 -0.0002272931 0.0005142205 -0.8896411
-0.29786256 0.5477112 -0.0007004002 0.0001934876 -0.0040750387 0.7722052 0.4779873 0.002887013
-0.06575966 0.008642328 0.9867055 -0.11146986 0.0019845683 0.106145106 -0.54724896 0.23943217
0.115306325 0.00021158898 -0.00012502176 -0.98885584 -0.07329226 -0.632059 -0.419913 -0.0073098587
-0.008920751 0.8780881 0.018300956 0.6063481 0.035983913 -0.1463889 0.12795565 0.33927822
-0.00032784595 0.0042908946 0.85034376 -0.777865 0.4632863 0.0011117526 0.054748587 0.59487015
0.91026545 0.33604747 0.0018440668 0.46657708 0.2588025 0.46588433 0.10425364 -0.0010931711
0.00037597612 0.14278531 -0.8267119 0.12734978 0.00014605864 -0.17065796 -0.26800707 0.38077384
-0.20165387 0.24758083 0.36784893 -0.29630545 -0.8751886 -1.173687 0.010992391 -0.015877107
0.60280544 -0.3294688 0.040041357 0.00861187 -0.0072342856 -0.33362994 -0.5014969 1.3099414
-9.74327e-05 0.00024222935 -0.07994849 -0.777509 -0.6349179 -0.07908752 0.09094651 -0.3119541
0.3543267 -0.051184062 -0.00097369944 0.0009975712 0.49908298 0.484839 0.45257494 0.0019525365

net.0.bias f4 [64]
00000000: fb57 5fbf 125f f13e 535f 213f 92f0 87be
00000010: e7ed 163e 57c8 4fbd be53 50bf 47f4 efbd
00000020: f7cc 01bf 42ff 793e efea 3d3f 5f14 ecba
00000030: 1bc9 483f 4775 933e dc6a 3f3b c3d8 89be
00000040: c059 6b3e 64ed 4f3f 1aec dabe 1ba3 85bd
00000050: a1ac 273f af6c aa3e 0849 0a3e 9f2d 3d3f
00000060: c05a 0b3f 208d 6e3d 4132 bc3e 4e47 16be
00000070: 6c7e d6be 0e6c fb3e 4333 c1be 62d6 123e
00000080: 744b eebe 35d1 b73c c809 273e 917e 62bd
00000090: 2e51 ecbe 7ff7 1cbe f5ab 77be 1e5a a9bd
000000a0: 89c9 203f 9c11 953e 8dcf 2dbe d720 22be
000000b0: 4296 14bf bc27 123e ad75 233f 3e04 4c3f
000000c0: 9fae 7d3f 50ec 5cbf 908e 87bf 04b1 07bd
000000d0: fae8 48bf eb54 693e 3149 89be 3bb2 1b3f
000000e0: ee44 c0be 025c 1c3f 6a17 0c3e f0dc 973c
000000f0: 9a41 2b3f b9dc 383f e072 263f 2f4f e83e
-0.8724362 0.47142845 0.6303608 -0.26550728 0.1473919 -0.05072817 -0.8137778 -0.11716514
-0.50703377 0.2441378 0.74186605 -0.0018011442 0.7843186 0.28800413 0.002920798 -0.2692319
0.22983456 0.81221604 -0.42758256 -0.065252505 0.65497786 0.33286044 0.13504422 0.7389774
0.5443535 0.058240056 0.3675709 -0.14675638 -0.41893327 0.49105877 -0.37734422 0.14339593
-0.4654194 0.022438625 0.16312325 -0.055296484 -0.46155685 -0.15328787 -0.2418669 -0.082691416
0.6280752 0.29114997 -0.16973706 -0.1583284 -0.58041775 0.1427297 0.63851434 0.79693973
0.99094576 -0.86298084 -1.0590382 -0.0331278 -0.78480494 0.227863 -0.26813653 0.60818833
-0.3755259 0.6107789 0.13680807 0.018537968 0.66896975 0.72211796 0.65019035 0.45372912

net.2.weight f4 [32, 64]
00000000: 147d a73f 98cc 5a3e 7e9c 44bf 0b07 003d
00000010: 1769 d2bf bbd3 943d eb3b 9dbe af50 50be
00000020: 4958 eebe b096 083e 871f 343e b3aa cabe
00000030: 4eae 673d e664 233e 2fc2 553c abaf 63be
00000040: 7320 7bbd 1375 c63e e46b 95be aa50 f3be
00000050: de4f 90be 91d3 41be a338 2f3e e17e c53e
00000060: 55ce 123e e8d0 bfbd a311 473e ddf6 193e
00000070: a58e d7be 2e51 8abd 6f5b 12bf 55d4 abbd
00000080: bb94 8dbf a47a e5be 3f4d 4c3d fe5b 84bf
00000090: ace5 b8be 7bde cd3d 4256 47be 0142 26bc
000000a0: d646 133e 92af 07bc 7db5 85bd 5bb0 3d3f
000000b0: 76be 85be 2293 443c 6995 69bc d0d3 3bbf
000000c0: e0f0 703e 1a39 66be 6d56 d1bc 73ad 80be
000000d0: c1bf 92bd 5338 c8bc 0d70 62bf 15c0 7bbc
000000e0: 2fa5 2c3f 681f f83e 5fc5 0fbe 35fd 103f
000000f0: 012e 903d 6253 933e 73e4 623e 095b 3f3e
00000100: 49be 87be 8e91 0ebf 4fc0 5e3e f492 17bd
00000110: dc77 093e 8586 49bd fc39 d6be 294f 403d
00000120: 4ea5 34be 8e68 273e 6575 76be 3b24 9e3e
00000130: 4108 1d3e 94fd 243e 10ee 5f3e 66be 653f
00000140: 411f 083e 08d0 c3be 3318 b73c e5a3 aa3e
00000150: 2b4a 2bbd da4e c53d d12d 88be ef24 e0be
00000160: 1c3b 2fbd 38a6 c3be 5297 67be 806d 343e
00000170: 871d d73d 1085 863e 9fc6 473e 6ac7 983c
00000180: 9875 553f 3a9b d6bd e264 ddbe 0626 393e
00000190: a7b7 763e dc9b 6f3e 4ff1 2fbe ac05 ab3d
000001a0: 220a 8e3e d84f ad3e b238 3c3e f079 243d
000001b0: 1bf6 76be 788d fbbd 8fa9 303e 56bc 363e
000001c0: ed09 21bf 7e30 97be bd5c 42bd b047 8f3e
000001d0: e89c 463e 8db8 4dbd 6da5 ee3e 4807 9e3e
000001e0: 3a5e 18bf a7ca 08be f360 543e 1e9c 1ebf
000001f0: 3cea 3dbd b81a a0be acb8 b6be 8802 d93d
00000200: 79c9 1abf 861d bfbd 6239 dabb 95c8 44bd
00000210: e4ee ad3e 9b67 8b3e b2d4 a0be 72c9 913e
00000220: 4991 b63d 7ac2 e43d 3d24 71be 90c8 fe3d
00000230: f844 d2bb c72c 04bf e50b adbe 2d63 d23e
00000240: e44b 3cbe 86fb 9abe 528c c53b cbc1 2a3f
00000250: 600a 8b3d 0c27 a73d 7002 d63c 4b97 5f3e
00000260: a6f5 b43d d212 bcbe 6324 41bb 8ec6 fa3c
00000270: 9021 b63d 3c63 8bbd 4f4a ec3d 7dae 123e
00000280: b238 9d3e fcda 25bd 086d 393e cc52 6b3f
00000290: b03c bebc 4f39 55be 52d6 e03e 8d8a ac3c
000002a0: f955 46be 0bcc b93e 5c76 fb3d 37a5 f8be
000002b0: bce4 0b3e 108a a4bd 9043 513e 815b 7c3e
000002c0: 2629 c6be ba38 4cbe adf2 cbbc 9728 0a3b
000002d0: bbf7 f2bd 8bba 9c3e 99f2 c73e ff4e eabd
000002e0: e72b 82be 413e 2ebe bbac 37be a07f 88be
000002f0: 155a 653d db06 eabd ef4f d73e 4d70 afbe
00000300: fd12 043f 8ab7 513f 3503 b1bd b406 ee3b
00000310: 39e1 0ebe 4766 c2bc 4d74 9d3e ec0e 10bd
00000320: 5b1e 2c3e 2252 88bd 519c 633e 5733 d3bc
00000330: 19e8 a3bd d347 893e 74a9 a03e 0cf4 fdbe
00000340: 37d2 383e 1b36 8f3e 9b09 36bd 7bac d0be
00000350: 9fa0 90bb b570 023e 3ea6 043e 9ebc d8bd
00000360: fd90 b7bd f9dc 023f 767d 723d a462 363e
00000370: 79af 513e 695f 173d 4147 f7bd e69f 64be
00000380: 68d1 96be 43a3 243e 1567 773e 5b89 28bf
00000390: 78d6 c33d 4f7c b43e 3868 473e 6a83 903b
000003a0: 79d0 2f3e bc20 0dbb dd78 993c b244 d43e
000003b0: 458b 6d3e 3745 293d dd1c 6fbe 2097 68be
000003c0: a713 c53e 3d00 1c3e 5981 813e a403 e63d
000003d0: f2be 493d b9c7 2cbe 36ed 34be 6257 f0bc
000003e0: ba14 c93e 1ff3 dc3e 38b1 1e3e de84 183f
000003f0: 06f2 75be 79c6 033e f58a 5cbe d44a 2a3e
1.3085046 0.21367109 -0.7680129 0.031256717 -1.6438321 0.07266947 -0.30709776 -0.20343278
-0.4655173 0.13338733 0.17590152 -0.39583358 0.056562714 0.15956458 0.013046785 -0.22234981
-0.061310243 0.38761196 -0.29183877 -0.4752248 -0.28185934 -0.18928362 0.17111449 0.38573363
0.14336522 -0.093660176 0.19440322 0.15035577 -0.42101017 -0.06753765 -0.57170767 -0.083901085
-1.1061014 -0.4482013 0.049878355 -1.0340574 -0.36112726 0.100522004 -0.19466498 -0.0101475725
0.1438249 -0.008281605 -0.06528757 0.7409722 -0.26121873 0.01199797 -0.014256814 -0.73370075
0.23529387 -0.2248272 -0.025553906 -0.2513233 -0.071654804 -0.02444092 -0.88452226 -0.01536562
0.6743955 0.4846146 -0.14040135 0.56636363 0.070400245 0.28774554 0.22157459 0.18687071
-0.26512364 -0.5569085 0.21753047 -0.03700538 0.13424629 -0.049200553 -0.41841114 0.046950493
-0.17641184 0.16348478 -0.2406822 0.30887017 0.1533518 0.16112357 0.21868157 0.8974365
0.13293172 -0.38244653 0.022350406 0.33328167 -0.04181878 0.0963418 -0.26597455 -0.43778178
-0.04278098 -0.38212752 -0.22616318 0.17619896 0.10503679 0.26273394 0.19509362 0.018649776
0.8338256 -0.10478826 -0.4324103 0.18080911 0.24093495 0.233993 -0.17181896 0.08350691
0.27742106 0.33849978 0.18381003 0.04015535 -0.2411732 -0.122828424 0.17252181 0.17845282
-0.6290577 -0.29529184 -0.047451723 0.2798438 0.19395792 -0.05022483 0.46610585 0.3086493
-0.5951878 -0.13358556 0.20740108 -0.61956966 -0.04636596 -0.31270385 -0.35687768 0.10596186
-0.6046367 -0.09331803 -0.0066596726 -0.048042852 0.33971322 0.27227482 -0.31412274 0.28474003
0.0891443 0.11169906 -0.2354898 0.12440598 -0.006416913 -0.51630825 -0.33798137 0.4109129
-0.18388325 -0.30270022 0.0060286904 0.66701955 0.06789088 0.081617445 0.02612421 0.21835057
0.08835916 -0.3673311 -0.002947115 0.030612256 0.0889312 -0.06806037 0.11537611 0.14324374
0.30707318 -0.040492043 0.18107998 0.91923213 -0.023222297 -0.20822643 0.43913513 0.02106216
-0.19368733 0.36288485 0.12278435 -0.4856355 0.13661474 -0.08034146 0.2043593 0.24644281
-0.3870327 -0.19943514 -0.02489599 0.0021081322 -0.11863657 0.3061107 0.39052275 -0.114408486
-0.2542412 -0.17015935 -0.17936985 -0.2665987 0.055994112 -0.11427089 0.42053172 -0.34265366
0.51591474 0.81920683 -0.0864319 0.0072639827 -0.13953103 -0.02373041 0.30752793 -0.03517048
0.16808455 -0.066562906 0.22227599 -0.025781317 -0.080032535 0.2681261 0.31379282 -0.49600255
0.1804894 0.27970967 -0.044442754 -0.40756592 -0.004413679 0.12738307 0.12954041 -0.10582851
-0.08963201 0.5111843 0.05920168 0.17811066 0.20477094 0.036956225 -0.120741375 -0.22326621
-0.2945664 0.16077904 0.24160416 -0.6583459 0.09562391 0.3525109 0.1947335 0.004410197
0.1716937 -0.0021534404 0.01873439 0.4145866 0.23197658 0.041325774 -0.23350854 -0.227139
0.38491556 0.15234466 0.25293997 0.11231163 0.049254365 -0.16873063 -0.17668614 -0.029338542
0.39273626 0.43154237 0.15497291 0.5957774 -0.24018106 0.1286868 -0.21537383 0.16630107

net.2.bias f4 [32]
00000000: 3861 5b3e 92b2 28be d85b 7d3d abab 653e
00000010: a060 fdbd 3a51 f7bd c6f4 913d f475 a13e
00000020: e395 073e d616 8f3d 1bb7 153e 0a2d d1bd
00000030: e54e dbbc 7b9e 81bd 073d 1cbd 092b 01be
00000040: d276 5c3d 9232 2d3c 2a1b 6a3d acd2 fcbd
00000050: 5add da3b 4133 0b3e 540b a33c 6e4c cd3d
00000060: a9af 833e f9f7 bbbc 31c1 533e 45bd 833b
00000070: a275 24bf bbbc 923c bb89 863d bd73 f93d
0.21423805 -0.16474369 0.061855167 0.22428767 -0.123719454 -0.120760396 0.07126765 0.31535304
0.13240771 0.069867775 0.1462063 -0.10213669 -0.026771018 -0.06329056 -0.038144138 -0.12614073
0.053824253 0.010571139 0.057154812 -0.1234487 0.006679219 0.1359377 0.019902863 0.100243434
0.25719956 -0.022945391 0.20679165 0.0040203654 -0.64241993 0.01791226 0.06569239 0.121802785

net.4.weight f4 [1, 32]
00000000: 55f9 88bf ea83 673f c346 823f abd9 86bf
00000010: 904b 7e3f db18 9d3f e845 80bf 6879 9fbf
00000020: acc2 393f f8e4 723f ba13 84bf 28d2 6dbf
00000030: fd12 893f a642 67bf f92d 2b3f 48fd a73f
00000040: 7517 613f 2439 79bf 00cf 94bf e94f 3d3f
00000050: 57fb 833f bdc8 be3f 5667 94bf 3d2b 76bf
00000060: ccee 343f cb86 7fbf f06a 553f 3da5 67bf
00000070: 883e a7bf 64e1 4f3f e6fa 863f e008 4b3f
-1.070109 0.9043566 1.0177845 -1.0535177 0.9933405 1.227321 -1.0021334 -1.2458925
0.7256267 0.9488063 -1.031852 -0.928988 1.070892 -0.9033607 0.66867024 1.312417
0.8792642 -0.97352815 -1.1625671 0.7395006 1.0311078 1.490501 -1.1594036 -0.96159726
0.70676875 -0.9981505 0.833663 -0.9048651 -1.3065958 0.81203294 1.0545318 0.7931042
