data_augmented/checkpoints/generator_epoch72.pth (torch, 25068 bytes, 6 tensors)

net.0.weight f4 [64, 16]
000000 d5 47 2f be a5 cf 14 3c 06 bf 52 3e a0 3d c1 3d
       -0.17117245 0.009082709 0.20580682 0.09435582
000010 19 9b 38 be ee 66 57 3e 00 e7 24 3e d4 8e 68 bd
       -0.18027915 0.21035358 0.16103745 -0.056776837
000020 cc 03 5d 3d e0 db 3e 3e cb 36 fd bb 81 98 d9 3d
       0.0539587 0.18638563 -0.007727479 0.10624791
000030 21 b6 72 be 50 33 0c 3e 60 8a 8e bd 48 13 37 3d
       -0.23702289 0.13691449 -0.06959987 0.044696122
000040 d3 bf 62 3e 8d e0 8e bd 36 e7 07 be bb d9 e7 bc
       0.22143488 -0.069764234 -0.13271794 -0.028302064
000050 6d 13 0e 3e 25 06 78 3d 33 62 45 be cb bc d1 bc
       0.13874598 0.060552735 -0.19275741 -0.025602719
000060 6e ab ac bd 38 4b a4 bd ee 34 00 3e 76 04 1b 3e
       -0.08431135 -0.08022159 0.12520191 0.1513842
000070 3e c8 cf 3d 3c da d1 3d 7b 2d 0d 3e 09 f0 41 3e
       0.10145615 0.10246703 0.1378688 0.18939222
000080 2c 06 cf be 90 b7 43 3d 2f 9f 4a 3e 56 b3 11 3e
       -0.40434396 0.04778248 0.19787286 0.14228567
000090 1d d9 99 3d c8 c1 13 3e 08 47 74 3e ea b9 1c be
       0.07512114 0.1442939 0.23855221 -0.15305296
0000a0 f8 d3 b0 3c 4d 67 79 3c 06 e0 2a be 73 fd 85 be
       0.02158545 0.015222383 -0.1668702 -0.2616993
0000b0 4d 47 8e bd 67 54 7a be d4 a6 9e be 30 d1 af be
       -0.06947193 -0.2444626 -0.30986655 -0.34339285
0000c0 6b 42 d1 bd 3e 4b 92 3d d2 f7 58 be 01 3d 9e bd
       -0.10217746 0.071432576 -0.21188286 -0.07726479
0000d0 4e 9a ac 3d c9 3c e4 bd 96 ee e9 3d 01 0a 93 be
       0.08427869 -0.11144406 0.1142246 -0.2871857
0000e0 5e 50 fe bd f7 a9 ad 3d cc 66 37 3e 2e be 30 3e
       -0.124176726 0.08479684 0.17910308 0.17260048
0000f0 0d 75 b7 3d 9d dc a9 bd fe 7c d5 bd 85 cb 21 3e
       0.089578725 -0.08294032 -0.10424231 0.15800293
000100 57 2a 00 bd 94 8e 19 bd 0c c2 b0 3d ae 02 14 3d
       -0.03129038 -0.03748949 0.086307615 0.036135368
000110 7d 29 e8 3b c2 23 2b 3e ae e3 56 bc f8 ab 69 bd
       0.007085024 0.1671286 -0.0131158065 -0.057048768
000120 b0 e0 e2 3b dc dc 6d 3d a6 72 03 3d 07 5f cb 3d
       0.0069237575 0.058071956 0.03209176 0.099302344
000130 e4 f8 8b bd 92 c1 98 3d a8 52 28 3d d4 68 92 3d
       -0.068345815 0.074587956 0.041094452 0.07148901
000140 70 d6 cc be e5 19 1d 3e be 84 6c 3e 4f 3b 65 3d
       -0.40007353 0.15341909 0.23097512 0.055964764
000150 86 58 5f be 56 80 88 bd 2f 50 bd 3e 8c 2a 40 bc
       -0.21811113 -0.06665103 0.36975238 -0.011728894
000160 56 ea fd 3d 23 df 08 3e 44 2a 40 be f2 e2 6c be
       0.12398212 0.1336637 -0.18766123 -0.23133448
000170 da fc 3e be 16 e1 38 be 70 ed 85 be 1f f3 93 be
       -0.18651143 -0.18054613 -0.26157713 -0.28896424
000180 8d 0f 66 be 7b 86 87 3d aa 6f 7b 3e b0 96 9f 3c
       -0.2246687 0.06617447 0.24554315 0.019481033
000190 26 af 55 be 21 84 a7 bd ef 4a 2d 3e df 01 07 3e
       -0.20867595 -0.081794985 0.16923116 0.13184308
0001a0 6b cc 3e 3e 72 f2 97 3d 2f 0f 5b be c4 e7 76 be
       0.18632667 0.0741929 -0.21392511 -0.24111849
0001b0 f4 7e 0a be 6d be 04 be 54 27 97 bd f3 40 89 be
       -0.13524991 -0.12963267 -0.07380548 -0.26807365
0001c0 21 9a 0d 3f f7 34 20 be 1f 5d a2 be f6 2e 64 be
       0.5531331 -0.15645204 -0.3171167 -0.22283539
0001d0 4b ab 37 bf 88 ae 13 bf 9e 1f 59 bd 36 8d fa 3e
       -0.7174575 -0.5768819 -0.053008668 0.4893586
0001e0 42 be bc 3d 4c 39 db 3e c8 ee 5e 3d 23 28 ce 3e
       0.09215976 0.42817152 0.05442694 0.40264997
0001f0 71 40 36 be 20 a0 03 3f a3 56 67 3e 45 aa c8 3e
       -0.1779802 0.51416206 0.22591643 0.39192405
000200 bd 8f 6e bd b9 e1 ce bd f0 1c c5 bc 47 5e da ba
       -0.05824255 -0.10101647 -0.02406165 -0.0016660177
000210 bd 73 2a bf 10 c3 c6 be 55 d2 ac 3e f0 6b 8f 3e
       -0.6658285 -0.38820696 0.3375422 0.28012037
000220 c8 cd 13 3e 54 2f fd 3e a6 45 6b be 96 eb 52 bb
       0.14433968 0.4945017 -0.22975788 -0.0032183877
000230 90 bb 9d be 2c e8 1c 3e a4 81 8b be 74 6d 14 be
       -0.3080716 0.15322942 -0.27247345 -0.14494878
000240 a6 b7 84 3d 99 67 cf 3c bf a0 fa 3c bb ec 1b 3b
       0.06480341 0.025317954 0.030594228 0.0023792225
000250 ef 94 2e 3e 62 94 d9 3d 5c c2 02 be 9c b5 29 bc
       0.17049001 0.10624005 -0.12769455 -0.01035824
000260 b0 41 a8 bc 80 45 2f be 6d 63 17 3d 55 41 b2 bc
       -0.020539135 -0.17116356 0.036960054 -0.021759668
000270 28 e8 a7 3d 0a cf a6 bc fe 0b f2 3d 27 a7 00 3d
       0.08198577 -0.020362396 0.118186936 0.03140941
000280 a2 c4 03 3f 70 3f 1f be ad 9b 98 be 1b c4 51 be
       0.5147191 -0.15551543 -0.2980627 -0.20484965
000290 6b 57 31 bf 4b b3 0d bf b3 cd 16 bd b8 6d ef 3e
       -0.69274014 -0.55351704 -0.036817264 0.46763396
0002a0 b9 aa b9 3d 6a b5 d7 3e 95 04 1d 3d 84 2e bf 3e
       0.09065766 0.42130595 0.038334448 0.37340176
0002b0 4b 20 36 be 5b 0c f9 3e bc 5a 47 3e df c1 b6 3e
       -0.17785756 0.4864224 0.19468206 0.35694787
0002c0 38 0e 01 be 21 9e b4 bd cd 49 07 3c 56 e6 b0 3c
       -0.1260308 -0.08819223 0.008257342 0.021594208
0002d0 59 eb 28 bf ac f5 bd be 52 b0 c2 3e 96 df 84 3e
       -0.6598411 -0.37101495 0.38025147 0.25951833
0002e0 93 68 18 3e 59 87 ff 3e 2e 48 85 be 89 87 45 bd
       0.14883642 0.4990795 -0.2603163 -0.04822496
0002f0 37 97 a5 be 76 10 e6 3d 17 bf a5 be 70 9e 50 be
       -0.3234193 0.112336084 -0.32372352 -0.20372939
000300 e3 5f 96 3d 4e 60 dd 3e 85 f8 0b 3e 24 4f 6a be
       0.07342508 0.43237537 0.13669021 -0.22881752
000310 88 13 6f bd c3 c5 b2 bd a5 6c fc ba 58 a9 2e 3d
       -0.058368236 -0.08729126 -0.0019258453 0.042641968
000320 7c 4d de 3d 5f 39 7d be 86 89 6a 3e 49 ef ed 3d
       0.10854623 -0.24728917 0.22904024 0.11617906
000330 cb f6 51 3c 2b eb 91 3c 73 30 e7 3e 63 8e b9 3e
       0.012815188 0.017812332 0.4515415 0.36241445
000340 82 a4 d7 be 26 64 d8 3d a2 0d 65 3e 7a a9 be 3d
       -0.42117697 0.10565977 0.22368482 0.09309669
000350 8d fa 45 be 63 c7 02 bd ee a6 bd 3e 58 41 fe bc
       -0.19333859 -0.03192843 0.3704142 -0.031037018
000360 21 57 d4 3d 60 b4 1c 3e 5e f0 59 be 91 dc 80 be
       0.10368181 0.15303183 -0.21283099 -0.2516828
000370 21 b0 3f be 49 30 42 be 7a f1 a3 be ab d0 ab be
       -0.18719532 -0.18963732 -0.3202017 -0.3355764
000380 1c 3c 84 be a4 f8 22 bf 84 d8 0c be d7 67 ca 3e
       -0.2582711 -0.63660645 -0.13754469 0.3953235
000390 e6 bb 02 3e 6e aa 43 3e 80 6a 98 3d df 62 fa bd
       0.1276699 0.19107983 0.07442188 -0.122258894
0003a0 89 fc 22 be a8 ae c0 3e 15 a9 ce be 31 1d 89 be
       -0.15916647 0.37633252 -0.40363374 -0.26780084
0003b0 e4 f8 0c bd 97 50 f9 bd b7 f0 48 bf cc 5f 2a bf
       -0.034417048 -0.121735744 -0.784923 -0.66552424
0003c0 8c 49 1f 3c 10 b3 b5 bd c4 b5 18 bd 3f 2e 25 3d
       0.009722125 -0.08872044 -0.03728272 0.040327307
0003d0 b0 be 44 bd 1b 70 9d bc 35 7d ff 3c dd a9 84 3c
       -0.048033416 -0.019218495 0.031187633 0.016194278
0003e0 16 6f 95 bc 3e 5e b6 3d 0e 73 59 bd 2f 3b 36 bb
       -0.018241446 0.08904694 -0.05308824 -0.0027806272
0003f0 d9 f1 eb bc dc e2 85 3c af f5 d7 bd e5 47 6e bd
       -0.028801845 0.016343527 -0.10544907 -0.058174033

net.0.bias f4 [64]
000000 f8 85 06 3e 28 b8 49 3f 34 ed 2a 3f 12 b4 22 3f
       0.13137043 0.78796625 0.66768193 0.63556015
000010 8e 8d a7 3e 41 90 e3 be 61 0e 2b bf 16 2d 08 bf
       0.32725185 -0.44445994 -0.66818815 -0.53193796
000020 ae dc b9 3e 61 df 28 3f aa 65 07 bf 55 08 a8 3e
       0.36301178 0.6596585 -0.528895 0.32818857
000030 78 a1 09 be 4e 62 19 bd 5e 5f 00 3e d8 f5 2f 3f
       -0.13440502 -0.037447266 0.1253638 0.687345
000040 c3 bc be 3e b6 8a 80 bf 3f 53 ee 3e 29 47 4d 3f
       0.3725339 -1.0042331 0.46547887 0.80186707
000050 5b 62 87 3e 0b 57 7a bf f4 b3 c7 3e 29 7d 79 bf
       0.26442227 -0.9778907 0.3900448 -0.97456604
000060 ed 34 09 3f 98 d2 26 be fb ca f4 be 28 91 c4 be
       0.53596383 -0.16291273 -0.47811112 -0.38391995
000070 90 2a 10 bf fe 44 a4 3d a1 e5 2e 3f e2 19 d3 bb
       -0.56314945 0.08020972 0.68319136 -0.0064422945
000080 a1 9b 63 bf fa d9 a4 be 8b 65 7e bf 47 ee 2f 3f
       -0.88909346 -0.32197553 -0.9937369 0.6872296
000090 45 c2 0a 3f f2 f6 5b bf f5 0d 02 3f 43 bd 49 be
       0.5420268 -0.85923684 0.50802547 -0.19701104
0000a0 3d 7d e3 be 0b 39 c5 be 2c 18 40 be 96 b4 0c 3d
       -0.44431487 -0.38520083 -0.18759221 0.034351908
0000b0 44 ac 90 3e 43 b0 5d 3f 14 d9 9f be a3 0c 5b bf
       0.28256428 0.8659708 -0.31220305 -0.8556616
0000c0 90 30 7b bf 46 b1 50 3f 61 b1 c3 3c 9a 80 d2 be
       -0.98120975 0.815205 0.023888292 -0.4111374
0000d0 d8 6b 4d bf 6f 84 3b 3c 38 fc 14 bf 1a 47 3a be
       -0.8024268 0.011445149 -0.58197355 -0.18191186
0000e0 70 ad 5b be de 80 f3 3e c8 58 17 3f f4 cb 37 bf
       -0.2145288 0.47559255 0.59119844 -0.7179558
0000f0 fe 87 19 3f bc e7 63 bf 3c a7 22 3f 94 b3 8b 3e
       0.5997313 -0.89025474 0.6353643 0.27285445

net.2.weight f4 [64, 64]
000000 7f 9b a2 3b 2b dd c1 3e f6 91 c9 3d d6 f3 c2 3d
       0.0049623842 0.3786405 0.09842293 0.09519164
000010 db d5 7b 3d 8f 5d 48 be 6d 34 77 bc 35 42 d2 be
       0.061483245 -0.1956694 -0.015088183 -0.41066137
000020 9b 15 09 be 4f be 1a 3e 25 29 98 be 55 30 e1 3e
       -0.13387148 0.1511166 -0.2971889 0.43982187
000030 81 bd b5 3d 78 2d 4e 3e 1f 63 ce be 7d d9 10 3e
       0.088740356 0.20134532 -0.40309998 0.14145465
000040 b4 56 bf 3d 3f ce c9 3c 9f 99 19 3e ed 17 83 3e
       0.09342709 0.024634479 0.15000008 0.2560419
000050 75 2c c7 3d 10 b0 ec bd 96 5b 0e be ce e9 29 bd
       0.097252764 -0.11557019 -0.13902125 -0.04148274
000060 3d 11 4d 3e c3 ff 7e bd 19 38 7d bd 15 21 0b 3e
       0.20026107 -0.062255632 -0.061821077 0.13586839
000070 63 dc 14 bf 30 9d 10 bd 81 a4 b1 bb 6e c9 57 3e
       -0.58148783 -0.035306156 -0.0054212217 0.21072933
000080 e5 46 f5 3d cf 81 95 bd 42 17 ab bf 62 c6 b0 3d
       0.11976413 -0.0730015 -1.3366473 0.086315885
000090 04 26 49 3d 6d 9f f3 bc 04 17 7b 3d e3 db de 3d
       0.04910852 -0.029739106 0.061301246 0.10881784
0000a0 81 dd 5f be 60 07 9d be 80 84 93 3d 8e c2 d4 3d
       -0.21861841 -0.3066969 0.07203007 0.10388671
0000b0 6f 29 a8 3e f6 dd 76 3e d5 99 6b 3e 56 b7 5a 3d
       0.3284411 0.24108109 0.23007901 0.0533975
0000c0 6c 2a 14 3e 4a 4b 1d 3d 88 95 42 3e 20 d5 14 3d
       0.14469308 0.03840188 0.19002354 0.036336064
0000d0 a9 4c 4b 3e 3e b7 a8 3e 61 93 52 be 3a 46 50 bd
       0.19853462 0.32952303 -0.20564033 -0.050848223
0000e0 fd 67 07 bd c0 22 14 3e 6d f6 b1 3c 78 28 61 3e
       -0.033058155 0.14466381 0.02172395 0.21988094
0000f0 d8 c5 72 3e c7 9c 6d 3d 0e 68 9f bd 89 96 1a bd
       0.23708284 0.058010843 -0.07783519 -0.037741218
000100 e6 0a 62 be 8c 94 d7 bd 57 57 55 be a0 39 64 be
       -0.2207447 -0.1052638 -0.20834099 -0.22287607
000110 ba 07 b0 bd 08 98 6a 3d de ca ed 3d 1a ea 06 be
       -0.08595224 0.057273895 0.116109595 -0.1317524
000120 0d 0e 91 3d 80 80 02 be e8 a1 5f bd 66 b5 b7 bc
       0.07082758 -0.12744331 -0.054597765 -0.022425365
000130 c4 7d b3 bd bd 1d 95 3c f6 0e 07 be 57 d5 52 be
       -0.08764222 0.018202657 -0.13189301 -0.20589195
000140 85 82 3e be 23 bc 77 3d 69 73 ff bd a4 af 87 be
       -0.18604477 0.060482156 -0.124731846 -0.2650119
000150 4f 38 0d be b2 f9 3e 3e 87 cf 92 3c 12 5d c7 3d
       -0.13791011 0.18649939 0.017921222 0.09734549
000160 8a 29 3b be 56 47 16 be 3e 71 06 bd 81 fc 97 bc
       -0.18277565 -0.1467565 -0.03282284 -0.01855302
000170 f2 b4 05 be 71 25 08 be a6 57 41 be 04 1b fd 3d
       -0.13057306 -0.13295533 -0.18881091 0.123586684
000180 7b de 17 bd 68 b5 4e 3d e2 72 b2 3b 1e 1e 1a be
       -0.03707741 0.05046597 0.005445824 -0.15050551
000190 24 3f 21 be 18 6f 10 3e f5 8b 50 be 08 db ee 3d
       -0.15746742 0.14104879 -0.2036589 0.11662871
0001a0 a5 ff 6b bd b2 39 06 bd 5d f2 20 3e 06 cb 92 bc
       -0.05761685 -0.032769866 0.15717454 -0.017919075
0001b0 3b 91 41 bd 30 fb 82 be 60 1c e2 bd d5 a8 ab 3d
       -0.047257643 -0.25582266 -0.11040568 0.083818115
0001c0 c2 f2 1f 3e dc 51 2b be 52 2e 3f 3d b2 1f 58 bd
       0.15619949 -0.16730446 0.046675034 -0.052764602
0001d0 ba 3c 99 3d 5e 9e 64 bc 4b 3d 88 3d 34 f8 06 be
       0.07482286 -0.013953773 0.06652316 -0.1318062
0001e0 13 57 04 ba 23 09 12 be 3a 99 6a bd f5 8d e1 bc
       -0.00050483755 -0.14261298 -0.057275034 -0.02753351
0001f0 57 4d d4 ba d6 1c 84 bd 8c b8 27 be d1 0f 7e be
       -0.0016197365 -0.064508125 -0.16378993 -0.24810721
000200 49 02 4a be b3 ec 7b be b4 ea b8 bc ad 90 90 be
       -0.19727434 -0.24602012 -0.022572853 -0.2823538
000210 3e 44 c1 bd ad 13 aa 3d 00 d6 3c bd 0a cd 06 be
       -0.09436844 0.08304534 -0.046102524 -0.13164154
000220 76 85 1c bd e3 3e d5 bd b4 2d d6 bb af 9e 9e 3d
       -0.038213216 -0.10412385 -0.00653621 0.0774511
000230 f6 25 f6 bd bd 85 84 3d 42 1e 61 be 22 6b 80 bd
       -0.12018959 0.06470821 -0.21984199 -0.06270434
000240 5f 22 42 bd 29 ce 3c 3d 62 28 85 bd 84 ac 01 be
       -0.04739606 0.046095047 -0.06501843 -0.12663466
000250 7c ed de bd 39 ab 61 3d 4c ab 95 bd 17 df e2 3d
       -0.1088514 0.05509493 -0.07308063 0.11077707
000260 48 2d 20 be d0 7f c7 bd 2c 8e e0 3d 1b 6f f9 bd
       -0.15642273 -0.09741175 0.10964617 -0.12179395
000270 5f 04 0d bd be 45 65 be 66 41 e3 bd fe 78 a0 bd
       -0.034427997 -0.22389886 -0.11096458 -0.078355774
000280 66 4b 3d bd 99 9f f5 3c ee f5 ac ba 0d f1 a2 bd
       -0.046214484 0.029983329 -0.0013195851 -0.07956133
000290 2c ba e3 bd 1c c5 1a 3e 2b cf 12 be 95 95 86 3d
       -0.11119494 0.15114254 -0.14336841 0.06571499
0002a0 e2 41 f1 bb 1b de f6 3d 97 27 17 bd 14 4f 93 bc
       -0.00736259 0.12054082 -0.03690299 -0.017982043
0002b0 98 84 8d bd 62 37 10 be df a7 31 3d 27 62 11 3e
       -0.06910056 -0.14083627 0.043372985 0.14197598
0002c0 ae 13 13 bd 7d 07 d0 bd a5 e0 6e bc 99 a1 87 bd
       -0.03590744 -0.10157678 -0.014579927 -0.06622619
0002d0 66 93 7c 3b 37 37 02 bd c0 d5 9e bd 7b 13 c7 bd
       0.0038540005 -0.03179094 -0.07755613 -0.097205125
0002e0 1e 76 6e 3b 9b 07 15 be 1d bf 67 bd d4 76 01 3d
       0.0036386321 -0.14553683 -0.056578744 0.031607464
0002f0 27 15 48 be 87 26 de 3c 8e c4 90 be a7 e9 2a be
       -0.19539319 0.02711798 -0.2827496 -0.16690694
000300 18 ff ef be a8 81 2b 3e f0 6c b2 3b 19 fd 4f 3c
       -0.4687431 0.16748679 0.0054451153 0.0126946205
000310 ce 34 fa be 8f f6 a3 bd d2 4c 03 be 14 03 01 3c
       -0.48868412 -0.08006012 -0.12822273 0.007874269
000320 99 8d ce bc f6 66 74 bc 07 43 27 3e e7 38 02 3e
       -0.025214003 -0.014917126 0.16334163 0.12717019
000330 04 d8 d8 bd 34 e1 46 bd 8d 42 6a 3d dc af dc 3d
       -0.10588077 -0.048554614 0.057192374 0.1077573
000340 60 e8 1f bf d2 da c8 3d 82 e5 f8 3d b5 59 02 3e
       -0.6246395 0.09807362 0.1215315 0.12729533
000350 93 03 80 bd 1a 66 23 bd 6b ad 9f bb 91 81 25 3e
       -0.06250682 -0.039892294 -0.004872968 0.16162707
000360 f9 d6 23 3e eb 0b 81 3d 62 ec 01 be c4 c4 93 bb
       0.15999974 0.06301101 -0.12687829 -0.0045095403
000370 bf 6e aa bd 83 f6 54 3d ed 99 37 bc 44 55 c1 bd
       -0.083219044 0.051992904 -0.011206132 -0.09440091
000380 2f 61 3b bc 45 a7 91 be ab fd 25 3d aa 3c 38 3d
       -0.011436745 -0.2844793 0.04052512 0.04497973
000390 26 b2 be bc 3f 52 a6 3e 51 76 31 3d ea 8b 33 3c
       -0.023278307 0.32484624 0.043325726 0.010958651
0003a0 ce 99 6d bd 1f c3 90 3d ba d6 82 bd 82 00 6b 3e
       -0.058008008 0.070684664 -0.06388612 0.22949412
0003b0 35 77 d9 bd 98 4c 8c bc 39 6c b5 3d f8 0d 51 3e
       -0.1061844 -0.017126366 0.088585325 0.20415485
0003c0 10 03 42 bd fa 9d 3d 3e fd 05 11 3d 25 b8 fe 3d
       -0.047366202 0.18517295 0.0354061 0.124374665
0003d0 29 91 6b 3c 7c 57 05 be 62 fb 94 bc 7f f9 1e be
       0.014377871 -0.13021654 -0.018186275 -0.15524863
0003e0 21 b5 53 bd e2 29 9f 3d ad 00 a5 3c fc 84 0f 3d
       -0.05168641 0.077716604 0.020141924 0.035038933
0003f0 24 2a e0 3d e6 5b dc 3d 32 dd 80 3e dd ff 1b be
       0.10945538 0.10759716 0.2516876 -0.15234323

net.2.bias f4 [64]
000000 d8 d3 c2 3e f8 28 c0 bd 72 f9 09 be 45 4e 42 3e
       0.3805225 -0.09382814 -0.13474062 0.1897517
000010 82 6c 50 bd 0d 41 1a 3e 95 ff 84 3e 94 7b 0f 3d
       -0.05088473 0.15063877 0.25976244 0.035029963
000020 09 eb 96 be 55 97 73 be 5f c9 ce bd c6 55 1d 3e
       -0.29476193 -0.23788197 -0.10097002 0.15364751
000030 cd ee 97 3e 8e 67 b5 be 0d bd 7b be 75 f0 0a be
       0.29674378 -0.35430568 -0.24583836 -0.1356829
000040 66 c3 6e be b6 05 17 3d a2 80 86 be 49 cd f4 bd
       -0.23316726 0.03687068 -0.26270014 -0.119532175
000050 0c 13 a1 3e 48 04 0e 3f 78 9d 3a be 07 7c 25 3e
       0.31459844 0.5547528 -0.18224132 0.16160594
000060 d1 00 80 3c de 9c 74 3e a0 e0 a8 bb b6 ea 44 be
       0.01562539 0.23887965 -0.0051537305 -0.1923016
000070 80 59 a4 3e fb 5d fa bd 9b ea 58 3e df 30 e6 bc
       0.32099533 -0.122249566 0.21183245 -0.028099475
000080 ea 6b c8 3d 0d 40 14 3e 99 99 91 bd a4 4c d7 bd
       0.09786208 0.14477558 -0.071093746 -0.10512665
000090 39 85 db bc da 8f e5 3b 29 d9 2d 3e 5d 8a 9f 3d
       -0.026796924 0.007005674 0.16977371 0.077900626
0000a0 8c 30 06 3e 8c 0d 96 3d c1 02 11 be e1 79 67 3c
       0.13104457 0.073268026 -0.14161207 0.014128179
0000b0 71 15 4c 3d e9 32 ac 3e fb 74 aa bd 99 56 28 3e
       0.049825136 0.3363259 -0.083230935 0.16439284
0000c0 28 d1 63 be ff d2 81 bc 49 e1 0d be 1b b2 55 3e
       -0.22247756 -0.015847681 -0.1385547 0.20868723
0000d0 bd 74 b8 3e f8 19 ce bd ae 9b 7d 3e ae 15 3b be
       0.36026564 -0.10063547 0.24766418 -0.18269989
0000e0 29 82 e4 3d 1f ea cb bd 1f c6 3e bd 68 93 99 3e
       0.111576386 -0.099567644 -0.04657566 0.29995275
0000f0 b2 4d 25 3e 79 90 98 3e 4d b5 e0 3d 7c ea ad bc
       0.1614292 0.29797724 0.109720804 -0.021229975

net.4.weight f4 [5, 64]
000000 af 4d ef 3b 41 55 ed 3d 26 a1 41 be c7 1e 4f bf
       0.007302962 0.115885265 -0.1890913 -0.8090634
000010 11 63 f0 bb 00 e2 4d bc 54 8a 66 bf a2 09 4f bf
       -0.0073360284 -0.01256609 -0.9005482 -0.80874074
000020 f2 40 2d bc 99 45 8c 3d 61 80 f6 3d 23 86 b5 bd
       -0.010574566 0.06849212 0.12036205 -0.08863475
000030 a6 92 84 3d 73 b6 90 bd 0b b5 30 bd 55 70 53 bd
       0.064732835 -0.070660494 -0.043141406 -0.0516208
000040 b7 78 8a 3d eb 8c ae 3d e2 87 fd 3d 7d 9d 6d 3c
       0.06761306 0.08522972 0.12379433 0.01450288
000050 de d8 22 3e 6f e3 c3 3d 61 6a 01 be bc 8c b4 3e
       0.15903041 0.09564864 -0.12638237 0.35263622
000060 5d 15 0a 3d a1 a1 1e 3f 85 98 a7 bc 72 de 50 bd
       0.03371178 0.61965376 -0.02045847 -0.05099339
000070 20 b1 3a 3d 9d 77 c3 3d 8f 3b f9 3e fa 11 91 bd
       0.045579076 0.09544299 0.48678252 -0.07083507
000080 e8 0b c7 bc e1 96 5e bd ea ca 4b be eb 20 bc bc
       -0.02429767 -0.054343108 -0.19901624 -0.022964915
000090 27 a3 fe 3d 00 1d a8 3d ad 72 21 3e e8 6c 8c bd
       0.124334626 0.08208656 0.15766402 -0.0685671
0000a0 c1 49 1a 3d da 4f 22 3e f2 69 4c bd e9 ba 82 3d
       0.037667993 0.15850773 -0.049905725 0.063833065
0000b0 c8 73 1b bd c3 4b 75 bd 90 ea d3 bd dd e6 39 be
       -0.037952214 -0.059886705 -0.103474736 -0.18154474
0000c0 5b 0f 36 bd 07 ec e2 3d c5 71 85 bd c8 e9 2c 3e
       -0.044448238 0.11080175 -0.065158404 0.16886055
0000d0 94 5a a2 3d f4 1f 85 3c f3 9a c2 bd 30 2e 61 3d
       0.07927433 0.016250588 -0.095022105 0.05497569
0000e0 eb 67 05 be 1d b7 39 3c cd e0 a1 be 12 f9 5e 3d
       -0.13027923 0.0113351615 -0.31616822 0.05443675
0000f0 81 90 1f 3e e4 9d 81 3e e3 15 1e 3e 16 df b6 3d
       0.15582468 0.25315773 0.15438037 0.08929269
000100 c7 ff d5 bc 5c d6 bb bd 9b 12 8e 3c 39 a5 54 3c
       -0.02612294 -0.09171745 0.017342856 0.012978845
000110 b0 c4 1b bd 60 0c a5 bc 2e 4a 15 bc 9b 95 e9 b9
       -0.038029373 -0.020147502 -0.009111924 -0.00044552688
000120 d4 46 66 bd 1e 0d 82 3d 4e 08 20 3e d5 51 cc 3c
       -0.05621989 0.06350158 0.15628168 0.024941364
000130 b4 89 8d 3a 55 ec ad bd 03 33 bc ba 4e 33 45 3b
       0.0010798485 -0.084923424 -0.0014358464 0.0030090394
000140 c6 05 a0 bc 44 83 82 3d a6 ed 7d 3c b3 dc 23 3d
       -0.019534003 0.06372693 0.015498554 0.040005397
000150 ac 45 7c be 6c 3e 7b 3f 31 04 26 3d db e3 ae be
       -0.24635953 0.98142123 0.04053134 -0.34158215
000160 20 5d 11 be dd 1f 2d 3c 7d 9a 22 3c 71 46 e2 bd
       -0.1419568 0.010566679 0.009924528 -0.11048592
000170 b0 76 d0 bd 01 1d 63 3e 4d c5 b3 3b e5 9c 2d 3c
       -0.10178888 0.22179033 0.0054861666 0.010596489
000180 e6 c8 18 be 0f 84 f2 bb a8 21 d7 3d 6f 9a b1 bc
       -0.14920387 -0.0074009965 0.10504466 -0.021680085
000190 d2 43 02 3d 50 ed 1f 3c 38 0e ea bc e5 0a dd 3d
       0.03180296 0.00976117 -0.028571233 0.107930936
0001a0 e1 2e fe 3b 21 c9 d6 3c 46 75 77 3c 0f 75 02 be
       0.0077570532 0.026218953 0.015103644 -0.12739967
0001b0 f0 a2 e7 3d 24 0d bc 3d cf 1d 02 3e f1 ed 24 bd
       0.11310375 0.09182194 0.12706684 -0.04026598
0001c0 86 ae 5e bd b0 09 dd 3e 37 93 be bc 96 3f 98 bc
       -0.054365657 0.43171453 -0.023263557 -0.018585008
0001d0 ec 9c 2b be ea 4d 7a 3d 2f e6 81 3a 17 fc 4a be
       -0.1675908 0.06110946 0.0009910519 -0.19822727
0001e0 12 6e 12 3c bf 35 06 bf a5 9e a6 bc 29 61 bf bb
       0.008937376 -0.5242576 -0.02033932 -0.00584044
0001f0 35 6a 81 bd dc 23 18 be 28 f9 80 be 2a ce 48 bc
       -0.063190855 -0.1485743 -0.2519009 -0.012256185
000200 2a 05 51 3f 9c cf df bd af 21 bf bd 37 0d 31 bd
       0.81648505 -0.1092827 -0.093325965 -0.043225493
000210 65 dc 33 be 59 19 51 3d 82 c6 06 3d 1f 74 59 ba
       -0.17564543 0.051049564 0.032904156 -0.00082951965
000220 fc 47 c0 3d 05 a6 17 be b0 d2 25 3e 53 f5 14 3f
       0.0938873 -0.14809425 0.16193652 0.58186835
000230 3d ee 46 3f 81 a5 2b be b6 94 57 bd bf e6 8a bd
       0.7770727 -0.16762353 -0.052632056 -0.067822926
000240 97 52 67 be 80 4f 1b bd 82 23 2d bd 6f fc 11 bf
       -0.225901 -0.037917614 -0.04227019 -0.5702581
000250 30 d3 88 3b cb 73 03 bd 2a bf d3 3c 43 9d 2e 3e
       0.004175566 -0.03209285 0.02584799 0.17052178
000260 ba 9e 56 3d a8 00 e7 3f d6 39 64 be 42 58 3b 3e
       0.052397467 1.8047075 -0.22287688 0.18295386
000270 f3 db 7d be 6c 37 a8 3d 3c 92 89 3c be c4 8a be
       -0.24790935 0.08213696 0.016793363 -0.27103227
000280 a1 71 77 3d 10 c4 77 be 62 f6 bb 3c 95 6c 23 bd
       0.0604111 -0.24195886 0.022944633 -0.039898474
000290 7e 84 e4 3f b1 dd 3b bf 93 2c b1 3f 47 b7 c8 bd
       1.7852933 -0.7338515 1.3841728 -0.098005824
0002a0 76 de bc bc 0d 55 68 be 1d 1b 0d 3f 35 ca 91 bd
       -0.023055296 -0.22688694 0.55119497 -0.07118646
0002b0 78 f0 95 3d be b6 96 be b4 c8 1b 3d ba 06 a4 be
       0.073212564 -0.29436296 0.038033202 -0.32036382
0002c0 81 2e 13 3e bd fe 82 3e 18 66 30 3d dc 52 8e 3e
       0.14373209 0.25584975 0.043066114 0.27797592
0002d0 89 e7 0f be 3f 0a de 3d 0d 76 bf be 5c 89 0c 3e
       -0.14053167 0.10841798 -0.37394753 0.13724273
0002e0 dd 1c 88 be c8 b9 53 3e 50 b9 15 3f 96 49 51 bf
       -0.2658452 0.20676339 0.5848589 -0.8175291
0002f0 12 46 49 be 88 f3 3f be c9 64 a5 be b3 2e c5 be
       -0.19655636 -0.18745244 -0.32303455 -0.3851219
000300 5e 19 2f 3b 68 23 75 3e d5 3b 3a 3e 8e 97 d2 bb
       0.0026718 0.23939288 0.18186887 -0.006426758
000310 c1 af 21 3d 1f 43 15 bd 34 26 bb 3b 9d 56 dc b9
       0.039474253 -0.036440965 0.0057113413 -0.00042026202
000320 0b 27 30 3e 85 6c 9b 3e c3 d2 ba bb 40 81 0c 3d
       0.17202394 0.3035623 -0.0057013943 0.03430295
000330 28 de bb 39 3f 41 9e 3e 64 59 8a 3d fb ef 9a 3d
       0.0003583294 0.30909154 0.06755331 0.07565304
000340 f9 07 9f 3e c4 05 4e bd 96 92 bb 3e cf c4 47 bc
       0.3106077 -0.050298467 0.36635274 -0.012192919
000350 0d 00 3a be 5d a9 83 3a a0 29 ae 3d 94 6c c7 bb
       -0.18164082 0.0010044981 0.08504033 -0.0060859416
000360 fd e9 27 3e 0d 91 ab 3b de 3d 43 3d b9 37 4b 3e
       0.16397853 0.0052357973 0.047666423 0.19845475
000370 ce 64 3c bd 9b d7 16 3c c3 90 80 3a 47 02 90 bb
       -0.045994572 0.009206678 0.0009808767 -0.0043948027
000380 79 43 24 bc 9c 53 4d 3d d6 26 80 3d cf cd a0 3d
       -0.010025852 0.050128564 0.06257407 0.07851755
000390 72 12 44 3e ce e7 2e bc b9 45 26 be 44 8a bc bd
       0.19147661 -0.010675384 -0.16237535 -0.092060596
0003a0 89 da 63 bc 4a fc 00 bb 0a e6 d1 3b 63 f7 8f bc
       -0.013907083 -0.0019681626 0.0064055966 -0.017574018
0003b0 29 48 8c 3d d7 41 01 be 78 5c 18 3e 11 24 08 bd
       0.06849701 -0.12622772 0.14879024 -0.03323752
0003c0 46 72 3c 3e cd ae bc bd e9 67 e8 3d 39 14 bb 3c
       0.18402967 -0.09213028 0.11347944 0.022836791
0003d0 29 04 05 be 12 1f 4e bc 9d e1 70 bd ce f2 79 3d
       -0.12989868 -0.01258065 -0.05880891 0.061022572
0003e0 98 03 f3 3c 05 5d dd bd 8f 3e 33 3c fe a8 b2 bc
       0.0296648 -0.10808758 0.010940208 -0.021809097
0003f0 bb 79 26 bd 19 d1 db bd b9 12 06 3d 1d d3 ec bc
       -0.040643435 -0.107332416 0.0327327 -0.02890926

net.4.bias f4 [5]
000000 86 1e de bc fa 54 78 be 58 4f 3c be da 97 31 be
       -0.027114164 -0.24251166 -0.18389642 -0.17343083
000010 6b 2c c6 bd
       -0.09676441
