data_augmented/checkpoints/generator_epoch96.pth (torch, 25068 bytes, 6 tensors)

net.0.weight f4 [64, 16]
-0.17322119 -0.06281528 0.09393237 0.16679642 -0.28780746 0.11618565 0.1932451 0.06937424
0.022349529 0.20204264 -0.10498829 0.08933666 -0.19105476 0.16111173 -0.18238288 0.04671251
0.19815534 -0.08736805 -0.11318123 -0.008543171 0.14863546 0.08419336 -0.21189642 -0.013913938
-0.093451984 -0.09693074 0.12260056 0.15706624 0.121492825 0.11567371 0.14439751 0.20161232
-0.40414503 0.03935205 0.19988827 0.15123558 0.090294786 0.14098538 0.23715249 -0.14080976
0.016255528 0.03044989 -0.16759616 -0.28854576 -0.08631454 -0.25044122 -0.33065933 -0.36542186
-0.084038235 0.04880019 -0.1415949 -0.07535641 0.08038265 -0.126535 0.13164312 -0.25307375
-0.17606565 0.053989064 0.16983952 0.1437989 0.094441466 -0.086431794 -0.12296403 0.16796534
-0.016719949 -0.01722439 0.018711666 0.08429458 0.012522833 0.14138654 -0.018487737 -0.016073989
-0.032211814 -0.011185719 0.02687211 0.08753936 -0.020004012 0.0726229 0.00083005324 0.09609946
-0.41046485 0.14155024 0.23163526 0.071868345 -0.20011725 -0.058936045 0.37184364 -0.025159055
0.11566894 0.1428101 -0.1961142 -0.25656304 -0.19268747 -0.194564 -0.2900288 -0.32550433
-0.15742609 0.098178364 0.15309358 -0.0032292567 -0.20955117 -0.10112318 0.21077888 0.09068677
0.17868358 0.11698314 -0.19233324 -0.23112506 -0.17876396 -0.12774152 -0.13730553 -0.2868434
0.5641967 -0.18200491 -0.350693 -0.20998883 -0.7660391 -0.574601 -0.06613259 0.4575635
0.08888651 0.41681913 0.035152294 0.45493454 -0.12379078 0.52038664 0.24366075 0.4042475
-0.07973967 -0.12792984 -0.029986134 0.016377632 -0.697808 -0.4059884 0.3442651 0.27400428
0.15063377 0.5174435 -0.2630425 -0.01122256 -0.30210626 0.13986343 -0.30515635 -0.18958284
0.11250356 0.001859233 -0.023167253 -0.02649223 0.18918966 0.09151121 -0.16021211 -0.025803233
-0.02469807 -0.1475617 0.06207204 0.008440439 0.09633601 -0.0068989596 0.13757242 0.058079973
0.53047174 -0.17947303 -0.33140057 -0.19316286 -0.7348704 -0.54764336 -0.055849407 0.43598956
0.084320344 0.4077284 0.02438381 0.42633918 -0.122383654 0.4922077 0.21504796 0.37022817
-0.13415998 -0.11705582 -0.0037318058 0.032086253 -0.69704795 -0.3971359 0.38339153 0.2606487
0.15552007 0.52675956 -0.28713056 -0.050920013 -0.31699076 0.109112635 -0.34888378 -0.23882726
0.09602722 0.42995167 0.12577954 -0.22833413 0.0018640311 -0.05782885 -0.04640964 0.011997454
0.09647375 -0.29148918 0.24265632 0.12469537 0.04728588 0.011996132 0.48690397 0.37180504
-0.44221532 0.1345424 0.2457146 0.09537385 -0.13501057 -0.006821159 0.3612828 -0.057015955
0.100294575 0.11668978 -0.20044659 -0.28829673 -0.17931044 -0.2289111 -0.31879276 -0.36049148
-0.24645878 -0.654253 -0.14905855 0.39801648 0.09418816 0.17188452 0.102101006 -0.09043185
-0.16139413 0.42093194 -0.4028431 -0.27234054 -0.06183918 -0.10011674 -0.8290573 -0.66070676
0.02017105 -0.10916095 -0.052788574 0.036895342 -0.06549543 -0.03586457 0.01585395 0.037522294
-0.016577022 0.10475012 -0.061906755 -0.0016218367 -0.02199887 0.030107317 -0.10215469 -0.06316596
00000000: e560 31be 4ca5 80bd 9d5f c03d aecc 2a3e
00000010: 805b 93be bef2 ed3d 0be2 453e 1514 8e3d
00000020: 5c16 b73c 44e4 4e3e 1a04 d7bd 24f6 b63d
00000030: dca3 43be 79fa 243e 94c2 3abe 9e55 3f3d
00000040: 3ce9 4a3e 05ee b2bd 90cb e7bd a8f8 0bbc
00000050: e533 183e 916d ac3d 60fb 58be 49f7 63bc
00000060: c163 bfbd a083 c6bd 0116 fb3d f9d5 203e
00000070: 3bd1 f83d 57e6 ec3d f1dc 133e 7673 4e3e
00000080: 19ec cebe 9d2f 213d 83af 4c3e 80dd 1a3e
00000090: 79ec b83d 795e 103e 1ad8 723e 6f30 10be
000000a0: 502a 853c 0c72 f93c 549e 2bbe 45bc 93be
000000b0: adc5 b0bd d539 80be 2e4c a9be 9318 bbbe
000000c0: 3d1c acbd b5e2 473d 41fe 10be 7654 9abd
000000d0: a99f a43d 6492 01be 74cd 063e e292 81be
000000e0: 8e4a 34be a323 5d3d 69ea 2d3e 0540 133e
000000f0: 876a c13d 2703 b1bd 91d4 fbbd 1bff 2b3e
00000100: 46f8 88bc 2a1a 8dbc 3549 993c a3a2 ac3d
00000110: 922c 4d3c a2c7 103e 9873 97bc 99ad 83bc
00000120: 89f0 03bd 4e44 37bc e622 dc3c d647 b33d
00000130: 74df a3bc 51bb 943d ee97 593a cbcf c43d
00000140: 7328 d2be 8cf2 103e cb31 6d3e b62f 933d
00000150: 89eb 4cbe ec66 71bd 4a62 be3e 5d1a cebc
00000160: d6e3 ec3d d03c 123e 29d2 48be 3b5c 83be
00000170: dd4f 45be c93b 47be a87e 94be 81a8 a6be
00000180: 4e34 21be bd11 c93d 90c4 1c3e f0a1 53bb
00000190: 9594 56be ab19 cfbd 6bd6 573e fcb9 b93d
000001a0: d4f8 363e db94 ef3d 01f3 44be 0cac 6cbe
000001b0: e60d 37be acce 02be d299 0cbe 23dd 92be
000001c0: 326f 103f 7f5f 3abe 088e b3be 5007 57be
000001d0: 231b 44bf 0d19 13bf 8670 87bd c345 ea3e
000001e0: 210a b63d 5169 d53e dafb 0f3d 2eed e83e
000001f0: 0586 fdbd 0f38 053f 3482 793e 87f9 ce3e
00000200: 8d4e a3bd 0a00 03be 7ba5 f5bc 622a 863c
00000210: 8ca3 32bf b6dd cfbe 8443 b03e 4a4a 8c3e
00000220: bd3f 1a3e 2d77 043f 82ad 86be d4de 37bc
00000230: acad 9abe 5c38 0f3e 743d 9cbe 0122 42be
00000240: 4468 e63d 82b1 f33a 40c9 bdbc 3c06 d9bc
00000250: efba 413e 3b6a bb3d a50e 24be 4d61 d3bc
00000260: 9b53 cabc 6a1a 17be 403f 7e3d c449 0a3c
00000270: d04b c53d ab10 e2bb c9df 0c3e 44e5 6d3d
00000280: ffcc 073f c7c7 37be 56ad a9be 7ccc 45be
00000290: 7720 3cbf 5b32 0cbf 59c2 64bd 063a df3e
000002a0: 25b0 ac3d c7c1 d03e 8ec0 c73c 2149 da3e
000002b0: 48a4 fabd a602 fc3e 8835 5c3e 8c8e bd3e
000002c0: 3c61 09be f6ba efbd 5091 74bb e06c 033d
000002d0: bc71 32bf 6655 cbbe e54b c43e bf73 853e
000002e0: a740 1f3e b7d9 063f c702 93be 8191 50bd
000002f0: 9d4c a2be 7276 df3d e5a0 b2be 228f 74be
00000300: eba9 c43d a022 dc3e 5acc 003e 6cd0 69be
00000310: 8152 f43a f2dd 6cbd 0918 3ebd f890 443c
00000320: 0894 c53d 123e 95be e67a 783e 4960 ff3d
00000330: d7ae 413d 6d8b 443c 7a4b f93e 3b5d be3e
00000340: 0c6a e2be 7cc5 093e 9c9c 7b3e 5d53 c33d
00000350: 3640 0abe 0784 dfbb 0ffa b83e 9089 69bd
00000360: 3e67 cd3d 0dfb ee3d df41 4dbe a19b 93be
00000370: 289d 37be ac67 6abe ce38 a3be 5792 b8be
00000380: b15f 7cbe 207d 27bf cea2 18be d1c8 cb3e
00000390: b9e5 c03d 7f02 303e 551a d13d 5534 b9bd
000003a0: 8144 25be 6484 d73e 7341 cebe 3870 8bbe
000003b0: 144b 7dbd 010a cdbd 193d 54bf 1424 29bf
000003c0: c23d a53c c78f dfbd d538 58bd 921f 173d
000003d0: 7822 86bd bae6 12bd 25e0 813c fab0 193d
000003e0: 89cc 87bc 3b87 d63d f091 7dbd cf93 d4ba
000003f0: f936 b4bc 9fa3 f63c 7a36 d1bd 285d 81bd

net.0.bias f4 [64]
0.01084022 0.77914053 0.68301 0.60200137 0.25511858 -0.40705356 -0.684598 -0.55151856
0.3315227 0.6339977 -0.53793204 0.3152381 -0.16839415 -0.11776896 0.1840149 0.6371953
0.30347255 -1.0070024 0.46476692 0.7481844 0.26971376 -0.979851 0.37884668 -0.97711915
0.4825669 -0.16966623 -0.41894752 -0.3964349 -0.5890804 0.018938567 0.63423485 0.015923386
-0.895423 -0.31682196 -0.9575811 0.70493346 0.53140783 -0.8420868 0.5176389 -0.12014231
-0.44476756 -0.39114162 -0.077959396 0.054493662 0.27204385 0.89495164 -0.33123168 -0.84467375
-0.9840561 0.8067757 0.06319559 -0.39301154 -0.839946 0.053578414 -0.53811264 -0.16179553
-0.28063697 0.42876688 0.6254603 -0.7771872 0.55775875 -0.89664847 0.62333703 0.17363581
00000000: 2e9b 313c c175 473f bed9 2e3f c31c 1a3f
00000010: e79e 823e 5369 d0be d141 2fbf 5230 0dbf
00000020: 58bd a93e ac4d 223f eab5 09bf e366 a13e
00000030: 846f 2cbe da30 f1bd 676e 3c3e 3b1f 233f
00000040: c160 9b3e 74e5 80bf eef5 ed3e 0389 3f3f
00000050: ec17 8a3e 84d7 7abf 31f8 c13e 7b24 7abf
00000060: 0213 f73e fcbc 2dbe 4a80 d6be 84f9 cabe
00000070: f9cd 16bf 0e25 9b3c 375d 223f c371 823c
00000080: 713a 65bf 7d36 a2be 0924 75bf 8576 343f
00000090: 580a 083f 0093 57bf fc83 043f 2c0d f6bd
000000a0: 93b8 e3be b743 c8be 2da9 9fbd bf34 5f3d
000000b0: 5549 8b3e 8d1b 653f 3397 a9be 8a3c 58bf
000000c0: 1aeb 7bbf da88 4e3f b16c 813d cf38 c9be
000000d0: b306 57bf 0a75 5b3d c0c1 09bf baad 25be
000000e0: a6af 8fbe 5587 db3e 2b1e 203f bef5 46bf
000000f0: 47c9 0e3f c18a 65bf 0493 1f3f 96cd 313e

net.2.weight f4 [64, 64]
-0.0065839924 0.37683296 0.0898645 0.09181915 0.062455915 -0.21147619 -0.03831168 -0.4068169
-0.1487586 0.15662579 -0.3040793 0.45065948 0.09457543 0.19636627 -0.39095512 0.16544004
0.084573284 0.004506188 0.1732135 0.26592132 0.08485295 -0.13568735 -0.14862198 -0.061233774
0.22097136 -0.06659475 -0.0810534 0.1473735 -0.58297485 -0.057800554 -0.008908106 0.22897138
0.09366289 -0.0698942 -1.3556364 0.094303876 0.04945983 -0.055091325 0.050885867 0.10842596
-0.21751168 -0.3182008 0.1073611 0.1084561 0.35277292 0.25091326 0.22847147 0.06022503
0.1213814 0.049427398 0.18746202 0.04250106 0.16933823 0.32135138 -0.20519854 -0.054796025
-0.037473734 0.16026387 0.013592224 0.22312103 0.24305671 0.035937898 -0.06261712 -0.02489434
-0.2207447 -0.1052638 -0.20834099 -0.22287607 -0.08595224 0.057273895 0.116109595 -0.1317524
0.07082758 -0.12744331 -0.054597765 -0.022425365 -0.08764222 0.018202657 -0.13189301 -0.20589195
-0.18604477 0.060482156 -0.124731846 -0.2650119 -0.13791011 0.18649939 0.017921222 0.09734549
-0.18277565 -0.1467565 -0.03282284 -0.01855302 -0.13057306 -0.13295533 -0.18881091 0.123586684
-0.03707741 0.05046597 0.005445824 -0.15050551 -0.15746742 0.14104879 -0.2036589 0.11662871
-0.05761685 -0.032769866 0.15717454 -0.017919075 -0.047257643 -0.25582266 -0.11040568 0.083818115
0.15619949 -0.16730446 0.046675034 -0.052764602 0.07482286 -0.013953773 0.06652316 -0.1318062
-0.00050483755 -0.14261298 -0.057275034 -0.02753351 -0.0016197365 -0.064508125 -0.16378993 -0.24810721
-0.19727434 -0.24602012 -0.022572853 -0.2823538 -0.09436844 0.08304534 -0.046102524 -0.13164154
-0.038213216 -0.10412385 -0.00653621 0.0774511 -0.12018959 0.06470821 -0.21984199 -0.06270434
-0.04739606 0.046095047 -0.06501843 -0.12663466 -0.1088514 0.05509493 -0.07308063 0.11077707
-0.15642273 -0.09741175 0.10964617 -0.12179395 -0.034427997 -0.22389886 -0.11096458 -0.078355774
-0.046214484 0.029983329 -0.0013195851 -0.07956133 -0.11119494 0.15114254 -0.14336841 0.06571499
-0.00736259 0.12054082 -0.03690299 -0.017982043 -0.06910056 -0.14083627 0.043372985 0.14197598
-0.03590744 -0.10157678 -0.014579927 -0.06622619 0.0038540005 -0.03179094 -0.07755613 -0.097205125
0.0036386321 -0.14553683 -0.056578744 0.031607464 -0.19539319 0.02711798 -0.2827496 -0.16690694
-0.6126382 0.14374025 0.02079681 0.021222396 -0.5515145 -0.10301693 -0.060540486 -0.018727763
-0.024022678 -0.023287049 0.13526699 0.12781931 -0.088888496 -0.05587058 0.06894637 0.11280729
-0.70579785 0.103959925 0.13930844 0.13301808 -0.066113174 -0.032220162 0.010964665 0.16472396
0.14157677 0.052925892 -0.14341089 -0.039067212 -0.10513957 0.06335634 0.016552508 -0.10546728
-0.003997496 -0.32022044 0.03440596 0.076718 -0.0073604495 0.45040795 0.02874813 -0.01612305
-0.03444419 0.077937014 -0.073293164 0.24048191 -0.115603514 -0.03952473 0.0507018 0.24635626
-0.039465528 0.203759 0.06592535 0.11980864 -0.0006419645 -0.09760265 -0.024449363 -0.14330749
-0.062147 0.09318707 0.014483047 -0.0071372828 0.107003875 0.11386002 0.2328966 -0.13735148
00000000: 88be d7bb 40f0 c03e e10a b83d ae0b bc3d
00000010: c6d1 7f3d 378d 58be b5ec 1cbd 4e4a d0be
00000020: 2d54 18be 8362 203e 48b0 9bbe d7bc e63e
00000030: c3b0 c13d 3d14 493e 452b c8be 1d69 293e
00000040: c234 ad3d a5a8 933b e15e 313e d726 883e
00000050: 62c7 ad3d a0f1 0abe 5c30 18be 44d0 7abd
00000060: 5146 623e d462 88bd 53ff a5bd 14e9 163e
00000070: d73d 15bf 46c0 6cbd 4ef3 11bc 7977 6a3e
00000080: 54d2 bf3d b124 8fbd 7e85 adbf 6422 c13d
00000090: 6496 4a3d 71a7 61bd b36d 503d 6e0e de3d
000000a0: 62bb 5ebe 37eb a2be 23e0 db3d 3b1e de3d
000000b0: a79e b43e b477 803e 6df4 693e 85ae 763d
000000c0: d096 f83d 6274 4a3d 0bf6 3f3e 9715 2e3d
000000d0: 0067 2d3e 2b88 a43e 911f 52be cc71 60bd
000000e0: 0f7e 19bd 361c 243e ebb1 5e3c d779 643e
000000f0: dce3 783e 9e33 133d 683d 80bd 37ef cbbc
00000100: e60a 62be 8c94 d7bd 5757 55be a039 64be
00000110: ba07 b0bd 0898 6a3d deca ed3d 1aea 06be
00000120: 0d0e 913d 8080 02be e8a1 5fbd 66b5 b7bc
00000130: c47d b3bd bd1d 953c f60e 07be 57d5 52be
00000140: 8582 3ebe 23bc 773d 6973 ffbd a4af 87be
00000150: 4f38 0dbe b2f9 3e3e 87cf 923c 125d c73d
00000160: 8a29 3bbe 5647 16be 3e71 06bd 81fc 97bc
00000170: f2b4 05be 7125 08be a657 41be 041b fd3d
00000180: 7bde 17bd 68b5 4e3d e272 b23b 1e1e 1abe
00000190: 243f 21be 186f 103e f58b 50be 08db ee3d
000001a0: a5ff 6bbd b239 06bd 5df2 203e 06cb 92bc
000001b0: 3b91 41bd 30fb 82be 601c e2bd d5a8 ab3d
000001c0: c2f2 1f3e dc51 2bbe 522e 3f3d b21f 58bd
000001d0: ba3c 993d 5e9e 64bc 4b3d 883d 34f8 06be
000001e0: 1357 04ba 2309 12be 3a99 6abd f58d e1bc
000001f0: 574d d4ba d61c 84bd 8cb8 27be d10f 7ebe
00000200: 4902 4abe b3ec 7bbe b4ea b8bc ad90 90be
00000210: 3e44 c1bd ad13 aa3d 00d6 3cbd 0acd 06be
00000220: 7685 1cbd e33e d5bd b42d d6bb af9e 9e3d
00000230: f625 f6bd bd85 843d 421e 61be 226b 80bd
00000240: 5f22 42bd 29ce 3c3d 6228 85bd 84ac 01be
00000250: 7ced debd 39ab 613d 4cab 95bd 17df e23d
00000260: 482d 20be d07f c7bd 2c8e e03d 1b6f f9bd
00000270: 5f04 0dbd be45 65be 6641 e3bd fe78 a0bd
00000280: 664b 3dbd 999f f53c eef5 acba 0df1 a2bd
00000290: 2cba e3bd 1cc5 1a3e 2bcf 12be 9595 863d
000002a0: e241 f1bb 1bde f63d 9727 17bd 144f 93bc
000002b0: 9884 8dbd 6237 10be dfa7 313d 2762 113e
000002c0: ae13 13bd 7d07 d0bd a5e0 6ebc 99a1 87bd
000002d0: 6693 7c3b 3737 02bd c0d5 9ebd 7b13 c7bd
000002e0: 1e76 6e3b 9b07 15be 1dbf 67bd d476 013d
000002f0: 2715 48be 8726 de3c 8ec4 90be a7e9 2abe
00000300: dbd5 1cbf a530 133e 125e aa3c 97da ad3c
00000310: 0e30 0dbf 8afa d2bd 4df9 77bd f76a 99bc
00000320: 35cb c4bc 7bc4 bebc 6e83 0a3e 11e3 023e
00000330: 2c0b b6bd 8dd8 64bd c133 8d3d 8207 e73d
00000340: 2baf 34bf f1e8 d43d dfa6 0e3e e435 083e
00000350: 5866 87bd 4af9 03bd 23a5 333c 66ad 283e
00000360: 80f9 103e d2c8 583d 4eda 12be f104 20bd
00000370: 6a53 d7bd f8c0 813d 2099 873c 3bff d7bd
00000380: 6dfd 82bb eff3 a3be 44ed 0c3d 541e 9d3d
00000390: ed2f f1bb df9b e63e 3381 eb3c 7d14 84bc
000003a0: 5a15 0dbd 719d 9f3d ba1a 96bd e440 763e
000003b0: 89c1 ecbd afe4 21bd b1ac 4f3d d144 7c3e
000003c0: 9ba6 21bd 33a6 503e df03 873d 3b5e f53d
000003d0: 8249 28ba e6e3 c7bd 084a c8bc 33bf 12be
000003e0: da8d 7ebd ddd8 be3d 4d4a 6d3c dedf e9bb
000003f0: d924 db3d 712f e93d 727c 6e3e dea5 0cbe

net.2.bias f4 [64]
0.3963314 -0.09382814 -0.13474062 0.19145964 -0.054814596 0.15140685 0.265077 0.02151703
-0.29476193 -0.23788197 -0.097553015 0.166483 0.30049086 -0.36063325 -0.25508243 -0.14319572
-0.23316726 0.03687068 -0.26270014 -0.1280548 0.31748387 0.57313067 -0.1835371 0.17415443
0.01562539 0.23869333 -0.007429766 -0.1923016 0.32280838 -0.116967 0.2156018 -0.019781303
0.09937995 0.1453269 -0.071093746 -0.10512665 -0.031254165 -0.000443928 0.16592175 0.077900626
0.12771024 0.07277686 -0.14365193 0.014128179 0.050550304 0.33262375 -0.083230935 0.15678503
-0.21200514 -0.016386488 -0.1385547 0.20972626 0.36327833 -0.10063547 0.24251516 -0.18054186
0.1103665 -0.09813472 -0.049974304 0.28719604 0.15418789 0.30053157 0.10826714 -0.03173114
00000000: f3eb ca3e f828 c0bd 72f9 09be ff0d 443e
00000010: 4585 60bd 660a 1b3e 2cb8 873e 7c44 b03c
00000020: 09eb 96be 5597 73be e0c9 c7bd 857a 2a3e
00000030: f0d9 993e eca4 b8be 2a9a 82be e6a1 12be
00000040: 66c3 6ebe b605 173d a280 86be cc20 03be
00000050: 3f8d a23e b1b8 123f 26f1 3bbe 8a55 323e
00000060: d100 803c 066c 743e 6575 f3bb b6ea 44be
00000070: 2447 a53e 658c efbd b8c6 5c3e 660c a2bc
00000080: b787 cb3d 93d0 143e 9999 91bd a44c d7bd
00000090: 5e04 00bd 02bf e8b9 64e7 293e 5d8a 9f3d
000000a0: 79c6 023e 090c 953d 7e19 13be e179 673c
000000b0: d60d 4f3d a94d aa3e fb74 aabd 418c 203e
000000c0: e017 59be f53c 86bc 49e1 0dbe 7bc2 563e
000000d0: 9eff b93e f819 cebd e555 783e f7df 38be
000000e0: d507 e23d dbfa c8bd dbb1 4cbd 5c0b 933e
000000f0: 6ee3 1d3e 46df 993e 2abb dd3d 83f8 01bd

net.4.weight f4 [5, 64]
0.025791477 0.115885265 -0.1890913 -0.9125012 -0.03470826 -0.029085223 -1.0275074 -0.8412743
-0.010574566 0.06849212 0.1464151 -0.0838496 0.06541778 -0.0644493 -0.098265655 -0.008979579
0.06761306 0.08522972 0.12379433 -0.067373395 0.15629512 0.0774139 -0.17675795 0.39460906
0.03371178 0.71471673 -0.06548836 -0.05099339 0.1273279 0.07319471 0.48686835 -0.05918054
-0.012613004 -0.062151354 -0.19901624 -0.022964915 0.18029906 0.064977154 0.17580098 -0.0685671
0.022234185 0.124564394 -0.010052211 0.063833065 -0.048390813 -0.04475569 -0.103474736 -0.29186893
-0.040606637 0.184378 -0.065158404 0.1945626 0.059812248 0.016250588 -0.16573577 0.09128969
-0.10752416 0.06281241 -0.32054195 0.04725512 0.16105552 0.25285795 0.16608341 0.16944945
-0.02197154 -0.09171745 0.017342856 0.0041547758 -0.03420529 -0.014988077 -0.00079884205 -0.0023284988
-0.05621989 0.06350158 0.14513525 0.021973277 -0.006118561 -0.079208806 -0.006949513 0.0038089473
-0.019534003 0.06372693 0.015498554 0.046233706 -0.24622235 1.0631671 0.05938306 -0.3492102
-0.1419568 0.0030315937 0.009474977 -0.11048592 -0.09938612 0.20200379 0.012672979 0.014983416
-0.13917813 -0.0011430135 0.10504466 -0.021680085 0.035127617 0.0012144898 -0.034136042 0.107930936
0.0052828398 0.02427121 0.012960754 -0.12739967 0.10600029 0.10199273 0.12706684 -0.016113011
-0.05524908 0.43504396 -0.023263557 -0.02786332 -0.1697723 0.06110946 0.01359967 -0.19887932
0.00627621 -0.5278009 -0.009300209 -0.0040116278 -0.055117425 -0.14637922 -0.26406834 -0.0009963473
0.8183185 -0.1092827 -0.093325965 -0.028185625 -0.1749536 0.071522936 0.020160127 0.003562082
0.0938873 -0.14809425 0.1824617 0.605442 0.8296054 -0.16142982 -0.04217061 -0.041995738
-0.225901 -0.037917614 -0.04227019 -0.61772543 0.012190219 -0.022994757 0.03827344 0.16572444
0.052397467 2.4896882 -0.26262847 0.18295386 -0.25190806 0.07489216 -0.011598037 -0.27250376
0.073012955 -0.23797682 0.022944633 -0.039898474 1.8236322 -0.7732452 1.4115893 -0.098005824
-0.039626185 -0.23337777 0.56415045 -0.07118646 0.076143004 -0.28438103 0.038033202 -0.32789034
0.1479915 0.2994727 0.043066114 0.33338886 -0.1223169 0.10841798 -0.44666764 0.13398455
-0.3008999 0.23456138 0.71419185 -0.8404719 -0.16967814 -0.18612078 -0.31041092 -0.47608507
0.0016301617 0.23939288 0.18186887 0.00014124741 0.032671288 -0.040384725 0.0012637831 0.0005461473
0.17202394 0.3035623 -0.021251038 0.01607297 0.020592613 0.30277038 0.055352516 0.06048437
0.3106077 -0.050298467 0.36635274 -0.025657536 -0.17533857 0.006284738 0.06953934 -0.004480574
0.16397853 0.0033605425 0.091811046 0.19845475 -0.057926614 -0.0046807583 0.019290702 -0.008490305
-0.004612778 0.053877186 0.06257407 0.07851755 0.17102608 -0.020647684 -0.1830909 -0.092060596
0.003890123 -0.008265932 0.0282767 -0.017574018 0.06732224 -0.124540165 0.14879024 -0.018518094
0.16978425 -0.07508908 0.11347944 0.08254445 -0.104210995 -0.01258065 -0.044682533 0.05564697
0.032082412 -0.098989904 0.066306576 -0.019449027 -0.028305573 -0.10500833 0.01926605 -0.022745192
00000000: a648 d33c 4155 ed3d 26a1 41be ae99 69bf
00000010: 402a 0ebd 2244 eebc 5d85 83bf c15d 57bf
00000020: f240 2dbc 9945 8c3d d7ed 153e 57b9 abbd
00000030: c2f9 853d fffd 83bd 813f c9bd 161f 13bc
00000040: b778 8a3d eb8c ae3d e287 fd3d 10fb 89bd
00000050: d40b 203e 2e8b 9e3d 0900 35be 330a ca3e
00000060: 5d15 0a3d adf7 363f c31e 86bd 72de 50bd
00000070: 3f62 023e 1ce7 953d cf46 f93e 4b67 72bd
00000080: c6a6 4ebc 6b92 7ebd eaca 4bbe eb20 bcbc
00000090: 51a0 383e be12 853d 2c05 343e e86c 8cbd
000000a0: 7724 b63c 9e1b ff3d 07b2 24bc e9ba 823d
000000b0: 7235 46bd be51 37bd 90ea d3bd d86f 95be
000000c0: 2553 26bd 96cd 3c3e c571 85bd 6b3b 473e
000000d0: b0fd 743d f41f 853c a3b6 29be 17f6 ba3d
000000e0: a035 dcbd cba3 803d 131e a4be 968e 413d
000000f0: bdeb 243e 9976 813e c511 2a3e 2884 2d3e
00000100: a9fd b3bc 5cd6 bbbd 9b12 8e3c c924 883b
00000110: d91a 0cbd 8d90 75bc 6269 51ba ba99 18bb
00000120: d446 66bd 1e0d 823d 569e 143e 4d01 b43c
00000130: 367e c8bb 3a38 a2bd beb8 e3bb 889f 793b
00000140: c605 a0bc 4483 823d a6ed 7d3c 8e5f 3d3d
00000150: b621 7cbe dc15 883f a73b 733d aecb b2be
00000160: 205d 11be b4ad 463b ef3c 1b3c 7146 e2bd
00000170: f38a cbbd 15da 4e3e 54a2 4f3c 007d 753c
00000180: b684 0ebe 2bd1 95ba a821 d73d 6f9a b1bc
00000190: fae1 0f3d 842f 9f3a 3cd2 0bbd e50a dd3d
000001a0: ac1b ad3b 6bd4 c63c 5859 543c 0f75 02be
000001b0: ae16 d93d 90e1 d03d cf1d 023e 6fff 83bc
000001c0: dc4c 62bd 15be de3e 3793 bebc 9e41 e4bc
000001d0: cad8 2dbe ea4d 7a3d 26d1 5e3c 05a7 4bbe
000001e0: aaa8 cd3b f61d 07bf e75f 18bc f973 83bb
000001f0: cfc2 61bd 6fe4 15be f733 87be de97 82ba
00000200: 527d 513f 9ccf dfbd af21 bfbd 8ae5 e6bc
00000210: 0927 33be 9e7a 923d da26 a53c d271 693b
00000220: fc47 c03d 05a6 17be 3dd7 3a3e 3ffe 1a3f
00000230: 0561 543f dc4d 25be 17bb 2cbd b903 2cbd
00000240: 9752 67be 804f 1bbd 8223 2dbd 4123 1ebf
00000250: 7cb9 473c 805f bcbc 9cc4 1c3d abb3 293e
00000260: ba9e 563d 0d57 1f40 3d77 86be 4258 3b3e
00000270: 18fa 80be 1061 993d b105 3ebc 9d85 8bbe
00000280: d187 953d 32b0 73be 62f6 bb3c 956c 23bd
00000290: c86c e93f 66f3 45bf f5ae b43f 47b7 c8bd
000002a0: 114f 22bd 95fa 6ebe 2a6c 103f 35ca 91bd
000002b0: ddf0 9b3d 649a 91be b4c8 1b3d 3ee1 a7be
000002c0: 158b 173e 7c54 993e 1866 303d f2b1 aa3e
000002d0: 4881 fabd 3f0a de3d 9fb1 e4be 3f33 093e
000002e0: 8d0f 9abe dc30 703e 47d5 363f 2b29 57bf
000002f0: 1bc0 2dbe 7296 3ebe 2eee 9ebe 6cc1 f3be
00000300: 26ab d53a 6823 753e d53b 3a3e d01b 1439
00000310: 54d2 053d 746a 25bd 86a5 a53a 532b 0f3a
00000320: 0b27 303e 856c 9b3e a816 aebc 76ab 833c
00000330: d7b1 a83c b804 9b3e 52b9 623d 75be 773d
00000340: f907 9f3e c405 4ebd 9692 bb3e c12f d2bc
00000350: f48b 33be 34f0 cd3b a46a 8e3d c7d1 92bb
00000360: fde9 273e 8c3c 5c3b 6e07 bc3d b937 4b3e
00000370: 7544 6dbd 0c61 99bb 8907 9e3c ec1a 0bbc
00000380: c926 97bb 53ae 5c3d d626 803d cfcd a03d
00000390: 7621 2f3e 5525 a9bc 2e7c 3bbe 448a bcbd
000003a0: 6ff1 7e3b d56d 07bc 8aa4 e73c 63f7 8fbc
000003b0: 3ee0 893d ea0e ffbd 785c 183e 42b3 97bc
000003c0: ecdb 2d3e 4ec8 99bd e967 e83d 110d a93d
000003d0: 936c d5bd 121f 4ebc 0805 37bd 14ee 633d
000003e0: d968 033d 38bb cabd becb 873d 9153 9fbc
000003f0: 17e1 e7bc 9b0e d7bd d6d3 9d3c 2054 babc

net.4.bias f4 [5]
-0.0026865557 -0.2655039 -0.17744723 -0.18023725 -0.09736152
00000000: ed10 30bb 21f0 87be bab4 35be 1d90 38be
00000010: 7a65 c7bd
