data_augmented/checkpoints/generator_epoch1.pth (torch, 25058 bytes, 6 tensors)

net.0.weight f4 [64, 16]
0.062129967 -0.19845891 -0.18411471 -0.1386592 0.2754205 0.23419636 -0.04022954 -0.2561531
-0.22318274 0.238374 0.21768801 0.23710929 -0.2259607 0.12975469 0.1853461 0.073002376
0.24128851 0.08426628 -0.19264969 -0.1314757 0.08096989 -0.23262082 -0.10478809 0.21398276
-0.0331758 -0.04957514 0.15001144 -0.14157784 0.20333843 -0.0050469222 0.19858575 0.061950937
-0.16345553 -0.110909194 0.0032612365 -0.18222645 0.13428354 0.24540065 0.08044178 -0.10642183
0.10805475 -0.14197037 -0.10105387 -0.09603649 -0.0595753 0.051842622 -0.18302616 0.020783242
0.077667184 -0.06821157 -0.30530953 0.01717865 0.15502606 -0.015939306 -0.14478387 -0.34019896
-0.30204806 0.046236042 0.3263105 0.111652784 0.28265935 -0.14803356 0.02669876 0.25318247
-0.26113248 -0.19773959 0.060335208 -0.10992141 0.1803333 0.1329376 0.19026975 -0.23919101
-0.15768065 0.11716799 0.099024706 0.19685566 -0.08745595 0.11001321 0.17103925 -0.14406936
0.09561922 -0.068415575 0.15004843 0.11357678 0.25686258 -0.13711742 0.028428715 -0.055329867
-0.30252513 0.059330586 -0.18959105 0.1657435 -0.07963433 -0.28561655 -0.07290755 0.19984832
0.18495838 -0.17678386 0.07608833 0.18007742 -0.26026773 -0.23630506 -0.16930325 0.2897024
0.05812264 -0.24693811 -0.106534824 -0.266575 -0.03406354 0.07767834 -0.29320195 -0.16387725
0.2343422 -0.1244575 0.107175864 -0.17298235 -0.18923187 -0.18751557 -0.2540979 -0.0925693
-0.0805466 -0.041161418 0.102119185 0.13526687 0.2447475 0.03922367 0.2670469 0.13609533
0.06393426 -0.027559547 0.32282558 0.002943104 -0.30949205 -0.29824004 0.2812028 0.32040584
0.3201243 0.2965302 -0.33784842 -0.24529232 0.097732596 0.26398975 -0.015944436 0.041555665
-0.098024175 0.04294459 -0.058900133 0.01816945 -0.12184218 0.23250967 -0.19157451 0.08738545
-0.06619726 -0.23952822 -0.112732045 -0.16638473 0.07314587 0.13696857 0.18643382 -0.20410192
0.28681907 -0.23704165 -0.019103952 -0.020826887 -0.27178445 0.22354047 0.12371602 0.25276482
0.12236015 0.17817384 -0.06553173 0.11477344 0.17779103 0.3108265 -0.26313165 0.18346566
-0.3110105 0.0023409731 -0.2743678 0.013363934 -0.14565195 0.059519395 0.199895 -0.0024973426
-0.034473803 -0.273675 0.25121364 0.16107185 0.19096932 -0.15385507 -0.17793468 0.30889738
-0.05584623 -0.149219 0.02338566 0.11377793 0.13329814 0.17847323 -0.18132567 0.20463468
0.16426623 -0.1384455 0.030949509 -0.21901253 -0.20884973 -0.17293604 0.24215025 0.2383408
-0.10642821 0.11038015 -0.2614238 -0.25510958 -0.12192944 0.006545725 0.009606278 -0.23467264
-0.01441609 0.0017135555 -0.229264 0.09698599 -0.2650222 -0.1784129 -0.10171766 0.07636562
-0.09372826 -0.2325833 -0.086471826 0.079811834 0.24263479 0.07561511 -0.070650116 -0.03882334
-0.15753977 0.14387561 -0.19778797 -0.0641809 -0.0860246 -0.09981406 -0.23869567 -0.18733273
-0.2578279 -0.20947434 -0.22159623 0.15341794 -0.12713678 0.21658951 -0.24963488 0.2686116
0.019480048 -0.06770825 0.17756128 -0.043616354 0.09229247 -0.09152612 0.19385916 -0.24973005
00000000: fe7b 7e3d d038 4bbe 9188 3cbe adfc 0dbe
00000010: ea03 8d3e 2cd1 6f3e bbc7 24bd 8026 83be
00000020: 048a 64be 5018 743e 9be9 5e3e c7cc 723e
00000030: 3e62 67be 6ade 043e 5ecb 3d3e 4582 953d
00000040: 5614 773e cd93 ac3d f645 45be 91a1 06be
00000050: 8bd3 a53d 2734 6ebe 239b d6bd 4c1e 5b3e
00000060: 59e3 07bd 4d0f 4bbd 999c 193e c8f9 10be
00000070: f337 503e a760 a5bb 105a 4b3e 44c0 7d3d
00000080: e360 27be 5c24 e3bd 78ba 553b 9299 3abe
00000090: a081 093e 4f4a 7b3e a9be a43d b0f3 d9bd
000000a0: cf4b dd3d ae60 11be 55f5 cebd c7ae c4bd
000000b0: 3b05 74bd ee58 543d 366b 3bbe 9e41 aa3c
000000c0: f90f 9f3d 82b2 8bbd 8851 9cbe 3dba 8c3c
000000d0: 27bf 1e3e 2693 82bc 3942 14be 8f2e aebe
000000e0: 0ba6 9abe 0162 3d3d 2b12 a73e 37aa e43d
000000f0: bab8 903e 1c96 17be 5cb7 da3c 22a1 813e
00000100: 28b3 85be 3f7c 4abe 0d22 773d 7a1e e1bd
00000110: 4ba9 383e cb20 083e 13d6 423e 7dee 74be
00000120: 0977 21be c5f5 ef3d 77cd ca3d 8894 493e
00000130: 1b1c b3bd 9b4e e13d ea24 2f3e eb86 13be
00000140: 02d4 c33d 771d 8cbd 4ca6 193e f19a e83d
00000150: 7e83 833e 8268 0cbe 56e3 e83c 92a1 62bd
00000160: 93e4 9abe a104 733d 2824 42be aab8 293e
00000170: 5317 a3bd 553c 92be 8e50 95bd 0aa5 4c3e
00000180: bb65 3d3e d406 35be 33d4 9b3d 3766 383e
00000190: d041 85be f4f9 71be d55d 2dbe df53 943e
000001a0: 0112 6e3d 58dd 7cbe ee2e dabd 857c 88be
000001b0: 3686 0bbd d215 9f3d 911e 96be 70cf 27be
000001c0: 67f7 6f3e 93e3 febd 057f db3d 4922 31be
000001d0: 00c6 41be 1504 40be 1f19 82be f994 bdbd
000001e0: 9ef5 a4bd e098 28bd dd23 d13d 6683 0a3e
000001f0: 179f 7a3e 00a9 203d 5fba 883e 935c 0b3e
00000200: f7ef 823d 8fc4 e1bc 6549 a53e 17e1 403b
00000210: be75 9ebe ebb2 98be d0f9 8f3e 3c0c a43e
00000220: 55e7 a33e ced2 973e 78fa acbe e92d 7bbe
00000230: 0728 c83d aa29 873e e89d 82bc 4636 2a3d
00000240: e6c0 c8bd abe6 2f3d 4441 71bd 19d8 943c
00000250: 6588 f9bd 0417 6e3e 1c2c 44be 25f7 b23d
00000260: 6e92 87bd e346 75be 0fe0 e6bd c260 2abe
00000270: 80cd 953d 7d41 0c3e 82e8 3e3e 1800 51be
00000280: f3d9 923e 0cbb 72be e47f 9cbc 269d aabc
00000290: 5527 8bbe cbe7 643e d35e fd3d 646a 813e
000002a0: f597 fa3d 3473 363e 8035 86bd 560e eb3d
000002b0: da0e 363e a724 9f3e 31b9 86be 6cde 3b3e
000002c0: c53c 9fbe 036b 193b f079 8cbe 67f4 5a3c
000002d0: c925 15be 9cca 733d 46b1 4c3e 75aa 23bb
000002e0: 6734 0dbd 211f 8cbe 139f 803e 05f0 243e
000002f0: 768d 433e 2f8c 1dbe 8234 36be cc27 9e3e
00000300: 04bf 64bd decc 18be 4993 bf3c 6704 e93d
00000310: 4f7f 083e b0c1 363e 70ad 39be c18b 513e
00000320: 6835 283e a8c4 0dbe d389 fd3c d244 60be
00000330: b4dc 55be 2516 31be 3cf6 773e 9c0f 743e
00000340: 09f7 d9bd fd0e e23d 57d9 85be b99d 82be
00000350: 24b6 f9bd 857d d63b a663 1d3c 064e 70be
00000360: 7731 6cbc 6299 e03a 2fc4 6abe 97a0 c63d
00000370: fdb0 87be dfb1 36be 5951 d0bd 9465 9c3d
00000380: 9af4 bfbd 512a 6ebe 2418 b1bd 6374 a33d
00000390: 4175 783e 18dc 9a3d 02b1 90bd 3905 1fbd
000003a0: 1b52 21be 2154 133e ee88 4abe 4771 83bd
000003b0: aa2d b0bd 506b ccbd a36c 74be 27d4 3fbe
000003c0: 0502 84be 7180 56be 1fea 62be 9819 1d3e
000003d0: 2530 02be a4c9 5d3e 49a0 7fbe 7687 893e
000003e0: 9f94 9f3c 9faa 8abd a0d2 353e 10a7 32bd
000003f0: d603 bd3d 0c72 bbbd 0483 463e 3cb9 7fbe

net.0.bias f4 [64]
0.029986601 0.17838955 0.1797856 0.17489126 0.06725346 0.04826025 0.0015016526 -0.03697932
0.14957899 -0.050167162 -0.1612007 0.29265094 -0.14267862 0.17021027 -0.20426372 -0.09604682
0.016721487 -0.053725418 -0.048204564 0.25636396 0.010569036 -0.043550827 0.06533597 -0.12294638
0.05752336 -0.013753925 0.29634243 -0.09949752 -0.010551474 0.050227363 0.29784942 -0.1958295
-0.023200499 0.0988127 -0.030810373 0.23424196 0.083668046 0.1193098 0.014954093 0.0822489
0.16776453 0.18407476 0.021385983 0.25020498 -0.118341774 0.20795745 0.10397991 0.08541922
-0.123577714 0.18040076 0.03292926 0.11027442 -0.02194098 -0.062769204 0.1266577 -0.09871167
0.06437507 0.023153856 0.23003721 0.062104367 0.20507178 -0.076136485 0.12295039 -0.028038936
00000000: 76a6 f53c c0ab 363e b719 383e b216 333e
00000010: 2fbc 893d 8aac 453d 1ad3 c43a a177 17bd
00000020: 3c2b 193e 157c 4dbd cc11 25be 58d6 953e
00000030: 581a 12be 9a4b 2e3e 822a 51be 32b4 c4bd
00000040: 80fb 883c 2f0f 5cbd 2672 45bd 2342 833e
00000050: c029 2d3c 5a62 32bd ddce 853d 50cb fbbd
00000060: 9d9d 6b3d 2558 61bc 32ba 973e 5bc5 cbbd
00000070: 17e0 2cbc 35bb 4d3d b87f 983e 8787 48be
00000080: f90e bebc 505e ca3d 0966 fcbc 20dd 6f3e
00000090: 275a ab3d b258 f43d 0302 753c 1c72 a83d
000000a0: 77ca 2b3e 187e 3c3e a831 af3c de1a 803e
000000b0: 2c5d f2bd ccf2 543e 6bf3 d43d 46f0 ae3d
000000c0: 5016 fdbd faba 383e d5e0 063d 8ed7 e13d
000000d0: 92bd b3bc 248d 80bd 8eb2 013e 5829 cabd
000000e0: 14d7 833d 28ad bd3c e08e 6b3e 2661 7e3d
000000f0: 56fe 513e 72ed 9bbd 6acd fb3d e9b1 e5bc

net.2.weight f4 [64, 64]
0.055265512 0.1433031 0.06356304 0.12031909 0.044726305 -0.010175688 0.017211583 -0.004508135
-0.03197543 -0.0028801954 0.02253453 0.089295395 -0.04634476 0.08308952 -0.062514275 0.018358413
0.05080981 -0.07661933 -0.022562418 0.09062003 -0.052699372 -0.083309196 -0.09251757 -0.028987294
-0.030417953 -0.031147756 -0.097906 -0.030546874 0.052936073 0.10953362 -0.055646632 0.09200585
-0.005150898 -0.06072979 -0.008514038 -0.080351435 -0.03511262 -0.060133915 0.022393277 0.09909236
-0.037616074 -0.06644106 -0.030504959 0.038862452 0.008293274 0.12845667 0.05535985 -0.061248977
0.117722966 -0.009696476 0.08253687 -0.014418831 0.13257252 0.041657396 0.0118436245 0.06436782
0.06664862 0.025151245 -0.06951479 0.12953505 0.008138754 -0.055601105 0.021704258 -0.06407181
-0.09249183 0.11357586 -0.066745 -0.06035356 0.058522616 0.0815886 0.06801684 -0.0024422684
0.07612478 0.029898614 -0.08594006 0.0011778497 0.098775044 0.009231552 0.02804548 -0.0983598
-0.07233264 0.029339269 -0.019016817 -0.06639918 -0.0675755 0.10947757 0.13795333 -0.02389196
-0.031774018 -0.08504788 0.021818474 0.03611908 -0.029536897 0.015249029 -0.038233973 0.09810495
-0.0973061 0.10169731 0.10431259 0.017842645 -0.016727349 0.10804073 -0.07746701 0.10791439
0.023344707 -0.0032078866 0.111791134 0.06711411 -0.083514385 -0.097974695 -0.066004075 0.022542108
-0.018336903 -0.0348897 0.10446575 -0.03689081 0.034285013 -0.052110523 0.092921436 -0.03621203
-0.007644447 -0.02460718 0.045433227 -0.032129966 0.11393448 -0.080947004 -0.014182554 -0.03508103
0.033449143 -0.055437412 0.10615542 0.034369994 0.057157688 0.13298917 -0.06797865 -0.005542271
-0.06556104 0.05565707 0.02321986 0.18142661 0.044741765 0.09905888 -0.08401162 0.08868424
0.050927628 0.037928626 0.08454643 0.073914915 -0.021857228 0.0012302892 -0.034487493 0.12673014
-0.065744594 -0.04038035 0.117101885 0.035663143 0.08631445 -0.04111432 0.113335885 0.026919154
-0.08793378 0.19716477 0.13366586 0.100546174 0.10679499 0.12347618 0.04516746 0.08744839
0.044475637 0.1329455 -0.1020528 0.025362402 0.051041014 0.1390629 0.12283334 0.10345263
-0.024195895 0.13114685 0.1134622 -0.08625342 0.019146012 0.068486825 -0.045953374 0.08764989
0.15869722 0.01329832 -0.008931453 -0.025011515 -0.042585995 0.042324863 -0.019283671 -0.0053574825
0.08678886 0.13203003 -0.021915883 0.012219655 0.057796024 0.0688183 -0.02000111 -0.07317866
0.013817514 -0.053612832 0.062241152 0.17665964 -0.0024498769 -0.056420032 0.05959809 0.03096953
-0.030410713 -0.019246902 0.13201137 0.11627236 -0.017430378 -0.016296174 0.02669309 0.11392754
0.12526073 -0.0006413981 -0.06551461 0.13712646 -0.0996336 0.12190047 0.1276733 -0.0856587
-0.024158303 -0.055686165 0.056097537 0.046252035 0.013601874 0.06887755 0.064181395 0.08176519
-0.056721024 0.07678542 -0.059773054 0.11631499 -0.024679944 0.09065515 0.06699325 -0.0350152
-0.0034425042 0.13719805 0.07439194 0.07780868 0.035992946 -0.03794524 0.0938275 0.09562162
0.1451679 0.07989456 0.12904099 0.15386663 0.13331269 0.0117235305 0.15188971 -0.015140997
00000000: 175e 623d 0cbe 123e 572d 823d db69 f63d
00000010: ee32 373d eeb7 26bc 4eff 8c3c fab8 93bb
00000020: abf8 02bd a9c1 3cbb 569a b83c 81e0 b63d
00000030: 01d4 3dbd d72a aa3d 7c07 80bd 6264 963c
00000040: f31d 503d 98ea 9cbd d2d4 b8bc ff96 b93d
00000050: 4cdb 57bd 039e aabd da79 bdbd c376 edbc
00000060: 122f f9bc 9429 ffbc f182 c8bd 703d fabc
00000070: 7fd3 583d 2a53 e03d b9ed 63bd 906d bc3d
00000080: ddc8 a8bb cdbf 78bd 777e 0bbc 4b8f a4bd
00000090: 40d2 0fbd fb4e 76bd 1b72 b73c eff0 ca3d
000000a0: 5013 1abd 4012 88bd 89e5 f9bc 3c2e 1f3d
000000b0: 83e0 073c 258a 033e 03c1 623d 35e0 7abd
000000c0: bd18 f13d f8dd 1ebc 1709 a93d f63c 6cbc
000000d0: 17c1 073e f2a0 2a3d c30b 423c 47d3 833d
000000e0: 127f 883d fc09 ce3c c55d 8ebd d6a4 043e
000000f0: 6958 053c fcbd 63bd 21cd b13c 1538 83bd
00000100: 5b6c bdbd 769a e83d 9ab1 88bd 4b35 77bd
00000110: 69b5 6f3d ed17 a73d 6a4c 8b3d 770e 20bb
00000120: 4fe7 9b3d f0ed f43c 5801 b0bd 1462 9a3a
00000130: 924a ca3d ef3f 173c a2bf e53c dd70 c9bd
00000140: 2323 94bd e858 f03c 28c9 9bbc 4bfc 87bd
00000150: 0665 8abd c735 e03d a343 0d3e 12b9 c3bc
00000160: 7925 02bd 952d aebd a8bc b23c 9af1 133d
00000170: 5df7 f1bc 10d7 793c 3a9b 1cbd 3feb c83d
00000180: 6c48 c7bd ae46 d03d d7a1 d53d bd2a 923c
00000190: cb07 89bc 7544 dd3d 06a7 9ebd 3802 dd3d
000001a0: 663d bf3c 683b 52bb c0f2 e43d 1f73 893d
000001b0: 9709 abbd f5a6 c8bd 252d 87bd 3aaa b83c
000001c0: 4637 96bc 81e8 0ebd 24f2 d53d d11a 17bd
000001d0: 716e 0c3d d871 55bd 984d be3d 1153 14bd
000001e0: 457e fabb ff94 c9bc 3118 3a3d b69a 03bd
000001f0: 7b56 e93d 8bc7 a5bd f15d 68bc 20b1 0fbd
00000200: f801 093d 5712 63bd 0368 d93d 8dc7 0c3d
00000210: 2e1e 6a3d 502e 083e 6438 8bbd f09b b5bb
00000220: de44 86bd abf8 633d 9337 be3c e6c7 393e
00000230: 2443 373d 62df ca3d 490e acbd 15a0 b53d
00000240: 7d99 503d 0c5b 1b3d ae26 ad3d b460 973d
00000250: ee0d b3bc a841 a13a c242 0dbd 8cc5 013e
00000260: 1aa5 86bd de65 25bd 1dd3 ef3d 8413 123d
00000270: a1c5 b03d 7d67 28bd a51c e83d 8f85 dc3c
00000280: a016 b4bd 90e5 493e b4df 083e 27eb cd3d
00000290: 55b7 da3d 14e1 fc3d 8401 393d 2418 b33d
000002a0: 162c 363d dd22 083e 0f01 d1bd d0c4 cf3c
000002b0: 6210 513d 8166 0e3e 0c90 fb3d f9de d33d
000002c0: 7836 c6bc 5c4b 063e df5e e83d a2a5 b0bd
000002d0: 19d8 9c3c d242 8c3d 9b39 3cbd c981 b33d
000002e0: 8681 223e 32e1 593c 3b55 12bc f3e4 ccbc
000002f0: a76e 2ebd d65c 2d3d caf8 9dbc d28d afbb
00000300: 5cbe b13d e132 073e f088 b3bc f334 483c
00000310: 86bb 6c3d 9cf0 8c3d 5ed9 a3bc b1de 95bd
00000320: db62 623c 2199 5bbd 94f0 7e3d 44e6 343e
00000330: 1d8e 20bb b118 67bd 201d 743d d0b3 fd3c
00000340: e31f f9bc aeab 9dbc fd2d 073e 3420 ee3d
00000350: 27ca 8ebc 8e7f 85bc 78ab da3c d852 e93d
00000360: 5944 003e 7f23 28ba 862c 86bd e16a 0c3e
00000370: b30c ccbd f4a6 f93d cabc 023e d46d afbd
00000380: a2e7 c5bc 2d17 64bd 88c6 653d c672 3d3d
00000390: 65da 5e3c ac0f 8d3d 8971 833d 8274 a73d
000003a0: 4e54 68bd ad41 9d3d 97d4 74bd 8e36 ee3d
000003b0: 982d cabc 68a9 b93d c233 893d 196c 0fbd
000003c0: a39b 61bb a57d 0c3e cd5a 983d 285a 9f3d
000003d0: 576d 133d 786c 1bbd a228 c03d 45d5 c33d
000003e0: e5a6 143e c29f a33d 5223 043e 378f 1d3e
000003f0: 1f83 083e 0d14 403c fa88 1b3e f211 78bc

net.2.bias f4 [64]
0.08487646 0.12048457 0.07804614 -0.055278655 0.029197492 0.06427122 0.06461825 0.026088776
-0.10077976 0.006998377 -0.09050122 0.058951296 0.1175262 -0.08401181 -0.04766347 0.03522186
0.040094756 0.06193569 -0.039728858 -0.031439777 0.025712766 0.11007074 0.045062993 -0.07058907
0.12565197 0.08391406 -0.0073264465 0.0048831073 0.05487944 -0.06280136 0.011523039 0.01484613
0.046697885 0.024399469 0.019986073 0.021187384 0.035617985 -0.018636774 0.064693294 0.1080651
-0.036155947 0.10680285 0.07279944 0.09667322 0.013876517 0.079021856 0.018698826 0.00057596376
0.030540036 0.13354172 -0.007869602 0.013635111 0.07626851 -0.021386644 0.015005128 -0.05051647
0.1491919 -0.078978874 0.117564246 -0.011980933 -0.049132086 0.067640245 0.010654944 -0.03426342
00000000: b6d3 ad3d 9dc0 f63d a8d6 9f3d df6b 62bd
00000010: 942f ef3c a1a0 833d 9356 843d 21b8 d53c
00000020: 9e65 cebd a452 e53b b458 b9bd ea76 713d
00000030: 94b1 f03d 620e acbd c53a 43bd cc44 103d
00000040: 663a 243d 47b0 7d3d baba 22bd ffc6 00bd
00000050: 94a3 d23c c56c e13d f993 383d 0191 90bd
00000060: e9aa 003e 22db ab3d b012 f0bb 7902 a03b
00000070: 44c9 603d 009e 80bd 21cb 3c3c 2f3d 733c
00000080: 4846 3f3d 65e1 c73c d5b9 a33c 2a91 ad3c
00000090: 2ae4 113d 26ac 98bc eb7d 843d 3c51 dd3d
000000a0: 4218 14bd 74bb da3d df17 953d 9cfc c53d
000000b0: 555a 633c 36d6 a13d 482e 993c 46fc 163a
000000c0: 192f fa3c 29bf 083e 81ef 00bc cd65 5f3c
000000d0: aa32 9c3d 0b33 afbc 12d8 753c 5cea 4ebd
000000e0: c3c5 183e adbf a1bd 86c5 f03d ad4b 44bc
000000f0: ba3e 49bd f886 8a3d 1392 2e3c cd57 0cbd

net.4.weight f4 [5, 64]
-0.10518905 0.07878789 -0.05761523 -0.038644515 -0.028011533 -0.07068092 -0.13026877 -0.08757563
-0.07606232 0.11357333 0.06681856 -0.12389094 0.06252887 0.067361996 0.08255964 0.17132503
-0.008037257 0.03073557 0.13999721 0.0008013958 0.03413809 -0.009775568 -0.08602038 -0.009274109
0.09101844 0.1083317 0.010238554 -0.04387415 0.08900786 -0.036185917 0.084828116 0.079603665
-0.018293738 -0.048910588 -0.085748725 -0.049260408 -0.16537224 0.04748564 -0.107176155 0.009766825
-0.108892605 0.1291964 -0.17715429 0.019043183 -0.0116359005 0.007415464 -0.033335928 0.12394383
-0.074960664 -0.057031967 -0.02069205 0.0043301694 0.030464128 -0.070474036 0.11600461 -0.011308884
0.011583488 -0.0088561 -0.091301605 0.17134663 0.06481404 0.09121516 0.19231352 0.031583358
-0.0827008 -0.06678932 0.0039072153 0.02706832 -0.05322233 0.048937682 -0.0037184095 0.005696971
-0.07031556 0.13508561 0.08485998 -0.02370907 0.11692597 -0.023291642 0.11637745 0.059288107
-0.062830165 0.0047907834 0.085996 0.10840586 -0.18608305 0.23096284 0.004963152 -0.14515033
-0.07327568 0.042398628 0.15486893 -0.09175352 0.13375989 0.22306727 -0.11678166 0.046363145
-0.051400334 -0.11190757 0.13536528 -0.05564021 -0.027266737 0.17764892 -0.073723935 0.06986318
-0.08211353 -0.0609853 0.013764185 -0.1309286 0.16394953 0.13730611 0.18266144 -0.08483746
-0.043272283 0.014141484 0.009848217 0.18808064 -0.061589837 0.01666125 0.07364021 -0.1450953
0.10691876 -0.24743038 -0.07868317 0.08221075 0.026902406 -0.056413237 -0.09251085 0.12670204
-0.005299851 0.12127978 -0.029262884 -0.13860476 -0.125804 -0.028881554 -0.11147989 -0.01418802
0.115767404 0.0181037 0.12763946 0.060664702 -0.07553321 -0.034880582 0.014267233 -0.012913055
0.072893575 0.053063206 0.07125285 -0.1769222 -0.0042068097 -0.123780295 -0.03407435 0.05436586
0.1407169 0.095760874 0.04988667 0.18695837 -0.1354509 0.026426377 0.13353622 -0.011420498
-0.03517261 -0.0057165865 -0.013347467 -0.037632167 0.13126807 -0.029994149 0.15481763 -0.18610771
0.016749175 -0.0335875 0.07280935 -0.044882566 -0.043525033 -0.20298713 0.042054217 -0.008257849
0.045144625 -0.021294544 0.04866611 -0.14444251 -0.07827995 0.019430501 -0.10983797 0.052733883
-0.06290368 -0.023410775 0.12764561 -0.11765364 -0.073922776 -0.05463357 -0.102971 -0.2052966
-0.0061909095 -0.050145995 0.21886085 0.04038943 0.15663381 -0.04108585 0.17257854 0.16257846
0.084055185 0.029859006 -0.13054806 0.0966267 -0.06505261 0.07338729 -0.02402324 0.018559713
0.08462174 -0.07620313 0.044276953 -0.13232969 -0.17110072 -0.07612383 0.17703182 -0.12612613
0.12892216 -0.13159165 -0.17899284 0.09739868 -0.023586135 0.027287262 -0.10858968 -0.0035101254
0.0678846 0.13630722 0.1303753 0.14507319 0.13635609 -0.16473603 -0.024975665 0.02434479
-0.023417262 0.094122544 0.0463722 0.039596096 -0.08897469 0.016999952 0.12794341 -0.07944088
0.074551545 0.035926413 0.14059317 -0.08999007 -0.056521446 -0.04396597 -0.09403179 0.022191986
0.12837878 -0.04109293 0.2026765 -0.10647712 -0.13713121 -0.11184213 0.030723402 0.015586022
00000000: 5b6d d7bd 8c5b a13d f3fd 6bbd b649 1ebd
00000010: 7178 e5bc 28c1 90bd 2d65 05be da5a b3bd
00000020: 90c6 9bbd 2299 e83d 2bd8 883d 88ba fdbd
00000030: 230f 803d 16f5 893d 0715 a93d d46f 2f3e
00000040: b3ae 03bc 29c9 fb3c 6e5b 0f3e c314 523a
00000050: 62d4 0b3d b429 20bc 742b b0bd 6ff2 17bc
00000060: e067 ba3d 03dd dd3d 9cbf 273c 61b5 33bd
00000070: c149 b63d af37 14bd 5dba ad3d 3f07 a33d
00000080: c0dc 95bc 7856 48bd 079d afbd 48c5 49bd
00000090: 5757 29be 4d80 423d 2c7f dbbd 0805 203c
000000a0: 1603 dfbd 104c 043e ef67 35be 7300 9c3c
000000b0: 81a4 3ebc 6cfd f23b 418b 08bd 43d6 fd3d
000000c0: fa84 99bd 5a9a 69bd 6082 a9bc 18e4 8d3b
000000d0: e88f f93c b154 90bd d393 ed3d e648 39bc
000000e0: acc8 3d3c 2d19 11bc 56fc babd 7e75 2f3e
000000f0: 39bd 843d 04cf ba3d d6ed 443e 8d5d 013d
00000100: 095f a9bd d7c8 88bd 1908 803b 62be dd3c
00000110: a8ff 59bd e172 483d 8fb0 73bb a8ad ba3b
00000120: 9b01 90bd e253 0a3e 12cb ad3d 8639 c2bc
00000130: e276 ef3d 1dce bebc 4d57 ee3d 16d8 723d
00000140: 1aad 80bd 01fc 9c3b ac1e b03d e403 de3d
00000150: 8e8c 3ebe 8681 6c3e f0a1 a23b 4aa2 14be
00000160: 8f11 96bd 2faa 2d3d f695 1e3e 45e9 bbbd
00000170: 5af8 083e bf6b 643e 392b efbd 48e7 3d3d
00000180: 2889 52bd cc2f e5bd 329d 0a3e fde6 63bd
00000190: 7e5e dfbc 99e9 353e 93fc 96bd 6d14 8f3d
000001a0: 232b a8bd b9cb 79bd 2d83 613c 2612 06be
000001b0: 63e2 273e f999 0c3e 9a0b 3b3e 43bf adbd
000001c0: 473e 31bd afb1 673c 6a5a 213c 3698 403e
000001d0: a045 7cbd 2c7d 883c aed0 963d dd93 14be
000001e0: 39f8 da3d 645e 7dbe a424 a1bd 1c5e a83d
000001f0: 6f62 dc3c 9111 67bd 5476 bdbd 2ebe 013e
00000200: 5faa adbb 8961 f83d b7b8 efbc 68ee 0dbe
00000210: c4d2 00be 0299 ecbc 924f e4bd de74 68bc
00000220: 7617 ed3d 364e 943c ebb3 023e 8d7b 783d
00000230: 28b1 9abd f1de 0ebd 1dc1 693c 4791 53bc
00000240: 3a49 953d ce58 593d 04ed 913d 182b 35be
00000250: 47d9 89bb 8680 fdbd 8c91 0bbd bcae 5e3d
00000260: 1718 103e 471e c43d f755 4c3d 0472 3f3e
00000270: a4b3 0abe 217c d83c b8bd 083e 0a1d 3bbc
00000280: 2811 10bd 3452 bbbb 56af 5abc 3024 1abd
00000290: 236b 063e 4ab6 f5bc 8388 1e3e 0593 3ebe
000002a0: 9135 893c 0c93 09bd 121d 953d c8d6 37bd
000002b0: 4e47 32bd dcdb 4fbe 0b41 2c3d ee4b 07bc
000002c0: 92e9 383d e571 aebc 1d56 473d bde8 13be
000002d0: 3d51 a0bd b72c 9f3c bbf2 e0bd 7cff 573d
000002e0: a5d3 80bd f4c7 bfbc 88b5 023e 64f4 f0bd
000002f0: d364 97bd 73c7 5fbd 76e2 d2bd 4639 52be
00000300: 1ddd cabb e365 4dbd 0f1d 603e 636f 253d
00000310: 9d64 203e a349 28bd 6eb8 303e f87a 263e
00000320: 2025 ac3d e09a f43c 64ae 05be 38e4 c53d
00000330: 4e3a 85bd 134c 963d 63cc c4bc 8a0a 983c
00000340: 2a4e ad3d 6310 9cbd c05b 353d 6f81 07be
00000350: 0735 2fbe d0e6 9bbd d447 353e 3527 01be
00000360: 2c04 043e f6bf 06be e649 37be f678 c73d
00000370: b637 c1bc 8989 df3c 4464 debd 220a 66bb
00000380: 1507 8b3d 1f94 0b3e 1a81 053e 118e 143e
00000390: eea0 0b3e 90b0 28be c499 ccbc ba6e c73c
000003a0: 8fd5 bfbc 52c3 c03d c7f0 3d3d 842f 223d
000003b0: 5d38 b6bd 7c43 8b3c 9903 033e e6b1 a2bd
000003c0: 7bae 983d 9327 133d a8f7 0f3e b74c b8bd
000003d0: 0883 67bd a915 34bd bd93 c0bd f8cb b53c
000003e0: ba75 033e 0f51 28bd 6e8a 4f3e ad10 dabd
000003f0: 206c 0cbe 7d0d e5bd a5af fb3c 845c 7f3c

net.4.bias f4 [5]
-0.099803105 -0.03584047 -0.03530295 0.11495088 -0.08979766
00000000: 9265 ccbd 75cd 12bd d399 10bd 5e6b eb3d
00000010: d6e7 b7bd
