data_augmented/checkpoints/generator_epoch100.pth (torch, 25078 bytes, 6 tensors)

net.0.weight f4 [64, 16]
00000000: aecb 1abe 892d 0bbe 0e17 453d 5e81 4c3e
00000010: cd97 8fbe 0930 763d 9cd2 203e bbb4 e83d
00000020: f3a7 30bc e612 403e 16f7 f1bd 7e5e 533d
00000030: e367 1dbe e27e 283e 4533 48be ecf3 a6bb
00000040: b186 4e3e b330 bbbd 1f77 edbd de22 b6bb
00000050: 6b7b 103e 407b a03d 1d97 5abe b8c7 2f3b
00000060: a7b1 bcbd ad9d ddbd a2a5 f93d 8ca6 1d3e
00000070: 1a97 fd3d 3e23 f73d 79b0 1c3e 7e29 513e
00000080: f0e7 d0be 0903 2e3d 2647 4c3e fe8f 1d3e
00000090: ceef c33d e229 0c3e 2b3e 763e c4c0 11be
000000a0: a159 ac3c 23c5 063d d904 2fbe b5c5 95be
000000b0: 550c b9bd a534 7bbe 20f0 a9be 6fa7 b8be
000000c0: e525 b4bd d2a1 343d 7d2d 09be 7f01 97bd
000000d0: a398 973d 66a5 d7bd f3b4 fa3d 5702 80be
000000e0: 3286 54be 17fe 623d a7a9 153e 1655 223e
000000f0: f3c3 cf3d 0b32 b4bd e807 fcbd 0e17 323e
00000100: d488 b3bc 94de 09bd c921 b13c 9994 b23d
00000110: ceb9 0cba 2023 1f3e b814 35bc facd a6bb
00000120: 58c2 4fbd 1955 50bc 6a3a 243d 4343 973d
00000130: ece5 1ebc e52a a63d af33 aa3b 3b19 cc3d
00000140: e23a d3be 73f6 173e 9de1 6b3e ec27 8f3d
00000150: 452e 49be 7bc6 66bd eb7f be3e ab91 e2bc
00000160: e1b5 f03d 9dcc 113e 38dd 48be 3140 87be
00000170: 7546 49be 4f7a 4cbe a081 95be e3b7 a6be
00000180: d77f 2bbe 0583 b13d 6419 123e 439a 17bc
00000190: 8ceb 4abe 8872 c0bd 2de3 563e 144a 553d
000001a0: 828b 343e a4a5 133e 88e6 3fbe 49d1 52be
000001b0: ab92 39be 4a9a e3bd bf62 0dbe 2795 92be
000001c0: 7015 113f 36b7 38be 2a4b b6be 5bc5 6abe
000001d0: 4275 47bf 740b 13bf 015c 93bd f2f3 f13e
000001e0: b0b7 b03d 689f d63e 622c 1d3d 07a3 e63e
000001f0: 17d0 e6bd b557 013f c1d8 6c3e d7db c93e
00000200: 5483 a5bd 04b4 06be 74e7 07bd eb3e 8c3c
00000210: ba5e 35bf 107e cdbe 606e b13e 4cd2 8b3e
00000220: 5046 153e d607 053f 1d81 86be 6518 53bc
00000230: 6b04 98be 9781 0d3e 231b a0be 07e9 44be
00000240: 059d e33d 5f6d 9a3a 760b b7bc a6ab cfbc
00000250: 80a3 433e 0cdd bd3d b3c4 1cbe 3887 1bbd
00000260: f158 d0bc 7454 0fbe ebb0 8f3d d957 973c
00000270: 7c2f bb3d c8cc 81bb caf0 063e 5f06 803d
00000280: b75f 083f 7379 37be 0d42 aebe f2a1 5abe
00000290: a23d 3fbf c56a 0bbf 61bd 79bd 2325 e53e
000002a0: 05d3 aa3d cdd8 cf3e 913f db3c 56bb d73e
000002b0: 56a0 e3bd af1c f53e 2f5d 533e 2cd1 ba3e
000002c0: 5667 09be 8370 f8bd 79c1 d4bb 2c21 073d
000002d0: d6ee 35bf 4308 cabe 04e6 c43e ac14 853e
000002e0: 49f3 1d3e fbc7 073f da4e 92be 5f36 51bd
000002f0: f0e3 a0be 9d50 dc3d 7bb5 b5be 97cb 75be
00000300: a0a3 c63d 8c9f db3e 79db f83d 4f56 71be
00000310: 24e2 4a3b 2c24 69bd 7c25 54bd 2795 283c
00000320: e3fc c93d 3668 97be b1df 7b3e 1fd8 013e
00000330: 5c35 553d 23ef 553c 703b fc3e 5915 bc3e
00000340: 377a e4be 6de9 0f3e 7a20 7c3e 9e60 c43d
00000350: 83da fdbd fbe2 9bbb 853c ba3e 92b1 83bd
00000360: b3d0 d33d 1861 e53d 133e 4ebe 4da3 96be
00000370: ba4d 39be cc57 6cbe ac30 a3be 512b b8be
00000380: e614 7abe 94fe 27bf 9a93 15be 0e3a cf3e
00000390: 8b06 c23d 51f1 2c3e c508 d03d 0be2 acbd
000003a0: 34a3 24be e537 db3e cdb1 cebe f704 8abe
000003b0: 057a 8dbd eb98 c4bd 4a59 54bf ea34 28bf
000003c0: 6381 a13c 8d35 debd 7674 68bd 9cf9 fe3c
000003d0: 9774 8bbd 3647 21bd d2fd 7d3b 1407 303d
000003e0: 73ed 05bc b31e ce3d a279 77bd f08c 653b
000003f0: 73c8 a0bc be1b 153d 5e64 c8bd 675a 82bd
-0.1511676 -0.13591589 0.04811769 0.19971225 -0.28045502 0.060104404 0.15705341 0.113625966
-0.01078223 0.18757209 -0.11814706 0.051603787 -0.15371661 0.16454652 -0.19550808 -0.0050949957
0.20168568 -0.09140148 -0.11594986 -0.0055583557 0.1410958 0.07836008 -0.21346708 0.0026821923
-0.09213572 -0.1082109 0.12189795 0.15395564 0.12382336 0.12067269 0.15301694 0.20425984
-0.40801954 0.042483363 0.19949016 0.1538696 0.095672235 0.13687852 0.24047153 -0.1423369
0.021038832 0.032902848 -0.17091693 -0.292524 -0.09035555 -0.24531801 -0.33191013 -0.36065242
-0.0879629 0.044099636 -0.13396259 -0.07373332 0.0740216 -0.10529594 0.122415446 -0.25001785
-0.20754316 0.0554181 0.14615498 0.1585277 0.10144796 -0.087986074 -0.123061955 0.17391607
-0.02191583 -0.033659533 0.021622555 0.08719749 -0.0005368263 0.15540743 -0.011052303 -0.0050904723
-0.05072245 -0.012715601 0.04009477 0.07385876 -0.009698372 0.0811365 0.0051941494 0.0996575
-0.41255862 0.14840107 0.23035283 0.06990036 -0.19646557 -0.05634163 0.3720697 -0.02765735
0.11753441 0.1423821 -0.19615638 -0.26416162 -0.19655783 -0.19968532 -0.2920046 -0.3256217
-0.16747986 0.08667568 0.14267498 -0.009253087 -0.19816417 -0.09396845 0.20985098 0.0520726
0.17631343 0.14418656 -0.18740284 -0.20587648 -0.18122356 -0.11113413 -0.138072 -0.2862942
0.56673336 -0.1803864 -0.3560422 -0.22926848 -0.77913296 -0.5743935 -0.07195283 0.47256428
0.086287856 0.41918492 0.038372405 0.45046255 -0.11270159 0.50524455 0.2312956 0.39425537
-0.080816895 -0.13154608 -0.033179715 0.017119845 -0.70847666 -0.4013524 0.34654522 0.2730888
0.14577603 0.5196508 -0.2627038 -0.012884234 -0.2969087 0.13818966 -0.31270704 -0.19229518
0.111139335 0.0011781863 -0.022344332 -0.025350403 0.19105339 0.09270677 -0.1530941 -0.03797075
-0.025433036 -0.1399706 0.07016166 0.018474506 0.09139916 -0.0039611794 0.13177791 0.06251215
0.5327105 -0.17917423 -0.34034768 -0.2135084 -0.7470342 -0.5445979 -0.06097162 0.44754896
0.0834103 0.40595093 0.02676371 0.42135113 -0.11114566 0.47873446 0.20641015 0.3648771
-0.13418326 -0.12130835 -0.0064927903 0.03299062 -0.7106756 -0.39459428 0.38456738 0.25992334
0.15424837 0.5303952 -0.28575784 -0.051077243 -0.31423903 0.10757563 -0.3549002 -0.24003445
0.09699178 0.42895162 0.12151236 -0.2356808 0.0030957544 -0.05691926 -0.05179356 0.010289467
0.098626874 -0.29571694 0.2459705 0.126801 0.05205284 0.013057503 0.49264097 0.36735037
-0.44624493 0.14053889 0.24621764 0.09588741 -0.123951934 -0.004757283 0.36374298 -0.06430353
0.103425406 0.1120016 -0.20140867 -0.29421464 -0.18096057 -0.23080367 -0.3187307 -0.35970548
-0.24422035 -0.6562283 -0.14607087 0.4047398 0.09473904 0.1688893 0.10157923 -0.08441552
-0.16077882 0.42816082 -0.40370026 -0.26956913 -0.06908039 -0.09599479 -0.82948744 -0.6570574
0.019715017 -0.10850058 -0.05675169 0.031124882 -0.06809347 -0.039374553 0.0038756025 0.0429755
-0.008174288 0.10064449 -0.060418732 0.0035026632 -0.019626832 0.03640341 -0.097847685 -0.06364899

net.0.bias f4 [64]
00000000: c3e9 65bc 5a15 473f 1869 2e3f d34b 173f
00000010: a1c8 683e 9e93 cebe c9d3 2fbf 5e5f 0dbf
00000020: a701 a83e de04 223f a5cd 09bf fe59 a13e
00000030: 5050 33be e3a1 fcbd 0900 4a3e 13e9 213f
00000040: c1ab 943e fe6a 80bf d00e ee3e 14a4 3c3f
00000050: 38df 8a3e 0990 7abf 34d1 c03e 3abb 79bf
00000060: 7f41 f33e 6f9b 2ebe 66d0 cfbe 7454 cbbe
00000070: 1a32 17bf ceaf 103c f434 203f 391e 953c
00000080: d1f8 64bf 57dc a1be 2e65 75bf a7e3 353f
00000090: 5854 073f 4ae6 57bf f824 053f 3bc8 dcbd
000000a0: 9eb5 e2be 83e6 c8be e498 8abd 52a5 5e3d
000000b0: 502d 8a3e 7336 673f b991 aabe 1c9b 59bf
000000c0: 8b6a 7bbf 202f 4e3f c75b 8f3d 3702 c9be
000000d0: 4dba 56bf bf14 803d 8a96 06bf 9c4f 23be
000000e0: 6914 95be fde2 de3e 750f 213f 0483 49bf
000000f0: 26b2 0e3f 6cea 64bf ccff 1f3f fed1 1e3e
-0.014032784 0.77766955 0.6812911 0.59100074 0.22732784 -0.40346998 -0.68682534 -0.55223644
0.3281376 0.63288677 -0.53829414 0.3151397 -0.17511106 -0.12335565 0.19726576 0.6324627
0.29037288 -1.0032651 0.46495676 0.73687863 0.27123427 -0.9787603 0.3765961 -0.9755131
0.47510907 -0.1705148 -0.40588683 -0.3971287 -0.59060824 0.008830978 0.625808 0.018202888
-0.89442164 -0.31613418 -0.9585751 0.71050495 0.52863073 -0.8433577 0.52009535 -0.107803784
-0.44279188 -0.39238366 -0.06767443 0.05435688 0.26987696 0.9031746 -0.33314303 -0.85002303
-0.98209447 0.8054066 0.06999927 -0.39259502 -0.8387802 0.06253957 -0.52573454 -0.15948337
-0.29117134 0.43532553 0.6291421 -0.7871554 0.5574058 -0.894202 0.6249969 0.15509793

net.2.weight f4 [64, 64]
00000000: 7f90 16bc 76f7 c13e a8aa b63d ee04 bd3d
00000010: 2965 7b3d 011d 5dbe f73a 32bd 1dc3 cdbe
00000020: 4db6 19be 6ab9 213e 7292 99be 9df2 e73e
00000030: 96ae c33d dd46 483e 401d c8be 898a 2e3e
00000040: d0a2 a83d 49c3 023b 3739 353e 3a7c 893e
00000050: 33d5 a83d 4811 0dbe 5c2b 17be 7a96 81bd
00000060: 36bd 653e 3bfb 8cbd e74b abbd 95a6 163e
00000070: 4fd4 13bf e479 85bd 14b6 fdbb 0cb9 6a3e
00000080: fa8f b73d 7aa8 90bd 6788 adbf 32e8 bf3d
00000090: 94ce 483d e3fb 5bbd c055 503d d72e df3d
000000a0: 1a71 5dbe 4a84 a3be 2ff3 e83d 9af2 de3d
000000b0: 8bca b63e e599 813e 7e3b 683e 8942 863d
000000c0: cf9c f13d d931 573d 71da 3d3e 1f21 2b3d
000000d0: 1060 233e f454 a33e 1565 4ebe 8f62 64bd
000000e0: d65f 19bd ef2e 263e b0f9 453c 5635 653e
000000f0: 6c61 793e b49b 053d 94f2 7bbd af49 b8bc
00000100: e60a 62be 8c94 d7bd 5757 55be a039 64be
00000110: ba07 b0bd 0898 6a3d deca ed3d 1aea 06be
00000120: 0d0e 913d 8080 02be e8a1 5fbd 66b5 b7bc
00000130: c47d b3bd bd1d 953c f60e 07be 57d5 52be
00000140: 8582 3ebe 23bc 773d 6973 ffbd a4af 87be
00000150: 4f38 0dbe b2f9 3e3e 87cf 923c 125d c73d
00000160: 8a29 3bbe 5647 16be 3e71 06bd 81fc 97bc
00000170: f2b4 05be 7125 08be a657 41be 041b fd3d
00000180: 7bde 17bd 68b5 4e3d e272 b23b 1e1e 1abe
00000190: 243f 21be 186f 103e f58b 50be 08db ee3d
000001a0: a5ff 6bbd b239 06bd 5df2 203e 06cb 92bc
000001b0: 3b91 41bd 30fb 82be 601c e2bd d5a8 ab3d
000001c0: c2f2 1f3e dc51 2bbe 522e 3f3d b21f 58bd
000001d0: ba3c 993d 5e9e 64bc 4b3d 883d 34f8 06be
000001e0: 1357 04ba 2309 12be 3a99 6abd f58d e1bc
000001f0: 574d d4ba d61c 84bd 8cb8 27be d10f 7ebe
00000200: 4902 4abe b3ec 7bbe b4ea b8bc ad90 90be
00000210: 3e44 c1bd ad13 aa3d 00d6 3cbd 0acd 06be
00000220: 7685 1cbd e33e d5bd b42d d6bb af9e 9e3d
00000230: f625 f6bd bd85 843d 421e 61be 226b 80bd
00000240: 5f22 42bd 29ce 3c3d 6228 85bd 84ac 01be
00000250: 7ced debd 39ab 613d 4cab 95bd 17df e23d
00000260: 482d 20be d07f c7bd 2c8e e03d 1b6f f9bd
00000270: 5f04 0dbd be45 65be 6641 e3bd fe78 a0bd
00000280: 664b 3dbd 999f f53c eef5 acba 0df1 a2bd
00000290: 2cba e3bd 1cc5 1a3e 2bcf 12be 9595 863d
000002a0: e241 f1bb 1bde f63d 9727 17bd 144f 93bc
000002b0: 9884 8dbd 6237 10be dfa7 313d 2762 113e
000002c0: ae13 13bd 7d07 d0bd a5e0 6ebc 99a1 87bd
000002d0: 6693 7c3b 3737 02bd c0d5 9ebd 7b13 c7bd
000002e0: 1e76 6e3b 9b07 15be 1dbf 67bd d476 013d
000002f0: 2715 48be 8726 de3c 8ec4 90be a7e9 2abe
00000300: 0b90 20bf 2257 0c3e 9c35 aa3c 37aa e53c
00000310: 9733 10bf ac34 cfbd 5c9a 55bb 6671 e0bc
00000320: 9725 d9bc 664c ddbc 226c 013e b03f 023e
00000330: 605c afbd 4a7c 7bbd daa7 853d f2fd eb3d
00000340: 7c63 38bf 2d9a b93d 4f9f 133e fb7d 093e
00000350: a954 80bd 35ad 39bd 1743 c13b f2c1 1b3e
00000360: 4392 0a3e 57ac 3c3d 2fac 26be fb70 30bd
00000370: 61d2 e5bd f739 913d 9824 ef3c ad50 dfbd
00000380: e9a9 87bc 5c1f a6be 0f78 ed3c ba82 bc3d
00000390: d3fa 18bc 5259 f33e 5ce4 c23c a0c2 c9bc
000003a0: f12e e7bc 9fd9 a73d d276 91bd ec77 743e
000003b0: 8768 f0bd 685b 4ebd aa33 443d 3c6c 973e
000003c0: fdc3 53bd 902d 5a3e 2578 823d d323 f13d
000003d0: faf0 4bbd 6369 cbbd b8b4 12bd 1008 02be
000003e0: 04df 83bd e665 ba3d 523c 273c 0021 dd3c
000003f0: 0c50 db3d 625a cd3d ff90 673e b2c8 0abe
-0.009189724 0.3788411 0.08919269 0.09229456 0.06137577 -0.21593095 -0.043513265 -0.40187922
-0.15010948 0.15793386 -0.2999454 0.45302287 0.09554784 0.19558282 -0.39084816 0.17045034
0.08234179 0.0019952825 0.17697607 0.2685259 0.082437895 -0.13776124 -0.14762634 -0.06327529
0.2243546 -0.06883856 -0.083640866 0.14711984 -0.5774583 -0.065173894 -0.0077426527 0.22922152
0.08963008 -0.07063384 -1.3557252 0.093704596 0.049025133 -0.053707015 0.050863028 0.10897606
-0.21625176 -0.31936866 0.113745086 0.10886116 0.35701403 0.25312725 0.22678944 0.06555659
0.11797487 0.052537773 0.1854036 0.041779634 0.15954614 0.31900752 -0.20155747 -0.055758055
-0.037444912 0.16228841 0.012083456 0.22383627 0.2435357 0.032619193 -0.061510637 -0.022496073
-0.2207447 -0.1052638 -0.20834099 -0.22287607 -0.08595224 0.057273895 0.116109595 -0.1317524
0.07082758 -0.12744331 -0.054597765 -0.022425365 -0.08764222 0.018202657 -0.13189301 -0.20589195
-0.18604477 0.060482156 -0.124731846 -0.2650119 -0.13791011 0.18649939 0.017921222 0.09734549
-0.18277565 -0.1467565 -0.03282284 -0.01855302 -0.13057306 -0.13295533 -0.18881091 0.123586684
-0.03707741 0.05046597 0.005445824 -0.15050551 -0.15746742 0.14104879 -0.2036589 0.11662871
-0.05761685 -0.032769866 0.15717454 -0.017919075 -0.047257643 -0.25582266 -0.11040568 0.083818115
0.15619949 -0.16730446 0.046675034 -0.052764602 0.07482286 -0.013953773 0.06652316 -0.1318062
-0.00050483755 -0.14261298 -0.057275034 -0.02753351 -0.0016197365 -0.064508125 -0.16378993 -0.24810721
-0.19727434 -0.24602012 -0.022572853 -0.2823538 -0.09436844 0.08304534 -0.046102524 -0.13164154
-0.038213216 -0.10412385 -0.00653621 0.0774511 -0.12018959 0.06470821 -0.21984199 -0.06270434
-0.04739606 0.046095047 -0.06501843 -0.12663466 -0.1088514 0.05509493 -0.07308063 0.11077707
-0.15642273 -0.09741175 0.10964617 -0.12179395 -0.034427997 -0.22389886 -0.11096458 -0.078355774
-0.046214484 0.029983329 -0.0013195851 -0.07956133 -0.11119494 0.15114254 -0.14336841 0.06571499
-0.00736259 0.12054082 -0.03690299 -0.017982043 -0.06910056 -0.14083627 0.043372985 0.14197598
-0.03590744 -0.10157678 -0.014579927 -0.06622619 0.0038540005 -0.03179094 -0.07755613 -0.097205125
0.0036386321 -0.14553683 -0.056578744 0.031607464 -0.19539319 0.02711798 -0.2827496 -0.16690694
-0.6271979 0.13705114 0.020777516 0.028035266 -0.5632872 -0.10117468 -0.0032593226 -0.027397823
-0.026507182 -0.027013969 0.12638906 0.12719607 -0.08562541 -0.06139783 0.06526156 0.115230456
-0.720268 0.0906261 0.1441624 0.13426964 -0.06266148 -0.0453312 0.0058978903 0.15210703
0.13532357 0.046062794 -0.1627662 -0.043076497 -0.11221767 0.07091134 0.029192254 -0.109040596
-0.016560512 -0.324458 0.028987912 0.092046216 -0.009337145 0.47529083 0.02379053 -0.024628937
-0.028220626 0.08195805 -0.07102741 0.23873872 -0.11738687 -0.05038014 0.047900833 0.29574764
-0.05170058 0.21306443 0.06370572 0.11774411 -0.04979036 -0.0993221 -0.035816878 -0.12698388
-0.06439021 0.09101467 0.010207253 0.026993275 0.10708627 0.10027005 0.22613905 -0.13553122

net.2.bias f4 [64]
00000000: 0ed3 cc3e f828 c0bd 72f9 09be b6cf 453e
00000010: 7289 61bd 433b 1a3e 370f 893e 33c1 9a3c
00000020: 09eb 96be 3198 73be c450 c5bd 6f4f 2e3e
00000030: b4d3 993e eca4 b8be c39b 83be 1782 16be
00000040: 66c3 6ebe b605 173d a280 86be 558b 07be
00000050: 41a6 a23e b1d8 123f 9bd2 40be 4fe9 323e
00000060: d100 803c edd4 753e bc08 02bc b6ea 44be
00000070: 1812 a53e 38a3 ecbd d741 623e 9fad a3bc
00000080: 16ea ca3d e296 153e 9999 91bd a44c d7bd
00000090: eb70 01bd 449a c8ba 91e3 2b3e 5d8a 9f3d
000000a0: 673a 023e 705d 963d 651a 13be e179 673c
000000b0: fdfa 4d3d ade8 a93e fb74 aabd e50c 1e3e
000000c0: 23c9 58be 3952 74bc 49e1 0dbe 8aa1 563e
000000d0: 3c60 ba3e f819 cebd e577 763e c61f 38be
000000e0: 4d34 dd3d baaa c2bd 9e72 4fbd a40b 923e
000000f0: 655e 1d3e 952e 9a3e b5d4 dc3d e26f 02bd
0.40004772 -0.09382814 -0.13474062 0.19317517 -0.05506272 0.15061669 0.2676942 0.018890953
-0.29476193 -0.23788525 -0.096345454 0.17022489 0.3004433 -0.36063325 -0.25704774 -0.14698063
-0.23316726 0.03687068 -0.26270014 -0.13236745 0.31767467 0.57361895 -0.1883034 0.17471813
0.01562539 0.24007006 -0.007936653 -0.1923016 0.32240367 -0.11554569 0.22095428 -0.01998025
0.099079296 0.14608338 -0.071093746 -0.10512665 -0.031601828 -0.0015304764 0.16786028 0.077900626
0.12717591 0.073420405 -0.14365537 0.014128179 0.05028819 0.3318533 -0.083230935 0.15434606
-0.21170478 -0.0149121815 -0.1385547 0.2096006 0.36401546 -0.10063547 0.24069174 -0.1798087
0.10800991 -0.0950522 -0.050646417 0.28524506 0.1536804 0.30113664 0.10782758 -0.03184498

net.4.weight f4 [5, 64]
00000000: f3f2 d33c 4155 ed3d 26a1 41be 6498 6ebf
00000010: 3da3 10bd 1af5 e2bc 3c5e 86bf a67d 61bf
00000020: f240 2dbc cfe6 8c3d 233e 153e 7987 aebd
00000030: a733 b53d fffd 83bd 3f05 cebd 6273 debb
00000040: b778 8a3d eb8c ae3d e287 fd3d 5c2d b2bd
00000050: 7833 1c3e d17a 9d3d b416 37be 4d7f c63e
00000060: 5d15 0a3d 5e3e 393f 5c6d 90bd 72de 50bd
00000070: 04ea 0a3e 1c84 943d fae6 f63e ca65 8bbd
00000080: 8270 62bc ee40 60bd eaca 4bbe eb20 bcbc
00000090: de86 153e a631 a03d a429 2d3e e86c 8cbd
000000a0: 7353 6d3c 6641 fd3d 83d7 3cbc e9ba 823d
000000b0: a509 15bd 5545 1ebd 90ea d3bd df83 98be
000000c0: 8bc1 0fbd 60a6 453e c571 85bd 1c62 3f3e
000000d0: bdcd 673d f41f 853c 90e2 2dbe dc20 a93d
000000e0: 0b2a d4bd 4ffb 823d 9205 a6be 4cc8 3e3d
000000f0: bdb9 1f3e 4ed9 803e 3dd1 2a3e e86f 793e
00000100: 3e9b b5bc 5cd6 bbbd 9b12 8e3c b976 10ba
00000110: af2a 15bd 3536 56bc f126 0ebb b149 41ba
00000120: d446 66bd c99a 9b3d 69da 163e c584 a53c
00000130: 44f3 94bb 3a38 a2bd 6418 11bc 5837 563a
00000140: c605 a0bc 4483 823d a6ed 7d3c fb7d 393d
00000150: 8173 7cbe 1cb1 883f a0be 783d 1a51 b4be
00000160: 205d 11be f545 9a3b 1d0f 033c 7146 e2bd
00000170: f0c2 ccbd 7dc4 413e 1c11 733c 6585 823c
00000180: 3313 0cbe 83b1 413a a821 d73d 6f9a b1bc
00000190: b6ad fd3c 771d 493a 5443 01bd e50a dd3d
000001a0: 8700 513b 8849 c53c 374c 293c 0f75 02be
000001b0: e33e d73d d78d cd3d cf1d 023e 121b 6dbc
000001c0: 2060 62bd 7f34 dc3e 3793 bebc 4bb3 c2bc
000001d0: f8b6 2ebe ea4d 7a3d 1a2e 493c bd4e 4fbe
000001e0: f871 e03b 15ff 07bf 6f65 90bb 488e a3bb
000001f0: 70f4 58bd e08a 16be 2150 88be fc86 143b
00000200: 6f07 523f 9ccf dfbd af21 bfbd 67db d1bc
00000210: 5a14 33be 1831 993d 6f88 a23c 76b8 b43b
00000220: fc47 c03d 63c9 17be 7dbc 3f3e 9a42 1c3f
00000230: 2ccd 553f dc4d 25be a972 0ebd 10dc 26bd
00000240: 9752 67be 804f 1bbd 8223 2dbd cc95 20bf
00000250: 3e47 643c 95d4 b4bc 28d4 253d 5aec 283e
00000260: ba9e 563d ea1b 2640 971e 84be 4258 3b3e
00000270: fff2 81be a128 933d 3b1e 71bc e574 8cbe
00000280: 158c 993d 53ed 71be 62f6 bb3c 956c 23bd
00000290: 1308 ea3f cc75 47bf df02 b53f 47b7 c8bd
000002a0: fbfc 2dbd 33a8 70be 2bb6 103f 35ca 91bd
000002b0: 9e49 9b3d 488e 90be b4c8 1b3d 5541 a6be
000002c0: 12f9 153e ebfc 9b3e 1866 303d 4105 ae3e
000002d0: 1fed f4bd 3f0a de3d 999a e8be 71a1 073e
000002e0: 204e 9bbe 6398 743e eb22 393f 94ef 57bf
000002f0: 3e17 2dbe fd82 3ebe 4bc0 9dbe 65a8 ffbe
00000300: 88ba ac3b 6823 753e d53b 3a3e be8d 5d39
00000310: 8758 013d 2d63 18bd 8a94 7c3a 1341 91ba
00000320: 0b27 303e aff4 943e f25e a5bc 1746 8d3c
00000330: 4e93 c63c b804 9b3e 5f15 673d 329d 6a3d
00000340: f907 9f3e c405 4ebd 9692 bb3e 5699 d9bc
00000350: 6fdb 31be a84d cf3b 5782 8d3d 41a3 adbb
00000360: fde9 273e 8a13 c13b 8515 c13d b937 4b3e
00000370: c158 7bbd 2308 b7bb e4c9 0e3d 0733 d1bb
00000380: e143 66bb f2f1 6e3d d626 803d cfcd a03d
00000390: 8278 393e 6612 dbbc 611e 47be 448a bcbd
000003a0: b787 4c3b c6dd 19bc f114 053d 63f7 8fbc
000003b0: 17dc 863d 0f05 fcbd 785c 183e a3b9 a7bc
000003c0: 96b4 2c3e 79c4 9bbd e967 e83d 0400 b63d
000003d0: 0cc3 cebd 121f 4ebc 927a 62bd fff3 533d
000003e0: 4a65 ff3c 02e3 cfbd 861f 743d b7ba adbc
000003f0: 42c1 babc 5de2 d6bd 432c 8f3c ef55 acbc
0.025872683 0.115885265 -0.1890913 -0.9320128 -0.035311926 -0.027704764 -1.0497508 -0.8808235
-0.010574566 0.06879961 0.14574485 -0.08521933 0.088477425 -0.0644493 -0.10059594 -0.006788657
0.06761306 0.08522972 0.12379433 -0.08700058 0.15254009 0.07689441 -0.17879754 0.38768998
0.03371178 0.7236079 -0.07052109 -0.05099339 0.13565832 0.0725176 0.48223096 -0.06806524
-0.013820769 -0.05474942 -0.19901624 -0.022964915 0.14602229 0.0782197 0.16910416 -0.0685671
0.014485228 0.123659894 -0.011525991 0.063833065 -0.03638615 -0.03864034 -0.103474736 -0.2978811
-0.035096686 0.19301748 -0.065158404 0.1868977 0.05659269 0.016250588 -0.16980958 0.082582206
-0.103595816 0.063955896 -0.32426125 0.046577737 0.15598197 0.2516579 0.1668138 0.24359095
-0.022168752 -0.09171745 0.017342856 -0.0005510855 -0.03641766 -0.013074447 -0.0021690691 -0.00073733466
-0.05621989 0.07597882 0.14731754 0.020204911 -0.004545601 -0.079208806 -0.008855913 0.0008171699
-0.019534003 0.06372693 0.015498554 0.04528616 -0.24653436 1.067905 0.06072867 -0.35218126
-0.1419568 0.0047080466 0.007999209 -0.11048592 -0.09998119 0.1892261 0.014835622 0.015932748
-0.13679199 0.0007388817 0.10504466 -0.021680085 0.03096662 0.0007671932 -0.03155835 0.107930936
0.0031891183 0.024082914 0.010333112 -0.12739967 0.105100416 0.100368194 0.12706684 -0.014471786
-0.055267453 0.430088 -0.023263557 -0.023767134 -0.17061985 0.06110946 0.012279058 -0.2024488
0.0068495236 -0.531236 -0.004406623 -0.0049913265 -0.05296749 -0.14701414 -0.26623634 0.0022663465
0.8204259 -0.1092827 -0.093325965 -0.025617315 -0.17488232 0.07480067 0.019840447 0.0055151535
0.0938873 -0.14822917 0.18724246 0.61039126 0.8351619 -0.16142982 -0.034777317 -0.04073721
-0.225901 -0.037917614 -0.04227019 -0.6272857 0.013933001 -0.022074023 0.04048553 0.16496411
0.052397467 2.5954537 -0.25804588 0.18295386 -0.25380704 0.07185484 -0.01471668 -0.27432933
0.07497422 -0.23625688 0.022944633 -0.039898474 1.8283714 -0.7791412 1.4141501 -0.098005824
-0.04247759 -0.23501663 0.56527966 -0.07118646 0.07582401 -0.28233552 0.038033202 -0.3247172
0.14645794 0.304664 0.043066114 0.33988383 -0.1195929 0.10841798 -0.4543045 0.13245179
-0.30333042 0.23886256 0.72318906 -0.8434994 -0.16903397 -0.18604656 -0.3081077 -0.49933162
0.0052712597 0.23939288 0.18186887 0.00021129005 0.031578567 -0.037203956 0.0009635171 -0.0011082016
0.17202394 0.2909293 -0.020186875 0.017245336 0.024240162 0.30277038 0.056416865 0.05727882
0.3106077 -0.050298467 0.36635274 -0.026562374 -0.17368864 0.006326396 0.06909626 -0.0052990024
0.16397853 0.005892222 0.09427933 0.19845475 -0.06136394 -0.005585687 0.034860507 -0.0063842568
-0.0035135674 0.058336206 0.06257407 0.07851755 0.18112376 -0.026742171 -0.19445182 -0.092060596
0.0031208822 -0.009391254 0.032490674 -0.017574018 0.065849476 -0.12305652 0.14879024 -0.02047426
0.16865763 -0.076058336 0.11347944 0.08886722 -0.10095796 -0.01258065 -0.055292673 0.051746365
0.031176228 -0.1015072 0.059600376 -0.021207197 -0.02279723 -0.10492394 0.01747716 -0.02103707

net.4.bias f4 [5]
00000000: 282e 84bb 842e 8abe 7d1e 34be 7ab8 39be
00000010: 9ef2 c6bd
-0.0040338226 -0.26988614 -0.17589755 -0.18136778 -0.09714244
