data_augmented/checkpoints/generator_epoch28.pth (torch, 25068 bytes, 6 tensors)

net.0.weight f4 [64, 16]
0	0xbe5f8ad8	-0.21830308
1	0x3cb310a9	0.02185853
2	0x3e98276f	0.29717585
3	0x3d85206e	0.06500326
4	0xbe341293	-0.1758521
5	0x3ead0484	0.33792508
6	0x3e04a541	0.12953664
7	0xbdab5f8a	-0.08367832
8	0x3e2eb2d4	0.17060405
9	0x3eaf2d8f	0.34214446
10	0xbb868e5e	-0.004106327
11	0x3e49a9d0	0.19693685
12	0xbe912cc3	-0.28354463
13	0x3e186dde	0.14885661
14	0x3d93a7d2	0.072097436
15	0x3d2ece75	0.04267736
16	0x3e3a0eea	0.18169752
17	0xbca345f2	-0.019930813
18	0xbde7566e	-0.11295782
19	0xbd33f355	-0.04393323
20	0x3e3cd24d	0.18439598
21	0x3d72000d	0.05908208
22	0xbe514b00	-0.20438766
23	0xbd391564	-0.045186415
24	0xbd9ba8e0	-0.0760057
25	0xbe079437	-0.13240133
26	0x3e051f2f	0.13000177
27	0x3db7b086	0.08969216
28	0x3e0e6a05	0.1390763
29	0x3d257e1f	0.04040348
30	0x3e26aaa4	0.16276032
31	0x3e105441	0.1409464
32	0xbe560434	-0.20900041
33	0xbc789a71	-0.01517354
34	0x3dab4589	0.08362872
35	0x3da8f891	0.08250535
36	0xbddeb226	-0.10873823
37	0xbc1d42b4	-0.009598423
38	0x3e4118a6	0.18857059
39	0xbc43a1d0	-0.011940435
40	0x3ce0d03b	0.027443042
41	0x3e04704b	0.12933461
42	0xbe1071fc	-0.14105982
43	0xbdf9f4db	-0.122049056
44	0xbdb124aa	-0.08649571
45	0xbd615857	-0.055015888
46	0xbe675b73	-0.22593479
47	0xbe578ed1	-0.21050574
48	0xbddc48c6	-0.10756068
49	0x3dbfb861	0.09361339
50	0xbe616ad9	-0.22013415
51	0xbdc9b4c5	-0.09848932
52	0x3d014d50	0.03156787
53	0xbe30aefc	-0.17254251
54	0x3decbba2	0.115592256
55	0xbea6370d	-0.32463875
56	0xbe51ea51	-0.20499541
57	0x3e493389	0.19648565
58	0x3e483e00	0.19554901
59	0x3e368960	0.17825842
60	0x3ce27f15	0.027648488
61	0xbdf8de3c	-0.12151763
62	0xbdfe6237	-0.12421077
63	0x3dfcd115	0.12344567
64	0xbd48ef78	-0.0490565
65	0xbd90499c	-0.0704529
66	0x3db67a79	0.089100786
67	0x3ccf602a	0.02531441
68	0x3d80cfee	0.062896594
69	0x3e6b66e3	0.22988467
70	0xbd3c864f	-0.046026524
71	0xbde291fc	-0.110630006
72	0x3d0f73e5	0.035022635
73	0x3e08819c	0.13330692
74	0x3d469fd0	0.048492253
75	0x3e31791f	0.1733136
76	0xbe01cdd6	-0.12676176
77	0x3cd29775	0.025706986
78	0x3d82a906	0.06379895
79	0x3d99ce3d	0.0751004
80	0xbedcf746	-0.43157405
81	0x3e15e4d3	0.14638071
82	0x3e7d226b	0.2472016
83	0x3da99619	0.08280582
84	0xbe76d54b	-0.24104802
85	0xbd384b20	-0.04499352
86	0x3ec95fd0	0.39330912
87	0xbca33f46	-0.019927632
88	0x3defa822	0.11701991
89	0x3e1c46a0	0.15261316
90	0xbe450373	-0.19239597
91	0xbe500c76	-0.20317253
92	0xbe4d6f3a	-0.20061961
93	0xbe1394db	-0.14412253
94	0xbe909b96	-0.28243703
95	0xbe8cd9a6	-0.27509803
96	0xbe70edf7	-0.23528276
97	0xbba0c233	-0.004905963
98	0x3e8078b7	0.25092098
99	0x3dd234bd	0.10263965
100	0xbe1727c3	-0.14761262
101	0x3d265275	0.04060598
102	0x3e51a97b	0.20474808
103	0x3e1bac92	0.15202549
104	0x3e3d4186	0.18482026
105	0x3bd6619a	0.0065423967
106	0xbe7bb2e6	-0.24579963
107	0xbe62fc29	-0.22166504
108	0xbe49b05a	-0.19696179
109	0xbdc961ea	-0.09833129
110	0xbe318ba0	-0.17338419
111	0xbe85c4dd	-0.26126757
112	0x3efaff35	0.49022833
113	0xbdf14297	-0.11780279
114	0xbe908403	-0.28225717
115	0xbe6cae7f	-0.2311344
116	0xbf2f409c	-0.6845796
117	0xbf0b3bdf	-0.5438823
118	0x3ca26c35	0.019826988
119	0x3eeb3ade	0.4594335
120	0x3dfd7b4c	0.12377033
121	0x3ed4723f	0.41493413
122	0x3ca45ed8	0.020064756
123	0x3ea13d85	0.31492248
124	0xbe5d5ffb	-0.21618645
125	0x3edcbd86	0.43113345
126	0x3e2c13cd	0.16804428
127	0x3eaec2cb	0.3413299
128	0xbd48e0a5	-0.049042363
129	0x3cd2946f	0.025705544
130	0x3c863533	0.01638279
131	0xbd72bb1f	-0.059260484
132	0xbf177c60	-0.59174156
133	0xbeb27eb1	-0.34862283
134	0x3ea16733	0.31524047
135	0x3e7d9e48	0.24767411
136	0x3e1c06d8	0.15236986
137	0x3ec3274a	0.38115913
138	0xbe1108e1	-0.14163543
139	0x3ceee570	0.029162139
140	0xbe8ac647	-0.271044
141	0x3e19f14d	0.15033455
142	0xbe0d1d0f	-0.13780616
143	0xbcc3897a	-0.023869265
144	0x3ccb22cc	0.024796866
145	0xbc76d3c9	-0.015065142
146	0x3e059c1c	0.13047832
147	0x3d57670b	0.052588504
148	0x3d6f8eaf	0.058485683
149	0x3e1bf5f0	0.15230536
150	0xbd9b0372	-0.075690165
151	0x3da095e8	0.07841092
152	0x3d9d2522	0.07673098
153	0xbe147f72	-0.14501742
154	0xbd8ac47d	-0.067757584
155	0xbdab00d2	-0.08349766
156	0x3cf78f12	0.030219588
157	0x3d238b94	0.039928034
158	0x3db590bc	0.088654965
159	0xbd7252e5	-0.059161086
160	0x3eca16ec	0.39470613
161	0xbde2f925	-0.11082677
162	0xbe700a53	-0.23441438
163	0xbe4d75d3	-0.20064478
164	0xbf2d460f	-0.67685026
165	0xbf03c207	-0.5146794
166	0x3d989664	0.0745056
167	0x3edc72d1	0.43056348
168	0x3e0153e9	0.12629665
169	0x3ed5f070	0.41785002
170	0xbc7688af	-0.015047236
171	0x3e877eb0	0.26463842
172	0xbe723e86	-0.23656663
173	0x3ec46f2f	0.38366076
174	0x3dd4759f	0.10373997
175	0x3e8a90ba	0.27063543
176	0xbe075123	-0.13214545
177	0xbdc8454f	-0.097788446
178	0x3be89137	0.007097389
179	0x3d0fa243	0.035066854
180	0xbf04e8fa	-0.51917994
181	0xbe8ceb7d	-0.27523413
182	0x3ea657b9	0.32488802
183	0x3e49f2bd	0.19721504
184	0x3de80371	0.113287814
185	0x3edaa1ef	0.4270167
186	0xbe68d146	-0.22736081
187	0xbd3a2ebe	-0.045454733
188	0xbe88a698	-0.266896
189	0x3dc25fed	0.09490953
190	0xbe9e28b0	-0.30890417
191	0xbe3d9546	-0.18513975
192	0xbda34de8	-0.07973844
193	0x3e5675ec	0.20943421
194	0x3e7a5bb2	0.24449041
195	0xbdbad3ad	-0.09122405
196	0xbe79ea73	-0.24405842
197	0xbd32ef1a	-0.043685056
198	0x3e15351c	0.14571041
199	0x3e08c517	0.13356434
200	0x3e4f53bd	0.20246787
201	0xbb7d48a2	-0.003864803
202	0xbb509c4c	-0.0031831441
203	0x3d27635e	0.04086625
204	0xbe5d3641	-0.21602727
205	0x3c0bc12b	0.008529942
206	0x3e5a5db0	0.21324801
207	0x3e20dbe0	0.15708876
208	0xbeb9efee	-0.36315864
209	0x3d9be31b	0.07611676
210	0x3e3e4577	0.18581186
211	0x3da3cafa	0.07997699
212	0xbe974650	-0.29545832
213	0xbdc7536a	-0.09732707
214	0x3ebdd812	0.3707891
215	0x3cae9340	0.021310449
216	0x3dd49912	0.10380758
217	0x3e5dddae	0.21666595
218	0xbe53b638	-0.2067498
219	0xbe319e86	-0.17345628
220	0xbe54d531	-0.20784451
221	0xbdbfbefa	-0.09362598
222	0xbe9a83b8	-0.30178618
223	0xbe868f8a	-0.26281387
224	0xbe71fa97	-0.23630749
225	0xbf0b0b6f	-0.5431432
226	0xbde04d1a	-0.10952206
227	0x3ebd8289	0.37013653
228	0x3e4a0df4	0.19731885
229	0x3e5ffa1c	0.21872753
230	0x3c95aa70	0.018269747
231	0xbe1c0540	-0.15236378
232	0xbe312d94	-0.17302543
233	0x3e86b4e9	0.26309898
234	0xbead341d	-0.33828822
235	0xbe7756a8	-0.2415415
236	0x3ca3ccf8	0.019995198
237	0xbe1bd245	-0.1521693
238	0xbf2e160e	-0.680024
239	0xbf1abbe5	-0.60442954
240	0xbd81903b	-0.06326338
241	0xbe13c6df	-0.14431332
242	0xbd8d44c1	-0.068978794
243	0x3d6db6be	0.058035605
244	0xbccfe160	-0.025376022
245	0xb9b4ae30	-0.00034462055
246	0xbc6d27ae	-0.014474792
247	0x3c61f45b	0.013791169
248	0xbc983d92	-0.018584047
249	0x3da049dc	0.078265876
250	0xbd87a965	-0.06624106
251	0xbcca110c	-0.024666332
252	0xbc4bc81b	-0.012437846
253	0xbd0ef7d1	-0.034904305
254	0xbdf2ae8e	-0.118497
255	0xbe005b00	-0.12534714

net.0.bias f4 [64]
0	0x3eb87cb9	0.36032656
1	0x3f471426	0.7776512
2	0x3f317449	0.6931806
3	0x3f2a9d0e	0.66645896
4	0x3f10f48d	0.56623155
5	0xbeed671b	-0.46367726
6	0xbf0a13a8	-0.53936243
7	0xbefef4fa	-0.49796277
8	0x3ea9b2f3	0.3314434
9	0x3f2fa0a1	0.68604475
10	0xbf00f46c	-0.5037296
11	0x3e83e7f2	0.25762898
12	0x3d011545	0.031514425
13	0xbd0dca8b	-0.03461699
14	0x3c5d9368	0.013523914
15	0x3f42840d	0.75982744
16	0x3f0050bf	0.5012321
17	0xbf6c2426	-0.9224266
18	0x3f13aab9	0.5768238
19	0x3f53d35f	0.827444
20	0x3e99b626	0.3002178
21	0xbf654724	-0.89561677
22	0x3ed49220	0.41517735
23	0xbf646f5f	-0.8923244
24	0x3f1be202	0.60891736
25	0xbd226ce7	-0.03965464
26	0xbeee2a31	-0.46516564
27	0xbe7ca5b6	-0.24672589
28	0xbf01c78b	-0.50695103
29	0x3e816e6d	0.2527956
30	0x3f37a754	0.717397
31	0xbe547426	-0.20747432
32	0xbf4f127d	-0.80887586
33	0xbe580515	-0.21095689
34	0xbf79b921	-0.9754811
35	0x3f1aeaa9	0.60514313
36	0x3f024402	0.5088502
37	0xbf477f32	-0.7792846
38	0x3ef7566c	0.48308122
39	0xbeda73dc	-0.4266652
40	0xbed7c472	-0.42142063
41	0xbeb76024	-0.35815537
42	0xbf058945	-0.5216258
43	0xbd0f9bbf	-0.03506064
44	0x3e4885a9	0.19582237
45	0x3f260b09	0.6486059
46	0xbd8552da	-0.06509943
47	0xbf442a4a	-0.7662703
48	0xbf669a3e	-0.90079105
49	0x3f53b9ea	0.8270556
50	0xbdb5053b	-0.08838888
51	0xbed7c160	-0.4213972
52	0xbf383632	-0.71957695
53	0xbdd2b744	-0.102888614
54	0xbf308fb4	-0.68969274
55	0xbe7c390c	-0.24631137
56	0xbd3f0cdd	-0.046643127
57	0x3ee613e1	0.4493704
58	0x3eb9c880	0.36285782
59	0xbf232d7c	-0.6374128
60	0x3f3bcb1e	0.7335681
61	0xbf4f1058	-0.80884314
62	0x3f232a4b	0.6373641
63	0x3ec539cb	0.38520655

net.2.weight f4 [64, 64]
0	0x3d28da33	0.041223716
1	0x3eb25aec	0.34834993
2	0x3e01320f	0.12616752
3	0x3ddc3bd1	0.107535966
4	0x3da67716	0.081281826
5	0xbe5a5509	-0.21321501
6	0xbcc9f738	-0.024654016
7	0xbecfc998	-0.4058349
8	0xbd4e10c8	-0.050308973
9	0x3e0b8e48	0.13628495
10	0xbe5af957	-0.21384178
11	0x3ed6ba77	0.41939136
12	0x3ce901f3	0.028443312
13	0x3e57ccd2	0.21074226
14	0xbec53cb6	-0.3852288
15	0x3df41acb	0.11919173
16	0x3de61f2d	0.11236415
17	0x3d4bff24	0.049803868
18	0x3dc6857f	0.09693431
19	0x3e4f730f	0.20258735
20	0x3cedc603	0.029025083
21	0xbdb19d06	-0.08672528
22	0xbe2e9cd6	-0.17052016
23	0xbc60bb77	-0.01371657
24	0x3e08526f	0.13312696
25	0xbd89a60d	-0.06721125
26	0xbd4c2d11	-0.049847666
27	0x3d9a245e	0.07526468
28	0xbf0a50d3	-0.5402958
29	0x3bbadd9e	0.0057026884
30	0xbccbbd30	-0.024870485
31	0x3e0818db	0.13290732
32	0x3e1cd7e9	0.15316738
33	0xbd27b209	-0.040941272
34	0xbf69fb40	-0.91399
35	0x3da005ae	0.07813583
36	0x3d6b03d6	0.057376705
37	0xbe15246d	-0.14564677
38	0x3d86ca5d	0.065815665
39	0x3dc7af02	0.09750177
40	0xbe404ba0	-0.18778849
41	0xbe882e62	-0.26597887
42	0xbd6e3054	-0.058151558
43	0x3dc7b38b	0.09751042
44	0x3e96b936	0.2943818
45	0x3e429c2f	0.19004892
46	0x3e844392	0.25832802
47	0xbd9c3dba	-0.07628961
48	0x3e317b4d	0.17332192
49	0x3d73ffde	0.059570186
50	0x3e493e76	0.19652733
51	0xbc37f840	-0.011228621
52	0x3e6eb323	0.23310523
53	0x3eafc533	0.3433014
54	0xbe08bb8b	-0.13352792
55	0xbc2f2255	-0.010689338
56	0x3d09e93f	0.033669706
57	0x3e1b562d	0.15169592
58	0xbda4da07	-0.08049398
59	0x3e23dcb0	0.16002154
60	0x3e58c235	0.21167834
61	0x3db510ba	0.08841081
62	0xbd9eb59a	-0.077494815
63	0xbd3404b9	-0.043949816
64	0xbe510b15	-0.20414384
65	0xbdd7948c	-0.1052638
66	0xbe485eb9	-0.19567384
67	0xbe5dc102	-0.21655658
68	0xbda3151a	-0.07963009
69	0x3d8d6316	0.06903665
70	0x3e020730	0.12698054
71	0xbdf6818d	-0.120364286
72	0x3dac4235	0.084110655
73	0xbdeac918	-0.11464137
74	0xbd33e54a	-0.04391984
75	0xbc15d754	-0.0091455765
76	0xbdbccb79	-0.09218497
77	0x3cfb82d4	0.030702032
78	0xbdd59296	-0.1042835
79	0xbe42f6c3	-0.19039445
80	0xbe2c4ad2	-0.16825417
81	0x3d93841e	0.07202934
82	0xbdf4092d	-0.11915813
83	0xbe8292b7	-0.2550256
84	0xbe011ea1	-0.1260934
85	0x3e4acd23	0.19804816
86	0x3d000a5d	0.031259883
87	0x3ddf15ed	0.10892854
88	0xbe30ed59	-0.17278041
89	0xbdf61dab	-0.120173775
90	0xbc88b8c3	-0.016689664
91	0xbbe75a9c	-0.007060362
92	0xbded7c09	-0.115959235
93	0xbe0e0d97	-0.13872372
94	0xbe20de1d	-0.1570973
95	0x3e0c057d	0.13673969
96	0xbcd091da	-0.025460172
97	0x3d7d6934	0.061867908
98	0x3bb272e2	0.005445824
99	0xbe0ea7d3	-0.13931207
100	0xbe14384f	-0.14474605
101	0x3e1c84d0	0.15285039
102	0xbe508bf5	-0.2036589
103	0x3e050d4a	0.1299335
104	0xbd3dabfb	-0.04630659
105	0xbcaee836	-0.021350961
106	0x3e2dd889	0.16977133
107	0xbba72e09	-0.0051019234
108	0xbd0b1220	-0.033952832
109	0xbe82fb30	-0.25582266
110	0xbdcab773	-0.098982714
111	0x3dc35a58	0.09538716
112	0x3e2bcd1f	0.16777466
113	0xbe1ec7fe	-0.15505978
114	0x3d8fbaa4	0.07018021
115	0xbd28b618	-0.041189283
116	0x3db0f3ac	0.08640227
117	0x3c439304	0.011936907
118	0x3da2e5e9	0.07954008
119	0xbe06f834	-0.1318062
120	0x3bf4b96a	0.007468392
121	0xbe041144	-0.12897211
122	0xbd36e0e8	-0.04464808
123	0xbc85e4a4	-0.016344376
124	0x3c8c23a1	0.017106833
125	0xbd58dd1d	-0.052945245
126	0xbe23574f	-0.15951274
127	0xbe7e0fd1	-0.24810721
128	0xbe4a0249	-0.19727434
129	0xbe7becb3	-0.24602012
130	0xbcb8eab4	-0.022572853
131	0xbe9090ad	-0.2823538
132	0xbdc1443e	-0.09436844
133	0x3daa13ad	0.08304534
134	0xbd3cd600	-0.046102524
135	0xbe06cd0a	-0.13164154
136	0xbd1c8576	-0.038213216
137	0xbdd53ee3	-0.10412385
138	0xbbd62db4	-0.00653621
139	0x3d9e9eaf	0.0774511
140	0xbdf625f6	-0.12018959
141	0x3d8485bd	0.06470821
142	0xbe611e42	-0.21984199
143	0xbd806b22	-0.06270434
144	0xbd42225f	-0.04739606
145	0x3d3cce29	0.046095047
146	0xbd852862	-0.06501843
147	0xbe01ac84	-0.12663466
148	0xbddeed7c	-0.1088514
149	0x3d61ab39	0.05509493
150	0xbd95ab4c	-0.07308063
151	0x3de2df17	0.11077707
152	0xbe202d48	-0.15642273
153	0xbdc77fd0	-0.09741175
154	0x3de08e2c	0.10964617
155	0xbdf96f1b	-0.12179395
156	0xbd0d045f	-0.034427997
157	0xbe6545be	-0.22389886
158	0xbde34166	-0.11096458
159	0xbda078fe	-0.078355774
160	0xbd3d4b66	-0.046214484
161	0x3cf59f99	0.029983329
162	0xbaacf5ee	-0.0013195851
163	0xbda2f10d	-0.07956133
164	0xbde3ba2c	-0.11119494
165	0x3e1ac51c	0.15114254
166	0xbe12cf2b	-0.14336841
167	0x3d869595	0.06571499
168	0xbbf141e2	-0.00736259
169	0x3df6de1b	0.12054082
170	0xbd172797	-0.03690299
171	0xbc934f14	-0.017982043
172	0xbd8d8498	-0.06910056
173	0xbe103762	-0.14083627
174	0x3d31a7df	0.043372985
175	0x3e116227	0.14197598
176	0xbd1313ae	-0.03590744
177	0xbdd0077d	-0.10157678
178	0xbc6ee0a5	-0.014579927
179	0xbd87a199	-0.06622619
180	0x3b7c9366	0.0038540005
181	0xbd023737	-0.03179094
182	0xbd9ed5c0	-0.07755613
183	0xbdc7137b	-0.097205125
184	0x3b6e761e	0.0036386321
185	0xbe15079b	-0.14553683
186	0xbd67bf1d	-0.056578744
187	0x3d0176d4	0.031607464
188	0xbe481527	-0.19539319
189	0x3cde2687	0.02711798
190	0xbe90c48e	-0.2827496
191	0xbe2ae9a7	-0.16690694
192	0xbe66ef53	-0.22552232
193	0x3e23f0c7	0.16009818
194	0xbc93d04e	-0.018043663
195	0x3c765ad0	0.0150363
196	0xbeaa8dfd	-0.33311453
197	0xbdfc7008	-0.12326056
198	0xbd599ba7	-0.053126957
199	0xbc1f6c8f	-0.009730472
200	0xbbbb109a	-0.005708766
201	0xbbcd9cf7	-0.006274815
202	0x3e13c0db	0.14429037
203	0x3de50a05	0.11183552
204	0xbdb2282d	-0.08699069
205	0xbdb897b2	-0.090133086
206	0x3db23ee9	0.087034054
207	0x3dae9f52	0.08526482
208	0xbed1210e	-0.4084553
209	0x3e4ec7d9	0.20193423
210	0x3d9dccaf	0.07705056
211	0x3dd9d6f1	0.106367
212	0xbd5d1ed8	-0.053984493
213	0x3d5f8c07	0.0545769
214	0xbd14a19f	-0.036286946
215	0x3e869c26	0.26291007
216	0x3e3103a4	0.17286545
217	0xbd2ec7a1	-0.04267085
218	0xbd357f91	-0.04431111
219	0x3ce11220	0.027474463
220	0xbdc94cef	-0.09829127
221	0x3ccea3c3	0.025224572
222	0x3a96a33e	0.0011492742
223	0xbded7111	-0.11593831
224	0x3db2ca8e	0.087300405
225	0xbe438982	-0.19095424
226	0x3db4f0d7	0.08834999
227	0x3d7c8a22	0.06165517
228	0xbd552738	-0.052039355
229	0x3e16d20f	0.14728568
230	0x3c9265c9	0.0178708
231	0x3d4b3538	0.0496113
232	0xbd9d411b	-0.076784335
233	0x3d0f4b65	0.03498401
234	0xbdb8ad7e	-0.09017466
235	0x3e4145ee	0.18874332
236	0xbde29eeb	-0.110654674
237	0xbc204dfe	-0.00978422
238	0x3da528ef	0.08064448
239	0xbc45e081	-0.012077452
240	0x3d557763	0.05211581
241	0x3e24dbc1	0.16099454
242	0x3bd088ee	0.0063639795
243	0x3de2c053	0.11071839
244	0x3df70dca	0.12063177
245	0xbdfbec8b	-0.12300976
246	0x3bb3ab47	0.0054830643
247	0xbde903ec	-0.11377701
248	0x3c38e9f3	0.011286247
249	0x3bc2c835	0.0059442767
250	0x3dffb4ef	0.12485682
251	0x3e203cb7	0.15648161
252	0x3e024e9d	0.12725301
253	0x3e56222f	0.20911478
254	0x3e888446	0.26663417
255	0xbe19538e	-0.1497328

net.2.bias f4 [64]
0	0x3eb85dcd	0.36009064
1	0xbda617bd	-0.081099965
2	0xbe09f972	-0.13474062
3	0x3e2facb7	0.17155729
4	0xbcabf317	-0.020989938
5	0x3e0e3645	0.1388789
6	0x3e538bff	0.20658873
7	0x3cdb6303	0.02678061
8	0xbe96eb09	-0.29476193
9	0xbe656316	-0.2240108
10	0xbd6d51af	-0.057939228
11	0x3e090956	0.13382468
12	0x3e934373	0.28762397
13	0xbeb22a3a	-0.3479784
14	0xbe4d379b	-0.20040743
15	0xbdb1a67a	-0.08674331
16	0xbe6848ab	-0.2268397
17	0x3d1705b6	0.03687068
18	0xbe83434a	-0.25637275
19	0xbe015935	-0.12631686
20	0x3e8e10c0	0.27747154
21	0x3efe35b1	0.49650338
22	0xbe06f868	-0.13180697
23	0x3e0c476f	0.13699125
24	0x3c8000d1	0.01562539
25	0x3e8908be	0.26764482
26	0xbc69b00f	-0.014263167
27	0xbe44eab6	-0.1923016
28	0x3e9c29fe	0.30500787
29	0xbdc9dcef	-0.09856593
30	0x3e47bb16	0.19504961
31	0xbc6862c7	-0.014183707
32	0x3dc384cd	0.09546814
33	0x3e441b88	0.19151127
34	0xbd919999	-0.071093746
35	0xbdd74ca4	-0.10512665
36	0x3c108eb1	0.008823083
37	0xbcbb3e5d	-0.022856886
38	0x3e6a8379	0.22901715
39	0x3d9f8a5d	0.077900626
40	0x3e1e3230	0.15448833
41	0x3d947708	0.07249266
42	0xbe0d4136	-0.13794407
43	0x3c6779e1	0.014128179
44	0x3d40603a	0.04696677
45	0x3ea7a249	0.32741
46	0xbdaa74fb	-0.083230935
47	0x3e40030c	0.18751162
48	0xbe53e6c2	-0.20693496
49	0x3c55561b	0.013021017
50	0xbe0de149	-0.1385547
51	0x3e64a319	0.22327842
52	0x3eace0c7	0.33765242
53	0xbdce19f8	-0.10063547
54	0x3e7cd30a	0.2468988
55	0xbe1e6350	-0.15467572
56	0x3de4b476	0.11167233
57	0xbd6971d3	-0.056993317
58	0xbd14e780	-0.036353588
59	0x3e961999	0.29316404
60	0x3e1bf57e	0.15230367
61	0x3e8f30d4	0.2796694
62	0x3df4a0fc	0.11944768
63	0xbda34e76	-0.079739496

net.4.weight f4 [5, 64]
0	0xbc5087fa	-0.012727732
1	0x3e211fd9	0.15734805
2	0xbe41a126	-0.1890913
3	0xbef39ed5	-0.47582117
4	0xbdd43fb7	-0.10363715
5	0xbcad2900	-0.021137714
6	0xbf0e1cc5	-0.5551265
7	0xbf1adfe2	-0.6049787
8	0xbc2d40f2	-0.010574566
9	0x3db77f8a	0.08959873
10	0x3e376372	0.17909029
11	0xbdecc0c5	-0.11560205
12	0x3db50a28	0.08839828
13	0xbd9da285	-0.07697014
14	0x3d72404e	0.059143357
15	0x3d6f7045	0.058456678
16	0x3d974230	0.07385671
17	0x3dae8ceb	0.08522972
18	0x3df0de9c	0.11761209
19	0x3e23a3db	0.15980475
20	0x3dc573cb	0.096412264
21	0x3d99b1c5	0.0750461
22	0xbdbc4f80	-0.09194851
23	0x3e583f40	0.21117878
24	0x3d0a155d	0.03371178
25	0x3e96a519	0.29422835
26	0x3e1fdbae	0.15611145
27	0xbd50de72	-0.05099339
28	0xbca3eea3	-0.020011252
29	0x3c9ce57b	0.019152394
30	0x3edcaba9	0.43099716
31	0x3dd606de	0.104505286
32	0xbda3dc5d	-0.08001015
33	0xbe189012	-0.14898708
34	0xbe4bcaea	-0.19901624
35	0xbcbc20eb	-0.022964915
36	0xbd802705	-0.062574424
37	0x3e2ae19b	0.16687624
38	0x3df96d76	0.12179081
39	0xbd8c6ce8	-0.0685671
40	0x3d50717f	0.05088949
41	0x3deeab06	0.11653714
42	0xbd19920e	-0.037492804
43	0x3d82bae9	0.063833065
44	0x3d01bd57	0.03167471
45	0xbe0a3ffe	-0.13500974
46	0xbdd3ea90	-0.103474736
47	0x3dbb9811	0.09159864
48	0xbdb0233a	-0.08600469
49	0xbd5b971e	-0.053610913
50	0xbd8571c5	-0.065158404
51	0x3df2b143	0.11850216
52	0x3d3ef217	0.046617594
53	0x3c851ff4	0.016250588
54	0x3d8350f2	0.064119235
55	0x3d2433e8	0.040088564
56	0xbe166478	-0.14686763
57	0xbdf4db93	-0.11955943
58	0xbd072dc1	-0.03300262
59	0x3d924f9d	0.07144091
60	0x3db501cf	0.088382356
61	0x3e3d0bc4	0.1846152
62	0x3d8fcc3a	0.07021375
63	0xbd64b902	-0.0558405
64	0xbd454573	-0.048161935
65	0xbdd0ef33	-0.10201874
66	0x3c8e129b	0.017342856
67	0x3d027787	0.03185227
68	0xbd8bd3bf	-0.06827497
69	0xbbdcdca8	-0.0067401715
70	0xbc85f3d1	-0.016351612
71	0xbc008a7d	-0.007845518
72	0xbd6646d4	-0.05621989
73	0x3cea0821	0.02856833
74	0x3e271680	0.16317177
75	0xbca7e290	-0.020493776
76	0xbd0dad39	-0.034589026
77	0xbdbad7c7	-0.091231875
78	0x3e036e25	0.12834986
79	0x3c72b547	0.014813728
80	0xbcd31027	-0.025764538
81	0x3d828344	0.06372693
82	0x3c1badab	0.009501855
83	0x3b9953f5	0.004679198
84	0xbe82f61d	-0.25578395
85	0x3f4c32ed	0.79765207
86	0x3b89131c	0.004183186
87	0xbe9601f4	-0.29298365
88	0xbe115d20	-0.1419568
89	0x3d224369	0.03961507
90	0x3d0bd3a2	0.034137376
91	0xbde24671	-0.11048592
92	0xbda9a871	-0.08284081
93	0x3eb7af34	0.35875857
94	0xbd1d52e2	-0.03840912
95	0x3c28d3d6	0.010304412
96	0xbde799fa	-0.113086656
97	0xbcd9c043	-0.026580935
98	0x3dd721a8	0.10504466
99	0xbcb19a6f	-0.021680085
100	0x3ce14618	0.027499244
101	0x3c35fdff	0.011107921
102	0xbb8bd813	-0.0042677014
103	0x3ddd0ae5	0.107930936
104	0x3c91a41b	0.017778447
105	0xba026fd5	-0.0004975771
106	0x3db88741	0.09010173
107	0xbe02750f	-0.12739967
108	0x3e1d38ed	0.15353747
109	0x3dd3e7b2	0.10346927
110	0x3e021dcf	0.12706684
111	0xbe190dc4	-0.14946657
112	0xbd9fb480	-0.077980995
113	0x3ecb7383	0.39736566
114	0xbcbe9337	-0.023263557
115	0x3e074b5e	0.13212344
116	0xbe10b4f9	-0.14131536
117	0x3d7a4dea	0.06110946
118	0xbd36fc86	-0.04467442
119	0xbe471864	-0.19442898
120	0xbcf5f489	-0.03002383
121	0xbede4373	-0.43410835
122	0xbdc4bdf8	-0.09606546
123	0x3cbb7dae	0.022887077
124	0xbd8e105a	-0.069367126
125	0xbe0489e2	-0.12943223
126	0xbe762dc1	-0.24040891
127	0x3e0e0173	0.1386774
128	0x3f3df6f9	0.74204975
129	0xbda66ba2	-0.08125998
130	0xbdbf21af	-0.093325965
131	0xbd8698b0	-0.065720916
132	0xbe0d3521	-0.13789798
133	0x3ca2bb61	0.01986474
134	0x3d046c6a	0.032329954
135	0x3c58a969	0.013223984
136	0x3dc047fc	0.0938873
137	0xbe1ac073	-0.15112476
138	0x3e0ff0d8	0.14056718
139	0x3ef21bd4	0.47286856
140	0x3f0f473b	0.55968064
141	0xbe321ead	-0.17394514
142	0xbd62c60f	-0.055364665
143	0xbd70422e	-0.058656864
144	0xbe6db9c6	-0.23215398
145	0xbd1b4f80	-0.037917614
146	0xbd46b0a2	-0.048508294
147	0xbec8852d	-0.39164105
148	0xbc9882f1	-0.018617125
149	0xbd7025ac	-0.058629677
150	0x3d36aeff	0.044600483
151	0x3e0cf552	0.13765457
152	0x3d569eba	0.052397467
153	0x3c94d84f	0.01816955
154	0x3b01dd7c	0.0019815853
155	0x3e3b5842	0.18295386
156	0xbe80865c	-0.25102508
157	0x3d926976	0.07149021
158	0x3c0bf954	0.008543331
159	0xbe0a888f	-0.13528655
160	0x3bdb99ff	0.0067017074
161	0xbdf83e23	-0.12121227
162	0x3cbbf662	0.022944633
163	0xbd236c95	-0.039898474
164	0x3f95918a	1.168504
165	0xbf1a5305	-0.6028293
166	0x3f86a90b	1.0520338
167	0xbdc8b747	-0.098005824
168	0x3d48f78a	0.049064197
169	0xbe14afb1	-0.14520146
170	0x3ec00768	0.3750565
171	0xbd91ca35	-0.07118646
172	0x3d0fdf28	0.035124928
173	0xbe93e645	-0.2888662
174	0x3d1bc8b4	0.038033202
175	0xbe5a497f	-0.21317099
176	0x3e101cbf	0.14073466
177	0x3e06eb64	0.13175732
178	0x3d306618	0.043066114
179	0x3dd29d6d	0.10283933
180	0xbe031309	-0.1280023
181	0x3dde0a3f	0.10841798
182	0xbe45a451	-0.19300963
183	0x3e0cb5dd	0.1374125
184	0xbe4a5728	-0.1975981
185	0x3dcab259	0.09897298
186	0x3e7a3a17	0.24436222
187	0xbf33082b	-0.6993434
188	0xbe628f1a	-0.22124901
189	0xbe0cc9cd	-0.13748856
190	0xbea00a9a	-0.31258088
191	0xbe20dc49	-0.15709032
192	0xbc9ae28a	-0.01890685
193	0x3e87ae43	0.2650014
194	0x3e3a3bd5	0.18186887
195	0xbd1153e8	-0.03548041
196	0x3d586c82	0.052837856
197	0xbd35e2bf	-0.044405695
198	0x3caddf36	0.0212246
199	0x3b07ec5b	0.0020740244
200	0x3e30270b	0.17202394
201	0x3ea81e63	0.32835683
202	0x3c4225eb	0.011849861
203	0x3d10a4d2	0.035313435
204	0x3c1004e5	0.008790229
205	0x3ea17e79	0.31541803
206	0x3d85b0dd	0.065278746
207	0x3daeaecd	0.08529434
208	0x3ea24532	0.31693417
209	0xbd4e05c4	-0.050298467
210	0x3ebecf0d	0.37267342
211	0x3c80cd2c	0.015722834
212	0xbe3cd89f	-0.1844201
213	0xb9806973	-0.00024492628
214	0x3dc2c1e4	0.09509638
215	0xbcdeedd0	-0.027213007
216	0x3e27e9fd	0.16397853
217	0xbb59c1b0	-0.003322702
218	0xbbc6c6e5	-0.0060661905
219	0x3e4b37b9	0.19845475
220	0xbd610964	-0.054940596
221	0x3d3c41ff	0.045961376
222	0x3ab64a39	0.0013907618
223	0xbccbf0ab	-0.024895033
224	0xbbd26ff2	-0.0064220363
225	0x3d6a12b9	0.05714676
226	0x3d8026d6	0.06257407
227	0x3da0cdcf	0.07851755
228	0x3e0d9a63	0.13828425
229	0xbd156d0f	-0.03648096
230	0xbdc8883a	-0.09791608
231	0xbdbc8a44	-0.092060596
232	0xbcaf91fe	-0.02143192
233	0xbb24d876	-0.0025153435
234	0x3c589694	0.013219494
235	0xbc8ff763	-0.017574018
236	0x3d70f600	0.058828354
237	0xbe162ec0	-0.14666271
238	0x3e185c78	0.14879024
239	0xbcf7528e	-0.030190732
240	0x3e4f7deb	0.20262878
241	0xbdea7903	-0.114488624
242	0x3de867e9	0.11347944
243	0xbd81232b	-0.06305536
244	0xbe26292d	-0.16226645
245	0xbc4e1f12	-0.01258065
246	0xbdf0943a	-0.11747022
247	0x3dac0299	0.08398933
248	0x3d33fbcb	0.0439413
249	0xbe080a09	-0.13285078
250	0x3da9907e	0.08279513
251	0x3b9058da	0.004405123
252	0xbdadb138	-0.084810674
253	0xbe14f83e	-0.14547822
254	0x3d046d8b	0.03233103
255	0xbd801a36	-0.06254999

net.4.bias f4 [5]
0	0xbdd7c481	-0.10535527
1	0xbe2e0748	-0.16994965
2	0xbe46b0f6	-0.19403443
3	0xbe080355	-0.13282521
4	0xbdb4adbc	-0.088222
