data_augmented/checkpoints/generator_epoch88.pth (torch, 25068 bytes, 6 tensors)

net.0.weight f4 [64, 16]
-0.15141173 -0.0054981397 0.11618179 0.14185311 -0.2762413 0.119103216 0.21036428 0.047980186
0.06859365 0.2048306 -0.053223524 0.064855956 -0.22081561 0.14280014 -0.095634714 0.04064371
0.21069363 -0.07706752 -0.119058765 -0.002501734 0.1580277 0.0928758 -0.20403321 -0.022576246
-0.09372316 -0.09036007 0.1274754 0.15262467 0.11053391 0.109682046 0.14887644 0.20686027
-0.40218362 0.04686284 0.19812623 0.14548199 0.08830849 0.13983133 0.23779649 -0.1386864
0.019738216 0.03195525 -0.16463459 -0.2804643 -0.08519358 -0.2431916 -0.32812402 -0.35447618
-0.08181773 0.06517281 -0.18085787 -0.038934298 0.07692633 -0.13219972 0.11564711 -0.2675037
-0.1628114 0.07149272 0.1833453 0.15783004 0.08488106 -0.10319227 -0.10821951 0.1679429
-0.0143574495 -0.047907535 0.024206892 0.07514381 0.007380247 0.16189802 0.0017929752 -0.051999975
-0.010645396 0.018383373 0.052261274 0.07610926 -0.03881751 0.09081231 0.006412692 0.08454431
-0.4027078 0.13628154 0.22863434 0.07011222 -0.20814236 -0.060623795 0.3691965 -0.015590374
0.119225964 0.15084834 -0.19827312 -0.24967973 -0.19080067 -0.18811347 -0.29011425 -0.31595644
-0.18866177 0.07582575 0.15544385 -0.038813706 -0.24047035 -0.1294929 0.196849 0.11636695
0.18709733 0.09503198 -0.18935384 -0.23324354 -0.15515786 -0.0895484 -0.1287887 -0.322855
0.55921006 -0.1978596 -0.3359579 -0.20515798 -0.7734773 -0.5854332 -0.054156963 0.4650906
0.09949834 0.4199019 0.022971587 0.438289 -0.13473092 0.50836784 0.22934285 0.3895036
-0.07022363 -0.11763683 -0.0241653 0.011319121 -0.6946342 -0.40245938 0.34205133 0.28077367
0.14961697 0.511443 -0.250664 -0.009865116 -0.30289924 0.1431427 -0.29715526 -0.17604846
0.09671809 0.00055630406 -0.011480147 -0.021273527 0.18041931 0.09137181 -0.15982497 -0.014837741
-0.023202099 -0.15937383 0.04835914 0.00015903932 0.09886031 -0.0062895073 0.13108255 0.04686636
0.52324784 -0.19256201 -0.3166779 -0.18876256 -0.74276596 -0.55795366 -0.04190785 0.4440551
0.09418023 0.41133577 0.013236923 0.41192108 -0.13196833 0.47891447 0.20247275 0.36032578
-0.12762636 -0.11019225 0.0051431805 0.02845922 -0.69279057 -0.39034912 0.37961057 0.26434138
0.15723073 0.51746917 -0.27552393 -0.050965436 -0.31698343 0.10923209 -0.34236825 -0.22723943
0.08819982 0.43399432 0.12838984 -0.23829277 -0.037740283 -0.084908485 -0.019638427 0.036012154
0.11035585 -0.26895648 0.23515429 0.11632862 0.028802034 0.014309212 0.4742243 0.36326486
-0.43695506 0.12831171 0.24028784 0.09237111 -0.15002945 -0.014062316 0.36396933 -0.049175903
0.10768217 0.12733784 -0.20569628 -0.27612516 -0.17758663 -0.21755488 -0.31523746 -0.35007763
-0.24444237 -0.649888 -0.13715984 0.40539858 0.10917839 0.18145186 0.08800677 -0.10752539
-0.16066349 0.39870086 -0.399104 -0.27232605 -0.056844622 -0.10309352 -0.8170572 -0.6643857
0.0129155945 -0.108194545 -0.048646715 0.044855468 -0.06383851 -0.031567898 0.0192084 0.03170534
-0.008013496 0.09558053 -0.06635244 -0.005491887 -0.02406753 0.02727277 -0.10033502 -0.07045379
00000000: ad0b 1bbe bd29 b4bb b8f0 ed3d f141 113e
00000010: 806f 8dbe 63ec f33d bc69 573e df86 443d
00000020: d47a 8c3d 1dbf 513e e900 5abd 33d3 843d
00000030: 7d1d 62be 333a 123e 22dc c3bd 057a 263d
00000040: 12c0 573e 93d5 9dbd 15d5 f3bd 22f4 23bb
00000050: 03d2 213e ab35 be3d 15ee 50be d2f1 b8bc
00000060: eef1 bfbd b30e b9bd e988 023e a449 1c3e
00000070: 9a5f e23d fba0 e03d 1173 183e 2ed3 533e
00000080: 03eb cdbe 40f3 3f3d 9ae1 4a3e 3bf9 143e
00000090: 15db b43d f22f 0f3e ec80 733e cf03 0ebe
000000a0: 0ab2 a13c 82e3 023d f895 28be 0499 8fbe
000000b0: f979 aebd 3807 79be dfff a7be e77d b5be
000000c0: 0e90 a7bd 5279 853d ce32 39be 9279 1fbd
000000d0: 8d8b 9d3d 5d5f 07be 64d8 ec3d 3ff6 88be
000000e0: 08b8 26be c66a 923d dfbe 3b3e 339e 213e
000000f0: 1fd6 ad3d 7856 d3bd 31a2 ddbd 39f9 2b3e
00000100: 823b 6bbc b13a 44bd 884d c63c ffe4 993d
00000110: 00d6 f13b 98c8 253e 4402 eb3a edfd 54bd
00000120: 076a 2ebc ba98 963c eb0f 563d 2cdf 9b3d
00000130: 1cff 1ebd cefb b93d 8f21 d23b 9125 ad3d
00000140: b72f cebe 638d 0b3e 1f1f 6a3e ff96 8f3d
00000150: 4523 55be a850 78bd 5307 bd3e c56e 7fbc
00000160: be2c f43d fd77 1a3e 1c08 4bbe 0bac 7fbe
00000170: 4061 43be d1a0 40be db89 94be 0bc5 a1be
00000180: 8d30 41be 884a 9b3d ac2c 1f3e 1ffb 1ebd
00000190: dc3d 76be c999 04be c992 493e cc51 ee3d
000001a0: 7196 3f3e 20a0 c23d f9e5 41be 65d7 6ebe
000001b0: b4e1 1ebe 2765 b7bd 2fe1 03be 404d a5be
000001c0: 6428 0f3f b59b 4abe ad02 acbe ef14 52be
000001d0: 9c02 46bf f3de 15bf b1d3 5dbd 5b20 ee3e
000001e0: c9c5 cb3d 62fd d63e e92e bc3c 6a67 e03e
000001f0: e7f6 09be 6524 023f dad8 6a3e 046d c73e
00000200: 68d1 8fbd 94eb f0bd 4ff6 c5bc d673 393c
00000210: 8cd3 31bf 280f cebe 5a21 af3e 91c1 8f3e
00000220: 3135 193e eeed 023f 0857 80be 4ca1 21bc
00000230: 9c15 9bbe 0094 123e bc24 98be 0c46 34be
00000240: 2214 c63d efd4 113a 3a17 3cbc d245 aebc
00000250: d7bf 383e 2521 bb3d 28a9 23be ff19 73bc
00000260: 5412 bebc e532 23be 3c14 463d cbc3 2639
00000270: 4677 ca3d 3618 cebb 813a 063e f1f6 3f3d
00000280: 92f3 053f fa2e 45be 9b23 a2be f94a 41be
00000290: e925 3ebf 0dd6 0ebf 91a7 2bbd 315b e33e
000002a0: 90e1 c03d 9a9a d23e aedf 583c 52e7 d23e
000002b0: b522 07be 4734 f53e 0455 4f3e 9f7c b83e
000002c0: 7cb0 02be 79ac e1bd 2088 a83b 4f23 e93c
000002d0: b95a 31bf d7db c7be 515c c23e c157 873e
000002e0: 1801 213e dc78 043f 7911 8dbe 22c1 50bd
000002f0: a74b a2be 13b5 df3d e44a afbe 74b1 68be
00000300: 1ba2 b43d 8134 de3e a078 033e 0503 74be
00000310: 8e95 1abd 80e4 adbd c4e0 a0bc 7b81 133d
00000320: 3f02 e23d aab4 89be 49cc 703e b33d ee3d
00000330: 3ef2 eb3c 2f71 6a3c 87cd f23e dafd b93e
00000340: 93b8 dfbe 2564 033e 040e 763e 112d bd3d
00000350: 52a1 19be a165 66bc 305a ba3e ac6c 49bd
00000360: 7888 dc3d da64 023e 0ca2 52be 4760 8dbe
00000370: 45d9 35be b5c6 5ebe ce66 a1be 603d b3be
00000380: 1a4f 7abe 0f5f 26bf a173 0cbe 6790 cf3e
00000390: eb98 df3d 84ce 393e e53c b43d 4636 dcbd
000003a0: f884 24be 8522 cc3e 5c57 ccbe 526e 8bbe
000003b0: e8d5 68bd b222 d3bd a92a 51bf 2e15 2abf
000003c0: ee9b 533c 1a95 ddbd c741 47bd 5eba 373d
000003d0: c4bd 82bd 574d 01bd ef5a 9d3c 75dd 013d
000003e0: 0a4b 03bc babf c33d cae3 87bd 4af5 b3bb
000003f0: 4529 c5bc 256b df3c 727c cdbd 144a 90bd

net.0.bias f4 [64]
0.023516174 0.7760982 0.6807502 0.60847384 0.28730938 -0.41600958 -0.67214125 -0.5328931
0.34023234 0.63758135 -0.5200921 0.3167399 -0.13573381 -0.103390284 0.16737942 0.6538704
0.32226562 -0.99469715 0.46112287 0.7656346 0.2592793 -0.96806616 0.37827435 -0.96474534
0.504104 -0.17118892 -0.43987885 -0.39965123 -0.5688664 0.02755778 0.64670104 0.004726652
-0.8821161 -0.32371038 -0.98163605 0.6986215 0.5305812 -0.8401466 0.5098827 -0.149858
-0.44684687 -0.39277002 -0.10901226 0.05910252 0.2742987 0.8798537 -0.3289813 -0.83070314
-0.97161955 0.8081041 0.058938958 -0.39969972 -0.8044567 0.044813473 -0.56394964 -0.17347543
-0.26547393 0.4235524 0.6192895 -0.7393464 0.55243945 -0.88462096 0.6214024 0.2047787
00000000: fea4 c03c 5fae 463f a545 2e3f f1c4 1b3f
00000010: 371a 933e 35ff d4be 7311 2cbf af6b 08bf
00000020: ef32 ae3e 8838 233f c224 05bf bb2b a23e
00000030: cefd 0abe 49be d3bd 8365 2b3e 0d64 273f
00000040: 0000 a53e 79a4 7ebf 4c18 ec3e a100 443f
00000050: 42c0 843e 2fd3 77bf 2dad c13e 8df9 76bf
00000060: f60c 013f 264c 2fbe cd37 e1be 169f ccbe
00000070: 3aa1 11bf dac0 e13c 338e 253f 08e2 9a3b
00000080: 5cd2 61bf 5ebd a5be 804c 7bbf dcd8 323f
00000090: 2bd4 073f d913 57bf ac87 023f 6074 19be
000000a0: 1dc9 e4be 2719 c9be d241 dfbd 7c15 723d
000000b0: e170 8c3e 183e 613f 3d70 a8be f6a8 54bf
000000c0: 0fbc 78bf e9df 4e3f fa69 713d 71a5 ccbe
000000d0: e0f0 4dbf 558e 373d 015f 10bf 8ba3 31be
000000e0: 33ec 87be dcdb d83e c289 1e3f ce45 3dbf
000000f0: ac6c 0d3f 8576 62bf 3a14 1f3f 82b1 513e

net.2.weight f4 [64, 64]
-0.0050402624 0.37748447 0.09208162 0.09245967 0.06080254 -0.20265198 -0.0313843 -0.40630934
-0.14418313 0.15610592 -0.30021214 0.44629306 0.08812162 0.1955123 -0.39165837 0.15877502
0.088240765 0.009824807 0.16792955 0.26287818 0.090226844 -0.13076076 -0.14415342 -0.05648752
0.21688788 -0.06664784 -0.07708689 0.14491642 -0.5823993 -0.04981563 -0.007498245 0.22566399
0.100327395 -0.07088256 -1.3494943 0.09199265 0.05022799 -0.052977458 0.052879784 0.11084699
-0.21889096 -0.3147464 0.09484337 0.10853777 0.3436777 0.24775328 0.22975649 0.059872173
0.12780836 0.045328747 0.19095092 0.041571513 0.17965388 0.32704064 -0.20884699 -0.0551605
-0.03715961 0.15438472 0.016431825 0.22307576 0.24105328 0.041354235 -0.067951635 -0.033156652
-0.2207447 -0.1052638 -0.20834099 -0.22287607 -0.08595224 0.057273895 0.116109595 -0.1317524
0.07082758 -0.12744331 -0.054597765 -0.022425365 -0.08764222 0.018202657 -0.13189301 -0.20589195
-0.18604477 0.060482156 -0.124731846 -0.2650119 -0.13791011 0.18649939 0.017921222 0.09734549
-0.18277565 -0.1467565 -0.03282284 -0.01855302 -0.13057306 -0.13295533 -0.18881091 0.123586684
-0.03707741 0.05046597 0.005445824 -0.15050551 -0.15746742 0.14104879 -0.2036589 0.11662871
-0.05761685 -0.032769866 0.15717454 -0.017919075 -0.047257643 -0.25582266 -0.11040568 0.083818115
0.15619949 -0.16730446 0.046675034 -0.052764602 0.07482286 -0.013953773 0.06652316 -0.1318062
-0.00050483755 -0.14261298 -0.057275034 -0.02753351 -0.0016197365 -0.064508125 -0.16378993 -0.24810721
-0.19727434 -0.24602012 -0.022572853 -0.2823538 -0.09436844 0.08304534 -0.046102524 -0.13164154
-0.038213216 -0.10412385 -0.00653621 0.0774511 -0.12018959 0.06470821 -0.21984199 -0.06270434
-0.04739606 0.046095047 -0.06501843 -0.12663466 -0.1088514 0.05509493 -0.07308063 0.11077707
-0.15642273 -0.09741175 0.10964617 -0.12179395 -0.034427997 -0.22389886 -0.11096458 -0.078355774
-0.046214484 0.029983329 -0.0013195851 -0.07956133 -0.11119494 0.15114254 -0.14336841 0.06571499
-0.00736259 0.12054082 -0.03690299 -0.017982043 -0.06910056 -0.14083627 0.043372985 0.14197598
-0.03590744 -0.10157678 -0.014579927 -0.06622619 0.0038540005 -0.03179094 -0.07755613 -0.097205125
0.0036386321 -0.14553683 -0.056578744 0.031607464 -0.19539319 0.02711798 -0.2827496 -0.16690694
-0.5353229 0.15108816 0.013359247 0.013055166 -0.53152007 -0.09826188 -0.09673173 -0.0050594616
-0.021940708 -0.023394454 0.14949964 0.12735464 -0.08906647 -0.06185688 0.06888757 0.11011265
-0.6758987 0.11971211 0.12872724 0.12844992 -0.08076172 -0.017196465 0.01289135 0.18213597
0.14579193 0.07014725 -0.13865684 -0.026685376 -0.09376464 0.05366757 0.0015881327 -0.103475444
0.010416727 -0.3086742 0.038863007 0.060164426 -0.013228729 0.43402505 0.03161252 -0.007729071
-0.036092598 0.08082019 -0.076178916 0.226151 -0.113356024 -0.03538998 0.061332516 0.24062748
-0.023956444 0.1946239 0.061893277 0.1269419 0.030843455 -0.10249425 -0.017740723 -0.1623488
-0.06566482 0.09119753 0.012696002 0.0077799293 0.110643834 0.12883998 0.24015796 -0.14642663
00000000: c928 a5bb a545 c13e 4a95 bc3d 7f5b bd3d
00000010: 160c 793d 0084 4fbe d38c 00bd c707 d0be
00000020: bea4 13be 3bda 1f3e 68b5 99be 8680 e43e
00000030: 1c79 b43d 6034 483e 7287 c8be eb95 223e
00000040: 93b7 b43d 3af8 203c b9f5 2b3e f897 863e
00000050: dac8 b83d 26e6 05be f49c 13be 755f 67bd
00000060: db17 5e3e aa7e 88bd bbdf 9dbd f864 143e
00000070: 1f18 15bf 790b 4cbd d7b3 f5bb 7614 673e
00000080: 7378 cd3d e02a 91bd 3bbc acbf a466 bc3d
00000090: ddbb 4d3d e4fe 58bd 7998 583d bf03 e33d
000000a0: f424 60be 7126 a1be 3e3d c23d 0d49 de3d
000000b0: 86f6 af3e 09b3 7d3e 4945 6b3e 863c 753d
000000c0: 32e0 023e a3aa 393d a388 433e e446 2a3d
000000d0: 30f7 373e df71 a73e fcdb 55be faef 61bd
000000e0: ad34 18bd 0717 1e3e 099c 863c f96d 643e
000000f0: acd6 763e 0f63 293d 3a2a 8bbd 45cf 07bd
00000100: e60a 62be 8c94 d7bd 5757 55be a039 64be
00000110: ba07 b0bd 0898 6a3d deca ed3d 1aea 06be
00000120: 0d0e 913d 8080 02be e8a1 5fbd 66b5 b7bc
00000130: c47d b3bd bd1d 953c f60e 07be 57d5 52be
00000140: 8582 3ebe 23bc 773d 6973 ffbd a4af 87be
00000150: 4f38 0dbe b2f9 3e3e 87cf 923c 125d c73d
00000160: 8a29 3bbe 5647 16be 3e71 06bd 81fc 97bc
00000170: f2b4 05be 7125 08be a657 41be 041b fd3d
00000180: 7bde 17bd 68b5 4e3d e272 b23b 1e1e 1abe
00000190: 243f 21be 186f 103e f58b 50be 08db ee3d
000001a0: a5ff 6bbd b239 06bd 5df2 203e 06cb 92bc
000001b0: 3b91 41bd 30fb 82be 601c e2bd d5a8 ab3d
000001c0: c2f2 1f3e dc51 2bbe 522e 3f3d b21f 58bd
000001d0: ba3c 993d 5e9e 64bc 4b3d 883d 34f8 06be
000001e0: 1357 04ba 2309 12be 3a99 6abd f58d e1bc
000001f0: 574d d4ba d61c 84bd 8cb8 27be d10f 7ebe
00000200: 4902 4abe b3ec 7bbe b4ea b8bc ad90 90be
00000210: 3e44 c1bd ad13 aa3d 00d6 3cbd 0acd 06be
00000220: 7685 1cbd e33e d5bd b42d d6bb af9e 9e3d
00000230: f625 f6bd bd85 843d 421e 61be 226b 80bd
00000240: 5f22 42bd 29ce 3c3d 6228 85bd 84ac 01be
00000250: 7ced debd 39ab 613d 4cab 95bd 17df e23d
00000260: 482d 20be d07f c7bd 2c8e e03d 1b6f f9bd
00000270: 5f04 0dbd be45 65be 6641 e3bd fe78 a0bd
00000280: 664b 3dbd 999f f53c eef5 acba 0df1 a2bd
00000290: 2cba e3bd 1cc5 1a3e 2bcf 12be 9595 863d
000002a0: e241 f1bb 1bde f63d 9727 17bd 144f 93bc
000002b0: 9884 8dbd 6237 10be dfa7 313d 2762 113e
000002c0: ae13 13bd 7d07 d0bd a5e0 6ebc 99a1 87bd
000002d0: 6693 7c3b 3737 02bd c0d5 9ebd 7b13 c7bd
000002e0: 1e76 6e3b 9b07 15be 1dbf 67bd d476 013d
000002f0: 2715 48be 8726 de3c 8ec4 90be a7e9 2abe
00000300: ec0a 09bf dbb6 1a3e bee0 5a3c 56e5 553c
00000310: b311 08bf 863d c9bd 491b c6bd d7c9 a5bb
00000320: 00bd b3bc baa5 bfbc 6f16 193e 4169 023e
00000330: 7b68 b6bd a45d 7dbd ed14 8d3d be82 e13d
00000340: b207 2dbf 9f2b f53d 13d1 033e 6088 033e
00000350: 6766 a5bd 9adf 8cbc 3e36 533c da81 3a3e
00000360: 7b4a 153e 5da9 8f3d 0ffc 0dbe 4a9b dabc
00000370: ad07 c0bd 87d2 5b3d e428 d03a efea d3bd
00000380: ebaa 2a3c 8b0a 9ebe d12e 1f3d f96e 763d
00000390: 50bd 58bc 8838 de3e 217c 013d 2644 fdbb
000003a0: d5d5 13bd 0e85 a53d b103 9cbd 2194 673e
000003b0: 3427 e8bd 15f5 10bd ce37 7b3d 0d67 763e
000003c0: 4e40 c4bc 7d4b 473e ce83 7d3d 0ffd 013e
000003d0: 6aab fc3c 81e8 d1bd fe54 91bc c43e 26be
000003e0: 477b 86bd c5c5 ba3d e402 503c c7ee fe3b
000003f0: 3c99 e23d a1ee 033e f8eb 753e ddf0 15be

net.2.bias f4 [64]
0.3916027 -0.09382814 -0.13474062 0.18862455 -0.054140914 0.15174855 0.2618305 0.027506923
-0.29476193 -0.23788197 -0.09725237 0.1617861 0.29735923 -0.36063325 -0.25132722 -0.13809173
-0.23316726 0.03687068 -0.26270014 -0.12278668 0.31820583 0.5708158 -0.18154936 0.17096382
0.01562539 0.2378663 -0.006329914 -0.1923016 0.32215708 -0.11802189 0.21178749 -0.02201557
0.09914222 0.14201663 -0.071093746 -0.10512665 -0.03212286 0.0016855559 0.1679694 0.077900626
0.12948437 0.07172739 -0.14341085 0.014128179 0.04983689 0.33462715 -0.083230935 0.15958804
-0.21557264 -0.012998189 -0.1385547 0.20878816 0.36311704 -0.10063547 0.24342537 -0.18185787
0.11269575 -0.09822174 -0.048028205 0.2904256 0.15722513 0.3001365 0.108514234 -0.028517356
00000000: 2680 c83e f828 c0bd 72f9 09be cb26 413e
00000010: ddc2 5dbd f963 1b3e a60e 863e 3356 e13c
00000020: 09eb 96be 5597 73be 402c c7bd 41ab 253e
00000030: 783f 983e eca4 b8be f6ad 80be eb67 0dbe
00000040: 66c3 6ebe b605 173d a280 86be 9577 fbbd
00000050: e0eb a23e fc20 123f 13e8 39be 2411 2f3e
00000060: d100 803c 3993 733e 2b6b cfbb b6ea 44be
00000070: c6f1 a43e 76b5 f1bd d2de 583e ff59 b4bc
00000080: 140b cb3d cf6c 113e 9999 91bd a44c d7bd
00000090: 4393 03bd dfed dc3a 2c00 2c3e 5d8a 9f3d
000000a0: 8d97 043e cfe5 923d 4bda 12be e179 673c
000000b0: c421 4c3d 4054 ab3e fb74 aabd 0c6b 233e
000000c0: 13bf 5cbe 5bf6 54bc 49e1 0dbe 90cc 553e
000000d0: 7aea b93e f819 cebd 8044 793e f338 3abe
000000e0: 08cd e63d 7b28 c9bd 39b9 44bd aab2 943e
000000f0: a0ff 203e 7eab 993e b63c de3d 3b9d e9bc

net.4.weight f4 [5, 64]
0.020741165 0.115885265 -0.1890913 -0.87418115 -0.016135573 -0.028081056 -0.9798301 -0.8926228
-0.010574566 0.06849212 0.14939657 -0.08422605 0.07919235 -0.0644493 -0.07603512 -0.014682573
0.06761306 0.08522972 0.12379433 -0.015465892 0.16048715 0.08967813 -0.17245856 0.3909438
0.03371178 0.71024334 -0.06567649 -0.05099339 0.10301744 0.090521924 0.47418988 -0.06025871
-0.02084553 -0.066451475 -0.19901624 -0.022964915 0.17796566 0.056021404 0.16975962 -0.0685671
0.017784642 0.14131892 -0.0030075903 0.063833065 -0.05174448 -0.04357389 -0.103474736 -0.29190984
-0.029020498 0.1637147 -0.065158404 0.20916595 0.07150663 0.016250588 -0.15079978 0.0784835
-0.12149606 0.051470567 -0.34172076 0.041877974 0.17658845 0.2603903 0.17167045 0.1602794
-0.023528755 -0.09171745 0.017342856 0.007261247 -0.03599483 -0.018056821 -0.0037790048 -0.0038629258
-0.05621989 0.06350158 0.15036158 0.023717372 -0.0041051744 -0.079208806 -0.0025750299 0.0055344836
-0.019534003 0.06372693 0.015498554 0.041816697 -0.24764234 1.0415441 0.05258228 -0.34716645
-0.1419568 0.0057578483 0.008218497 -0.11048592 -0.097771585 0.2170375 0.010839822 0.013008943
-0.14667316 -0.005116047 0.10504466 -0.021680085 0.03938414 0.0022461426 -0.036213413 0.107930936
0.005175123 0.025645727 0.012776724 -0.12739967 0.11015144 0.10300282 0.12706684 -0.02449234
-0.060305715 0.4332401 -0.023263557 -0.019070888 -0.16923732 0.06110946 0.011313638 -0.19986366
0.0059448085 -0.52814186 -0.01120388 -0.005225635 -0.05698957 -0.14671369 -0.26052177 -0.0160438
0.8166935 -0.1092827 -0.093325965 -0.032744084 -0.1775615 0.06467266 0.024133267 0.0004226048
0.0938873 -0.14809425 0.17194548 0.5976198 0.8137518 -0.16142982 -0.053560432 -0.054132972
-0.225901 -0.037917614 -0.04227019 -0.6054859 0.0089625735 -0.025441037 0.033397786 0.16831988
0.052397467 2.296376 -0.26190448 0.18295386 -0.24873081 0.07791831 -0.0059479233 -0.2765496
0.068994455 -0.24028376 0.022944633 -0.039898474 1.8156375 -0.7602 1.4053875 -0.098005824
-0.034569193 -0.232198 0.5636701 -0.07118646 0.07713211 -0.28913015 0.038033202 -0.3306341
0.14724611 0.28479114 0.043066114 0.32056558 -0.12866364 0.10841798 -0.422798 0.13492094
-0.28987157 0.22375378 0.6753207 -0.833781 -0.17709677 -0.18813038 -0.3150935 -0.4284133
-0.0062286 0.23939288 0.18186887 -0.0011293978 0.03644199 -0.041325964 0.0016428014 0.00030226284
0.17202394 0.3035623 -0.016027616 0.020667076 0.0023719552 0.30277038 0.053141512 0.062185712
0.3106077 -0.050298467 0.36635274 -0.028315587 -0.17972662 0.0034776172 0.0719547 -0.00870022
0.16397853 -0.012007022 0.08258725 0.19845475 -0.05081063 0.000439136 -0.00042013207 -0.006678431
-0.008094303 0.05475399 0.06257407 0.07851755 0.16508771 -0.009858813 -0.16848564 -0.092060596
0.0007325965 -0.007660657 0.022492427 -0.017574018 0.064158514 -0.12387797 0.14879024 -0.017538056
0.17320417 -0.077434584 0.11347944 0.056405626 -0.11304844 -0.01258065 -0.025109308 0.05428125
0.025150595 -0.09852116 0.038111657 -0.0152082415 -0.02395021 -0.10358009 0.027524194 -0.009752475
00000000: 60e9 a93c 4155 ed3d 26a1 41be 56ca 5fbf
00000010: c02e 84bc 3e0a e6bc 25d6 7abf ee82 64bf
00000020: f240 2dbc 9945 8c3d 6afb 183e b57e acbd
00000030: 992f a23d fffd 83bd 4db8 9bbd 2d8f 70bc
00000040: b778 8a3d eb8c ae3d e287 fd3d a764 7dbc
00000050: be56 243e 2ba9 b73d fa98 30be c929 c83e
00000060: 5d15 0a3d 82d2 353f 6581 86bd 72de 50bd
00000070: cffa d23d 8f63 b93d 04c9 f23e d6d1 76bd
00000080: 3fc4 aabc b617 88bd eaca 4bbe eb20 bcbc
00000090: a13c 363e b376 653d 77d5 2d3e e86c 8cbd
000000a0: 19b1 913c e8b5 103e fe1a 45bb e9ba 823d
000000b0: 05f2 53bd 897a 32bd 90ea d3bd 3575 95be
000000c0: 65bc edbc d4a4 273e c571 85bd 992f 563e
000000d0: 1172 923d f41f 853c 426b 1abe f5bb a03d
000000e0: edd2 f8bd cdd2 523d 06f6 aebe 3d88 2b3d
000000f0: 9ad3 343e e151 853e 61ca 2f3e 4820 243e
00000100: 60bf c0bc 5cd6 bbbd 9b12 8e3c c1ef ed3b
00000110: 516f 13bd e6eb 93bc 2ea9 77bb 2429 7dbb
00000120: d446 66bd 1e0d 823d 63f8 193e ef4a c23c
00000130: b384 86bb 3a38 a2bd d5c1 28bb 9d5a b53b
00000140: c605 a0bc 4483 823d a6ed 7d3c fc47 2b3d
00000150: f495 7dbe 5151 853f 8460 573d cdbf b1be
00000160: 205d 11be 55ac bc3b e0a6 063c 7146 e2bd
00000170: 783c c8bd 143f 5e3e 8299 313c 7623 553c
00000180: 7d31 16be 83a4 a7bb a821 d73d 6f9a b1bc
00000190: 4451 213d 0534 133b 8454 14bd e50a dd3d
000001a0: 1494 a93b fd16 d23c 7755 513c 0f75 02be
000001b0: 1497 e13d 24f3 d23d cf1d 023e 29a4 c8bc
000001c0: 2003 77bd a5d1 dd3e 3793 bebc 8d3a 9cbc
000001d0: 8c4c 2dbe ea4d 7a3d d65c 393c 0fa9 4cbe
000001e0: abcc c23b 4e34 07bf 7b90 37bc ce3b abbb
000001f0: e56d 69bd 1d3c 16be 1c63 85be 4a6e 83bc
00000200: d312 513f 9ccf dfbd af21 bfbd a91e 06bd
00000210: afd2 35be 1973 843d 21b3 c53c 0e91 dd39
00000220: fc47 c03d 05a6 17be 7a12 303e 9cfd 183f
00000230: 0a52 503f dc4d 25be 2f62 5bbd 89ba 5dbd
00000240: 9752 67be 804f 1bbd 8223 2dbd 2001 1bbf
00000250: c2d7 123c b969 d0bc 1ecc 083d 0c5c 2c3e
00000260: ba9e 563d d3f7 1240 5818 86be 4258 3b3e
00000270: 4ab3 7ebe a393 9f3d cce6 c2bb e997 8dbe
00000280: f74c 8d3d f20c 76be 62f6 bb3c 956c 23bd
00000290: cf66 e83f 789c 42bf bde3 b33f 47b7 c8bd
000002a0: 6d98 0dbd 50c5 6dbe af4c 103f 35ca 91bd
000002b0: 71f7 9d3d de08 94be b4c8 1b3d df48 a9be
000002c0: afc7 163e 25d0 913e 1866 303d 2c21 a43e
000002d0: 67c0 03be 3f0a de3d fb78 d8be b728 0a3e
000002e0: 0c6a 94be b61f 653e d1e1 2c3f ac72 55bf
000002f0: db58 35be 40a5 40be ef53 a1be fd58 dbbe
00000300: 4919 ccbb 6823 753e d53b 3a3e 4d08 94ba
00000310: 3244 153d 6a45 29bd 4553 d73a 0879 9e39
00000320: 0b27 303e 856c 9b3e 594c 83bc 004e a93c
00000330: ce72 1b3b b804 9b3e eaaa 593d 72b6 7e3d
00000340: f907 9f3e c405 4ebd 9692 bb3e 17f6 e7bc
00000350: 410a 38be bce8 633b fc5c 933d 5e8b 0ebc
00000360: fde9 273e 1ab9 44bc 8123 a93d b937 4b3e
00000370: cf1e 50bd d63b e639 2c45 dcb9 bdd6 dabb
00000380: f89d 04bc b845 603d d626 803d cfcd a03d
00000390: c10c 293e dc86 21bc 8087 2cbe 448a bcbd
000003a0: b80b 403a 4006 fbbb 0a42 b83c 63f7 8fbc
000003b0: 8a65 833d bcb3 fdbd 785c 183e f8ab 8fbc
000003c0: 6f5c 313e 0696 9ebd e967 e83d 9609 673d
000003d0: f185 e7bd 121f 4ebc 09b2 cdbc 0456 5e3d
000003e0: 9f08 ce3c 76c5 c9bd f81a 1c3d fd2b 79bc
000003f0: 3b33 c4bc cc21 d4bd 6b7a e13c d8c8 1fbc

net.4.bias f4 [5]
-0.005518812 -0.25743142 -0.17984547 -0.17954592 -0.09754997
00000000: 27d7 b4bb 0dce 83be 6929 38be e3da 37be
00000010: 47c8 c7bd
