data_augmented/checkpoints/generator_epoch30.pth (torch, 25068 bytes, 6 tensors)

net.0.weight f4 [64, 16]
00000000: 5927 69be ec6d db3c a3c0 9c3e fba6 ad3d
00000010: 3d36 ffbd 9496 993e fa05 d23d 6e7c e1bd
00000020: 9ad4 473e adf4 9a3e 1a69 923b 80dc 183e
00000030: f6c9 8dbe 0534 e03d fec7 9d3d 18a3 6f3d
00000040: 01fd 353e 65b5 c8bc 58b2 d2bd 6908 2ebd
00000050: c671 3c3e 9e5b 6f3d aa0d 4ebe 82a3 40bd
00000060: 672f 95bd b748 03be 2235 053e e9fa b93d
00000070: 15ac 0c3e fb17 1f3d 8917 243e 8bf2 113e
00000080: e86d 60be 5869 aebc c803 b83d c5ab b93d
00000090: 3c50 c6bd 1f2b 9d3b 058c 3d3e 4b07 b3bc
000000a0: 44cb fd3c 6337 033e ca52 0dbe ca01 fdbd
000000b0: 175f b6bd b00e 87bd e7b8 6abe 8efb 56be
000000c0: ecbc c8bd 702b c43d f5e3 58be b8d1 cabd
000000d0: bc9e 083d 0c93 32be 4c36 f33d 056c a9be
000000e0: 161b 4cbe d911 403e 1156 453e 44b5 313e
000000f0: a712 f23c 6f9c f1bd b599 fcbd 7bd7 003e
00000100: 9a7e 64bd d592 80bd 7c41 bf3d 1495 d73c
00000110: c4e7 643d f836 613e 40f6 33bd 7b2f d0bd
00000120: d9a4 383d c943 063e 64d8 2e3d a817 203e
00000130: 48b5 f9bd 7a15 243d ab45 933d 84f7 8b3d
00000140: 3689 dcbe cc08 163e 6941 7d3e f3ea a03d
00000150: fc82 77be bd1c 2ebd 53cf c93e 77a8 a0bc
00000160: 4932 ea3d 4a62 1d3e 70bf 46be 1ea1 51be
00000170: 0c34 4ebe 670d 17be e27b 91be 62b5 8dbe
00000180: 73cc 5fbe 1dd5 9b3b 881c 6c3e 2fc3 823d
00000190: 3703 22be d103 823d 9afe 4d3e ca56 283e
000001a0: 0d29 113e 89a1 23bb 71e3 73be fbfe 50be
000001b0: 368a 2ebe 6434 bdbd a1c8 2bbe 6d07 87be
000001c0: 8bfe 013f c583 00be a7eb 96be b6f2 63be
000001d0: 5e19 2fbf fdd1 0ebf 0a67 a53c cc40 f13e
000001e0: e7f3 d63d 6738 d13e d671 973c 81c3 a13e
000001f0: 43f4 4cbe 632d e03e 05f9 373e 55a4 af3e
00000200: 23c4 3bbd ced6 6b3c 7968 403c 3b93 67bd
00000210: fced 15bf 8491 b5be 6d84 a33e ad40 813e
00000220: 155e 133e bf5c c43e 27e1 14be 286a ee3c
00000230: 680a 8ebe a40a 173e af4f 0dbe f519 e6bc
00000240: 0a85 a53c 3e09 42bc 2ff2 013e 1c1e 573d
00000250: 75e5 993d 57c4 1a3e ffb6 a1bd 5a12 9a3d
00000260: 3c2a ac3d 2381 19be c92e 80bd ab92 a9bd
00000270: 4767 f73c 324b c73c 7223 b63d 3acd 62bd
00000280: e355 d63e 85cb e7bd 8383 7dbe 374f 46be
00000290: 4945 2cbf 49a2 07bf 31de 903d a468 e13e
000002a0: 442a da3d babd d23e c5c0 a8bc a6ef 883e
000002b0: 16cd 5fbe 0433 ca3e eeae f83d 33bb 8a3e
000002c0: 8b2a febd d2ec cebd 587a a63b a8c8 0f3d
000002d0: c0a0 06bf cce4 92be ddab a83e 5827 513e
000002e0: c5b4 d63d 68de dd3e 6519 6bbe 72f1 34bd
000002f0: a529 8bbe cac4 c73d 3c39 9cbe 21e2 38be
00000300: 67e2 c0bd 36cd 953e da5f 6f3e ad27 05be
00000310: 66e3 4ebe 7dd9 80bd ee46 1b3e 3b2e d13d
00000320: dce6 3b3e e403 5dbd 56d4 383d f587 443d
00000330: a1ed 3bbe fef1 ce39 2a55 713e f651 353e
00000340: 994f b9be 2af3 933d a630 3e3e 5e91 9f3d
00000350: dde2 96be a930 b7bd 7ce4 be3e ddd4 bd3c
00000360: edfd da3d 0f28 623e 386b 55be 6108 2fbe
00000370: d5d1 58be d7b0 bbbd a005 9abe a466 86be
00000380: d656 71be 0116 0dbf a1c2 dcbd c4d2 bf3e
00000390: 78a0 3b3e 6660 5f3e 38f1 af3c ce79 15be
000003a0: dfdc 2fbe 9427 883e 63fd b2be b5ac 7cbe
000003b0: 5d52 8c3c eb86 19be 509f 31bf c935 1cbf
000003c0: ae2b 63bd ddd6 13be 2bb4 96bd 923a 653d
000003d0: 69ed f2bc fd07 883b 5ec9 8cbb 9d6d 413c
000003e0: d984 d6bc 3182 b93d f9d1 9dbd c3bd bfbc
000003f0: bfc5 68bc c859 a6bc 05d6 09be 6805 0bbe
-0.22768916 0.026785813 0.3061572 0.084791146 -0.12461517 0.29997694 0.10255046 -0.11010061
0.19514695 0.30264798 0.0044680955 0.14927864 -0.27693146 0.10947422 0.07704161 0.058505148
0.17772295 -0.024500558 -0.102879226 -0.04248849 0.18402776 0.058436982 -0.201224 -0.047030933
-0.07284432 -0.12820707 0.1300855 0.090810604 0.13737519 0.03884123 0.16024603 0.14252679
-0.21916926 -0.021290466 0.08985096 0.090659656 -0.09683272 0.0047964 0.18510444 -0.021854063
0.030980714 0.12814097 -0.13801113 -0.12353857 -0.08904856 -0.06594598 -0.22922097 -0.20994398
-0.09801659 0.095785975 -0.21180709 -0.09903282 0.033354506 -0.17438906 0.11875591 -0.33090225
-0.19932207 0.18756808 0.19271113 0.17354304 0.02954991 -0.117974155 -0.12334005 0.125822
-0.0557848 -0.06278006 0.09338662 0.026316203 0.05588509 0.21993625 -0.043936014 -0.10165306
0.045079086 0.13111795 0.042686835 0.15634024 -0.1219278 0.040059544 0.071910225 0.06834319
-0.43073434 0.14651793 0.24731983 0.07857313 -0.2417106 -0.042507876 0.39415988 -0.01961158
0.114353724 0.15369526 -0.19408965 -0.20471618 -0.20137042 -0.14751206 -0.28414828 -0.27677447
-0.21855335 0.0047556297 0.23057759 0.063848846 -0.15821539 0.06348384 0.20116654 0.16439357
0.14175816 -0.0024968109 -0.23817231 -0.20409767 -0.17044911 -0.09238508 -0.16775753 -0.26372853
0.50779027 -0.12550266 -0.29476663 -0.22260556 -0.6839808 -0.55789167 0.020190734 0.4711975
0.104957394 0.40863344 0.018486898 0.3159447 -0.20015053 0.43784627 0.17966087 0.34305063
-0.045841347 0.014394475 0.011743658 -0.056536894 -0.5856626 -0.35462582 0.3193697 0.25244656
0.14391358 0.3835201 -0.14539014 0.029103354 -0.27742314 0.14750153 -0.13799928 -0.02808855
0.02020504 -0.011843024 0.12690042 0.05251895 0.075144686 0.1511396 -0.07896232 0.075230315
0.08406493 -0.14990668 -0.062589236 -0.08279928 0.030200614 0.024327848 0.088934794 -0.0553715
0.418624 -0.11318115 -0.24757199 -0.19366156 -0.6729322 -0.52982 0.0707363 0.44025147
0.10652593 0.41160375 -0.020599732 0.26745337 -0.21855578 0.39492047 0.1214274 0.27095947
-0.12410458 -0.10103764 0.0050805025 0.03510347 -0.52589035 -0.28690183 0.3294362 0.20425165
0.10483698 0.43333745 -0.22958906 -0.044175573 -0.2718021 0.097543314 -0.30512416 -0.18055011
-0.09418183 0.29258126 0.23376408 -0.13003416 -0.20203933 -0.062914826 0.15163776 0.10213896
0.18349785 -0.05395879 0.045124374 0.04798122 -0.18352367 0.0003947168 0.23567644 0.17707047
-0.3619354 0.07224114 0.18573245 0.077913985 -0.29469958 -0.08944828 0.37283695 0.02317279
0.10692964 0.22085594 -0.20841682 -0.1709304 -0.21173795 -0.09164589 -0.30082417 -0.26250184
-0.23568282 -0.551117 -0.1077931 0.3746549 0.18322933 0.21814117 0.021477327 -0.14597246
-0.171741 0.26592696 -0.34958944 -0.24675258 0.017129118 -0.14992873 -0.69383717 -0.6101957
-0.055461578 -0.14437433 -0.07358583 0.05596406 -0.029654222 0.004151343 -0.004296466 0.011805919
-0.026186394 0.09058035 -0.07706065 -0.023405915 -0.014207303 -0.020306483 -0.13460548 -0.13576281

net.0.bias f4 [64]
00000000: 4647 c53e 5176 483f 2e7d 333f eef2 293f
00000010: 3093 0d3f 3d07 ebbe 5394 12bf a756 ffbe
00000020: 5047 b03e 55dc 2e3f ea1b 01bf ba9c 8a3e
00000030: 1022 91bb 5486 1ebd 08fc 9a3c a58f 413f
00000040: 9bfb fb3e c76a 73bf 50f0 113f 3616 543f
00000050: 74e4 9c3e cd35 6cbf 0dd1 d53e 2d8f 6bbf
00000060: 8f47 193f fefe 8dbd f848 e4be 6ec0 88be
00000070: fd33 04bf f7d8 773e e08e 383f ae8a 4abe
00000080: adb4 55bf b0e9 5ebe ccf6 83bf b1fe 1c3f
00000090: ec55 043f 6be6 4dbf a4ab f33e 8e6d d8be
000000a0: 420e d9be 7932 babe b51d 05bf ab30 06bd
000000b0: 66f7 5e3e 4038 283f a6e3 c5bd 071c 4abf
000000c0: 3a70 6dbf dae0 533f 5564 abbd 523d dcbe
000000d0: 0038 3ebf 5486 c8bd c35e 34bf 4c30 73be
000000e0: c7c0 34bd 0b09 e93e 213c c03e 9726 2cbf
000000f0: b4cb 3c3f 168d 55bf c769 243f f9ec cc3e
0.3853094 0.78305537 0.70112884 0.66386306 0.55302715 -0.4590396 -0.57257575 -0.49870798
0.34429407 0.6830495 -0.5043322 0.27072698 -0.0044291094 -0.038702324 0.018919006 0.7560981
0.49215397 -0.95084804 0.5700731 0.8284639 0.30643046 -0.92269593 0.41761056 -0.92015344
0.59874815 -0.069334015 -0.4458692 -0.26709312 -0.5164183 0.2420386 0.7209301 -0.19779465
-0.83478814 -0.21768832 -1.0309691 0.6132613 0.51693606 -0.80429715 0.4759189 -0.42271084
-0.4239369 -0.36366633 -0.51998454 -0.032761257 0.21774063 0.6571083 -0.09662561 -0.78949016
-0.9274937 0.8276497 -0.08368746 -0.43015534 -0.743042 -0.09791246 -0.70457095 -0.23748893
-0.04412916 0.45514712 0.37545875 -0.67246383 0.73748326 -0.83418405 0.64223903 0.40024546

net.2.weight f4 [64, 64]
00000000: 6320 213d fcc3 b33e 8437 ff3d 85fa da3d
00000010: 6d99 9f3d 0b00 61be 66c0 c8bc 638d d3be
00000020: 020e 5dbd 3125 0c3e 237e 65be 48ed d83e
00000030: 2ad7 013d 02a3 553e f119 c8be 39ea f33d
00000040: a7c2 e23d 3fb5 443d 809e c53d 9a90 533e
00000050: 0e2a 023d 2d39 b6bd 4856 31be 2fcf 81bc
00000060: b65f 0b3e 7c39 98bd b38b 32bd 61ad b63d
00000070: 8218 0cbf 11ed 743c c183 c0bc d7db 123e
00000080: 3c96 1a3e 4e02 28bd 8fff 78bf 4d5d b03d
00000090: 3bd5 673d 619c 0abe 2892 863d 48fd c13d
000000a0: a2ee 44be f71d 8bbe c114 43bd 7d85 c53d
000000b0: 94a1 993e 72bc 493e 4c9a 853e 1e84 91bd
000000c0: 32af 2f3e 4eb5 693d c3e5 4d3e e57b 0dbc
000000d0: 4c42 6c3e d76d b13e f17b 05be c25a 29bc
000000e0: ae2d b83c 8d7e 1c3e b2d7 8fbd 6824 383e
000000f0: b0e2 573e bd92 b03d 8130 9fbd 1412 42bd
00000100: 150b 51be 8c94 d7bd b95e 48be 02c1 5dbe
00000110: 1a15 a3bd 1663 8d3d 3007 023e 8d81 f6bd
00000120: 3542 ac3d 18c9 eabd 4ae5 33bd 54d7 15bc
00000130: 79cb bcbd d482 fb3c 9692 d5bd c3f6 42be
00000140: d24a 2cbe 1e84 933d 2d09 f4bd b792 82be
00000150: a11e 01be 23cd 4a3e 5d0a 003d ed15 df3d
00000160: 59ed 30be ab1d f6bd c3b8 88bc 9c5a e7bb
00000170: 097c edbd 970d 0ebe 1dde 20be 7d05 0c3e
00000180: da91 d0bc 3469 7d3d e272 b23b d3a7 0ebe
00000190: 4f38 14be d084 1c3e f58b 50be 4a0d 053e
000001a0: fbab 3dbd 36e8 aebc 89d8 2d3e 092e a7bb
000001b0: 2012 0bbd 30fb 82be 73b7 cabd 585a c33d
000001c0: 1fcd 2b3e fec7 1ebe a4ba 8f3d 18b6 28bd
000001d0: acf3 b03d 0493 433c e9e5 a23d 34f8 06be
000001e0: 6ab9 f43b 4411 04be e8e0 36bd a4e4 85bc
000001f0: a123 8c3c 1ddd 58bd 4f57 23be d10f 7ebe
00000200: 4902 4abe b3ec 7bbe b4ea b8bc ad90 90be
00000210: 3e44 c1bd ad13 aa3d 00d6 3cbd 0acd 06be
00000220: 7685 1cbd e33e d5bd b42d d6bb af9e 9e3d
00000230: f625 f6bd bd85 843d 421e 61be 226b 80bd
00000240: 5f22 42bd 29ce 3c3d 6228 85bd 84ac 01be
00000250: 7ced debd 39ab 613d 4cab 95bd 17df e23d
00000260: 482d 20be d07f c7bd 2c8e e03d 1b6f f9bd
00000270: 5f04 0dbd be45 65be 6641 e3bd fe78 a0bd
00000280: 664b 3dbd 999f f53c eef5 acba 0df1 a2bd
00000290: 2cba e3bd 1cc5 1a3e 2bcf 12be 9595 863d
000002a0: e241 f1bb 1bde f63d 9727 17bd 144f 93bc
000002b0: 9884 8dbd 6237 10be dfa7 313d 2762 113e
000002c0: ae13 13bd 7d07 d0bd a5e0 6ebc 99a1 87bd
000002d0: 6693 7c3b 3737 02bd c0d5 9ebd 7b13 c7bd
000002e0: 1e76 6e3b 9b07 15be 1dbf 67bd d476 013d
000002f0: 2715 48be 8726 de3c 8ec4 90be a7e9 2abe
00000300: 7acd 6abe 7cc8 243e 05da 76bc c0a6 a73c
00000310: 2c0b aebe 9f25 e9bd 77e9 8abd 3705 e5bb
00000320: aba8 dfbb 0bae 42bc e7a6 153e 36bc e13d
00000330: c9dc c2bd 244c 9bbd 6f26 973d 8e1f b13d
00000340: ca7c d8be 4c9d 4e3e 4dde a83d 53a4 d53d
00000350: 877a 44bd 49db 5f3d 8a09 21bd e997 863e
00000360: 6129 2b3e f30e 4dbd 97d8 4fbd f055 1a3d
00000370: 9e6b c4bd 04d1 d33c 2256 bc3b cbb0 dbbd
00000380: 6ad3 b23d 2fe5 40be cbfa be3d 10fa 793d
00000390: ce1a 45bd 5f58 1b3e 7b35 993c 8cce 4b3d
000003a0: 9ab3 93bd 28b2 2e3d 3bf5 a2bd 3db2 443e
000003b0: 6282 debd c60b 58bc 96d2 b63d 44e6 53bc
000003c0: d8fe 543d 958a 263e 679a 96ba 59b9 f13d
000003d0: 30a7 f63d 021a 0bbe 6125 c2ba f359 dcbd
000003e0: 366e 033c b767 863c 3d85 f93d 9608 163e
000003f0: 65d3 013e 2407 563e 3653 893e 62dc 1fbe
0.039337527 0.35110462 0.12461761 0.10692314 0.077929355 -0.21972673 -0.024505805 -0.41318807
-0.053968437 0.13686062 -0.22411399 0.4236853 0.031699337 0.20862964 -0.39082292 0.11909909
0.11072283 0.048024412 0.09649372 0.2066063 0.031778388 -0.08897624 -0.1731807 -0.015845863
0.1361073 -0.07432839 -0.04359026 0.08919788 -0.54724896 0.014949099 -0.023500325 0.14341675
0.15096372 -0.041017823 -0.9726495 0.08611546 0.056599837 -0.13536216 0.06570846 0.09472138
-0.19231656 -0.271713 -0.047627214 0.096446015 0.30006087 0.19700792 0.26094282 -0.071052775
0.17156675 0.05705767 0.20107178 -0.008635496 0.23072165 0.34654114 -0.13035561 -0.01033658
0.02248272 0.1528265 -0.070235625 0.17982638 0.21082568 0.08621738 -0.07772923 -0.047380522
-0.20414384 -0.1052638 -0.19567384 -0.21655658 -0.07963009 0.06903665 0.12698054 -0.120364286
0.084110655 -0.11464137 -0.04391984 -0.0091455765 -0.09218497 0.030702032 -0.1042835 -0.19039445
-0.16825417 0.07202934 -0.11915813 -0.2550256 -0.1260934 0.19804816 0.031259883 0.10892854
-0.17278041 -0.120173775 -0.016689664 -0.007060362 -0.115959235 -0.13872372 -0.1570973 0.13673969
-0.025460172 0.061867908 0.005445824 -0.13931207 -0.14474605 0.15285039 -0.2036589 0.1299335
-0.04630659 -0.021350961 0.16977133 -0.0051019234 -0.033952832 -0.25582266 -0.098982714 0.09538716
0.16777466 -0.15505978 0.07018021 -0.041189283 0.08640227 0.011936907 0.07954008 -0.1318062
0.007468392 -0.12897211 -0.04464808 -0.016344376 0.017106833 -0.052945245 -0.15951274 -0.24810721
-0.19727434 -0.24602012 -0.022572853 -0.2823538 -0.09436844 0.08304534 -0.046102524 -0.13164154
-0.038213216 -0.10412385 -0.00653621 0.0774511 -0.12018959 0.06470821 -0.21984199 -0.06270434
-0.04739606 0.046095047 -0.06501843 -0.12663466 -0.1088514 0.05509493 -0.07308063 0.11077707
-0.15642273 -0.09741175 0.10964617 -0.12179395 -0.034427997 -0.22389886 -0.11096458 -0.078355774
-0.046214484 0.029983329 -0.0013195851 -0.07956133 -0.11119494 0.15114254 -0.14336841 0.06571499
-0.00736259 0.12054082 -0.03690299 -0.017982043 -0.06910056 -0.14083627 0.043372985 0.14197598
-0.03590744 -0.10157678 -0.014579927 -0.06622619 0.0038540005 -0.03179094 -0.07755613 -0.097205125
0.0036386321 -0.14553683 -0.056578744 0.031607464 -0.19539319 0.02711798 -0.2827496 -0.16690694
-0.22929946 0.16092104 -0.015066628 0.020465255 -0.33992898 -0.11384129 -0.06782811 -0.006989147
-0.0068255267 -0.011882315 0.1461445 0.110222265 -0.09514768 -0.07582882 0.073803775 0.08648597
-0.42282706 0.20177191 0.082455255 0.10431733 -0.047968414 0.054652486 -0.039315738 0.26287773
0.16715004 -0.050063085 -0.050743666 0.037679613 -0.09590839 0.025856502 0.0057475725 -0.1072708
0.0873173 -0.18837427 0.09325179 0.061029494 -0.048121266 0.1517043 0.01870226 0.049757525
-0.07211991 0.04265037 -0.0795693 0.19208618 -0.10864712 -0.013186401 0.08926885 -0.012933318
0.05200085 0.16263802 -0.0011490107 0.118029304 0.12043607 -0.1358414 -0.0014812165 -0.10759344
0.008021882 0.016406877 0.12183616 0.14651713 0.12678297 0.20901161 0.26821297 -0.15611413

net.2.bias f4 [64]
00000000: 3423 b83e bd17 a6bd 72f9 09be 528b 303e
00000010: c20d b9bc 01e0 0e3e dec7 543e b85b 143d
00000020: 09eb 96be 1663 65be 1785 82bd 16d2 083e
00000030: 701a 953e 3a2a b2be 0f3f 4fbe 93f1 b3bd
00000040: ab48 68be b605 173d 4a43 83be adc2 04be
00000050: 02a0 8e3e 36c7 003f e5a7 09be 4c34 0c3e
00000060: d100 803c d885 853e c57d 65bc b6ea 44be
00000070: e239 9d3e dbba ccbd 6950 493e ea3f 76bc
00000080: 3f4b c43d 2966 3e3e 9999 91bd a44c d7bd
00000090: b17f d23b a8c5 a6bc c94b 653e 5d8a 9f3d
000000a0: 68ac 1b3e 53ab 933d a128 0cbe e179 673c
000000b0: 1b61 433d e608 a83e fb74 aabd c60f 433e
000000c0: cd8d 58be 5eb8 e33b 49e1 0dbe 6e6d 633e
000000d0: 640d ad3e f819 cebd 443f 7c3e 13b4 20be
000000e0: 2292 e63d d7c6 74bd 0dba 14bd 5600 983e
000000f0: 9dd2 1d3e d23d 8f3e acd9 f83d 764e a3bd
0.35964358 -0.081099965 -0.13474062 0.17240646 -0.022589568 0.13952638 0.20779368 0.036220282
-0.29476193 -0.2240108 -0.06373041 0.13361391 0.29121733 -0.3479784 -0.20238899 -0.08786311
-0.2268397 0.03687068 -0.25637275 -0.12964888 0.2785645 0.5030397 -0.13442953 0.13691825
0.01562539 0.26078677 -0.014007037 -0.1923016 0.30708224 -0.09996577 0.1965958 -0.015029887
0.095846646 0.18593659 -0.071093746 -0.10512665 0.0064239134 -0.020357922 0.22392191 0.077900626
0.15202487 0.07210412 -0.13687374 0.014128179 0.04770003 0.3281929 -0.083230935 0.19048986
-0.21147843 0.0069494685 -0.1385547 0.22209713 0.3379928 -0.10063547 0.24633509 -0.15693693
0.11258341 -0.05975994 -0.036310244 0.29687756 0.15412374 0.27976853 0.121508926 -0.079739496

net.4.weight f4 [5, 64]
00000000: f498 3ebc d91f 213e 26a1 41be fb98 fbbe
00000010: 89de c2bd 7e22 c1bc 230d 12bf dbf0 20bf
00000020: f240 2dbc 8a7f b73d d173 383e 01c0 eabd
00000030: f1c7 843d 85a2 9dbd 2696 7a3d 036e 6a3d
00000040: 3042 973d eb8c ae3d 9cde f03d 21f2 1d3e
00000050: a174 cb3d ef45 a23d 32b8 b3bd a02e 623e
00000060: 5d15 0a3d 77ea 973e 8d3c 263e 72de 50bd
00000070: c2bb 2cbc e9fb da3c f399 de3e d09f d73d
00000080: 41a8 9fbd 7927 1fbe eaca 4bbe eb20 bcbc
00000090: 293d 7dbd 16c5 2d3e 1849 ec3d e86c 8cbd
000000a0: eda5 613d 6821 013e 11b2 11bd e9ba 823d
000000b0: 3161 0b3d 1a07 07be 90ea d3bd 73ae b03d
000000c0: 2fb1 aabd 51e7 4cbd c571 85bd ca62 023e
000000d0: 74b2 533d f41f 853c 2f1a 883d ec92 373d
000000e0: c9e7 15be 97d5 e3bd 043a eebc 1db5 8d3d
000000f0: 430b c13d 0ac0 423e 68ae 9e3d 02b9 64bd
00000100: 05af 3cbd 33ef d0bd 9b12 8e3c ebb9 ec3c
00000110: 1a63 82bd 16af 18bc 3aba 94bc 0a38 01bc
00000120: d446 66bd 2108 ea3c bd5f 263e 087a 90bc
00000130: 13cd fcbc c7d7 babd b4d8 063e 1ce6 593c
00000140: 2710 d3bc 4483 823d abad 1b3c 3f96 5f3b
00000150: 0dd0 81be 9b1f 503f 6ef9 f03b 4be7 98be
00000160: 205d 11be 5a70 dc3c fa00 ed3c 7146 e2bd
00000170: 9c0c acbd fc94 b43e 3224 e5bc 9f62 3b3c
00000180: d256 e9bd 6ce4 babc a821 d73d 6f9a b1bc
00000190: 0f4a dc3c 6e33 6e3c 980c 08bc e50a dd3d
000001a0: 5bd0 903c b155 553b 6e1b a13d 0f75 02be
000001b0: cdee 193e 1ed0 ce3d cf1d 023e 4019 0abe
000001c0: c6ad 9ebd 8e27 cd3e 3793 bebc c027 e13d
000001d0: 6bb2 13be ea4d 7a3d 5cc7 47bd 28c5 45be
000001e0: d7ad c6bc c9b5 ddbe b0de b1bd f0a4 9a3c
000001f0: 9efd 8fbd db1d 07be e9cf 75be 7301 0e3e
00000200: 6faf 403f a26b a6bd af21 bfbd ffa9 7fbd
00000210: f02b 10be 0589 ae3c c08f 103d 5225 4d3c
00000220: fc47 c03d 73c0 1abe 0de3 0f3e 1ece f73e
00000230: 2b50 113f ad1e 32be f960 59bd d32e 6bbd
00000240: c6b9 6dbe 804f 1bbd a2b0 46bd b8c7 d1be
00000250: 1601 98bc a4f2 66bd 95f7 353d 289f 0c3e
00000260: ba9e 563d ad27 243d be48 86bc 4258 3b3e
00000270: 7d76 81be d362 9a3d 4481 4e3c 8619 0fbe
00000280: 190d 0b3c f920 04be 62f6 bb3c 956c 23bd
00000290: 7ea2 9d3f 5a25 20bf 2eba 8b3f 47b7 c8bd
000002a0: 4f32 263d 2d55 1abe 7c67 c43e 35ca 91bd
000002b0: dacd 083d 9f61 94be b4c8 1b3d c5b7 66be
000002c0: 2018 0a3e a93a 0d3e 1866 303d 7922 da3d
000002d0: 5880 07be 3f0a de3d 3dd2 45be 66db 0d3e
000002e0: e9d0 4cbe 8b12 e53d ab10 853e aae5 35bf
000002f0: fd2f 63be f1dc 12be f1c0 a1be 49dc 20be
00000300: aa00 a2bc 43ae 873e d53b 3a3e 080c 04bd
00000310: 055d 553d 726f 31bd bff1 9f3c 67db 033b
00000320: 0b27 303e 631e a83e 7b15 423c 7113 0f3d
00000330: 6179 263c 797e a13e 21ca 813d e9be aa3d
00000340: 3245 a23e c405 4ebd 0dcf be3e c21a 753c
00000350: 502d 3cbe 85e7 72ba 9aa5 c23d c656 d2bc
00000360: fde9 273e 23f8 07bc b976 37bb b937 4b3e
00000370: 0261 67bd 6a36 383d a1f3 5e3a b5b4 b3bc
00000380: 3fe1 debb 9a64 743d d626 803d cfcd a03d
00000390: a0c5 183e efaa febc 860b dabd 448a bcbd
000003a0: 3c66 b4bc 27d4 23bb 4b0a 293c 63f7 8fbc
000003b0: d349 683d 1007 15be 785c 183e 9470 e4bc
000003c0: 05f5 4f3e 471e edbd e967 e83d ace1 75bd
000003d0: 769e 24be 121f 4ebc a329 edbd 6a10 a93d
000003e0: 3e19 2b3d a320 09be 6265 943d 6225 b63b
000003f0: 5780 acbd e990 13be c031 023d 361a 80bd
-0.011633147 0.15734805 -0.1890913 -0.49140152 -0.095151015 -0.023576017 -0.57051295 -0.62867516
-0.010574566 0.08959873 0.1801293 -0.11462403 0.06483448 -0.07697014 0.06117835 0.05723382
0.07385671 0.08522972 0.11761209 0.15424396 0.099343546 0.07923495 -0.08775367 0.22088099
0.03371178 0.2967107 0.16234036 -0.05099339 -0.010542812 0.026731448 0.4347683 0.10528529
-0.07795764 -0.15542401 -0.19901624 -0.022964915 -0.061825905 0.16969714 0.11537379 -0.0685671
0.05508988 0.126104 -0.035570208 0.063833065 0.034028236 -0.13186303 -0.103474736 0.086270235
-0.08334576 -0.050025288 -0.065158404 0.12732998 0.051683858 0.016250588 0.06645619 0.04481785
-0.146392 -0.111247234 -0.029080398 0.0691931 0.09425976 0.1901857 0.07748109 -0.0558405
-0.04606535 -0.10201874 0.017342856 0.028897246 -0.063665584 -0.0093190875 -0.018155206 -0.007886896
-0.05621989 0.02856833 0.16247459 -0.017636314 -0.030859506 -0.091231875 0.13168603 0.013299491
-0.025764538 0.06372693 0.009501855 0.0034116653 -0.25354043 0.81298226 0.007353953 -0.29863963
-0.1419568 0.026909042 0.02893113 -0.11048592 -0.084008425 0.35269916 -0.02797136 0.011437087
-0.11393513 -0.022813998 0.10504466 -0.021680085 0.026890783 0.014538629 -0.008303784 0.107930936
0.017677477 0.0032552297 0.0786656 -0.12739967 0.15032502 0.10098289 0.12706684 -0.13486195
-0.077479884 0.4006924 -0.023263557 0.1099391 -0.1442353 0.06110946 -0.04877411 -0.1931349
-0.024252815 -0.43302754 -0.086850524 0.018877476 -0.070307955 -0.13194983 -0.24005093 0.1386774
0.7526769 -0.08125998 -0.093325965 -0.06241798 -0.14079261 0.02130557 0.03529334 0.012521105
0.0938873 -0.15112476 0.14051457 0.48399442 0.5676295 -0.17394514 -0.053070996 -0.057417702
-0.23215398 -0.037917614 -0.048508294 -0.40972686 -0.018555205 -0.056383744 0.044425566 0.13732588
0.052397467 0.0400769 -0.016392108 0.18295386 -0.25285712 0.075383805 0.0126040615 -0.1397458
0.008487009 -0.12903203 0.022944633 -0.039898474 1.2315214 -0.62556994 1.0916193 -0.098005824
0.04057532 -0.15071554 0.38360202 -0.07118646 0.03339944 -0.2898073 0.038033202 -0.2253104
0.13485765 0.13791908 0.043066114 0.106511064 -0.13232553 0.10841798 -0.19318481 0.13853225
-0.20001568 0.111851774 0.2598928 -0.71053565 -0.22186275 -0.14342095 -0.31592515 -0.15709032
-0.019775707 0.2650014 0.18186887 -0.032238036 0.052090663 -0.043319173 0.019524453 0.0020119788
0.17202394 0.32835683 0.011845942 0.03493065 0.010160775 0.31541803 0.06337381 0.083371945
0.31693417 -0.050298467 0.37267342 0.014959993 -0.1837666 -0.00092660665 0.09504242 -0.025676142
0.16397853 -0.0082989065 -0.0027994348 0.19845475 -0.056489 0.04497377 0.00085049315 -0.021936754
-0.006801754 0.059666254 0.06257407 0.07851755 0.14919138 -0.031087367 -0.10646729 -0.092060596
-0.022021405 -0.0024998279 0.010317395 -0.017574018 0.05671103 -0.14553475 0.14879024 -0.027885713
0.20308311 -0.115780406 0.11347944 -0.06002967 -0.16076073 -0.01258065 -0.11580207 0.08255084
0.04177212 -0.13391356 0.072459 0.0055586556 -0.084229164 -0.14410748 0.031785727 -0.06254999

net.4.bias f4 [5]
00000000: a848 cdbd 1761 32be 7ac8 48be 9272 08be
00000010: cc6d b7bd
-0.10023624 -0.1741985 -0.19607726 -0.13324955 -0.08956489
