data_augmented/checkpoints/generator_epoch34.pth (torch, 25068 bytes, 6 tensors)

net.0.weight f4 [64, 16]
000000 36 f0 81 be cb 98 a8 3b ff 2b 81 3e 44 cf f7 3d
       -0.2537858 0.0051451675 0.2522888 0.1210008
000010 45 10 d9 bc 67 1b ad 3e ea 85 bf 3d cf eb 0e be
       -0.026497016 0.3380997 0.09351714 -0.13957141
000020 bf cb 15 3e 34 92 48 3e 37 b9 30 3b cf 6a e5 3d
       0.14628504 0.19587022 0.0026965865 0.11202013
000030 24 12 81 be e7 a9 8b 3d fc fa 81 3d 3d b0 d1 3c
       -0.25209153 0.06819516 0.063466996 0.025596732
000040 87 21 41 3e 33 c2 e4 bc 31 2f e0 bd b8 77 02 bd
       0.18860446 -0.027924633 -0.10946501 -0.031852454
000050 aa 12 3c 3e 66 fe 68 3d 32 fc 4c be d6 09 20 bd
       0.18366495 0.05688324 -0.2001808 -0.03907188
000060 00 8a 81 bd 6d ac 00 be c7 29 06 3e 76 03 c9 3d
       -0.063251495 -0.12565775 0.13101874 0.09815113
000070 30 ef 03 3e e2 9b 5f 3d 2a 78 2f 3e cc 4e 1a 3e
       0.12884212 0.05459202 0.17135683 0.15069121
000080 10 6d 7f be e5 46 d5 bb da a6 ea 3d 5f 96 c0 3d
       -0.24943948 -0.0065086954 0.11457606 0.09403681
000090 20 70 8e bd 4e a7 ad 3c ff 6b 42 3e fb 3a 38 bd
       -0.0695498 0.021197941 0.1898651 -0.044978123
0000a0 f5 ea e8 3c c0 69 cd 3d c4 9a 0e be a1 fc 0c be
       0.028432349 0.10029936 -0.13926226 -0.13768245
0000b0 ca 3f b8 bd fd c6 c8 bd 14 c4 74 be 7b f0 63 be
       -0.08996542 -0.09803579 -0.23902923 -0.22259705
0000c0 70 ca b9 bd 29 f6 cb 3d 61 18 61 be 7d ff c5 bd
       -0.09071815 0.09959061 -0.21981956 -0.09667871
0000d0 05 d3 02 3d 4e 8e 19 be 7d a3 f3 3d 4e ad a8 be
       0.031939525 -0.14995691 0.11896417 -0.3294472
0000e0 d3 75 42 be ad 00 39 3e 2d 56 4c 3e 6b a0 31 3e
       -0.18990259 0.18066664 0.19954748 0.17346351
0000f0 aa bd 91 3c 63 7f dd bd 42 b8 e2 bd 04 75 19 3e
       0.017790634 -0.10815313 -0.11070301 0.14986044
000100 dd 54 5f bd 86 df 5c bd ec 4a ae 3d 7a ca 16 3d
       -0.05452429 -0.053924106 0.08510384 0.03681419
000110 76 de 13 3d 40 a1 6c 3e 00 cd 40 bd 8f 05 b8 bd
       0.036100827 0.23108387 -0.047070503 -0.08985435
000120 37 e9 80 3d 64 8b 04 3e 43 09 2e 3d 58 74 15 3e
       0.06294482 0.12943798 0.0424893 0.14595163
000130 a5 a2 08 be 34 7a 62 3d 31 b4 a5 3d e7 41 97 3d
       -0.13343294 0.055292323 0.080910094 0.07385617
000140 b8 31 df be a9 b5 16 3e 34 07 83 3e 4e 83 85 3d
       -0.4359262 0.14717735 0.25591433 0.06519185
000150 b7 73 75 be 8d b8 2b bd a1 b8 c6 3e b3 e0 ca bc
       -0.23969923 -0.04192405 0.38812736 -0.024765348
000160 f5 76 e4 3d 77 3b 18 3e 05 58 47 be da 74 51 be
       0.11155502 0.14866434 -0.1946717 -0.20454732
000170 6b 88 50 be 56 4c 26 be f7 11 95 be 19 52 8d be
       -0.2036454 -0.16240057 -0.2911527 -0.27601698
000180 18 62 61 be 54 de 4b 3d b0 ae 78 3e 9c b4 fd 3c
       -0.22010076 0.049772575 0.24285388 0.03096991
000190 24 f5 1b be ba ff b2 3c 3a 68 3e 3e de e1 0f 3e
       -0.15230232 0.021850456 0.18594447 0.14051005
0001a0 1b f1 0b 3e de 04 28 3c d6 aa 70 be 57 fd 60 be
       0.13666193 0.010255067 -0.23502669 -0.21971641
0001b0 89 0f 04 be 0e e3 02 be f2 59 37 be b5 77 83 be
       -0.12896551 -0.12781927 -0.17905405 -0.25677267
0001c0 04 7e 02 3f d1 09 fc bd 64 42 9d be 53 ea 62 be
       0.50973535 -0.1230656 -0.30714715 -0.221597
0001d0 71 0a 33 bf 45 fe 0d bf bc bd 41 3c 7e af f5 3e
       -0.6993781 -0.5546611 0.011825021 0.47985452
0001e0 ef ae e4 3d b8 8f d1 3e 5d d9 12 3d af e8 9f 3e
       0.111661784 0.4092996 0.035851825 0.3123221
0001f0 43 b6 49 be 90 36 e7 3e e1 e6 50 3e ff 27 bc 3e
       -0.19698434 0.45158815 0.20400573 0.36749265
000200 77 32 28 bd f3 de ef bb cf 3d 8e bb da 6f 55 bd
       -0.041063752 -0.007320279 -0.0043408643 -0.052108623
000210 3f 25 19 bf 56 25 bb be 1e 80 9d 3e 36 a1 84 3e
       -0.5982246 -0.36551923 0.30761808 0.25904244
000220 f6 6f 0c 3e 6c 48 c6 3e 79 35 1a be f7 75 ad 3c
       0.13714585 0.38727129 -0.1505946 0.021174414
000230 35 51 8f be f4 0d 1d 3e 58 99 18 be e0 d8 e2 bc
       -0.27991644 0.15337354 -0.14902246 -0.027691305
000240 bb 54 84 3c 6d fd 2f bc a1 66 f1 3d 3e 55 3a 3d
       0.016153684 -0.010741574 0.11787153 0.04549145
000250 2c 95 c2 3d 3f f6 12 3e f8 00 b5 bd 08 31 90 3d
       0.095011085 0.14351748 -0.088380754 0.07040602
000260 0e 87 84 3d d7 de 23 be 25 ab 47 bd e2 fa a1 bd
       0.06471072 -0.16002975 -0.0487472 -0.0790918
000270 97 25 31 3d 98 1c 44 3c 66 a4 c5 3d 3e d3 41 bd
       0.04324874 0.011969708 0.09650497 -0.047320597
000280 b3 9e da 3e b8 80 e5 bd b0 ff 87 be 6a 6b 4d be
       0.42699203 -0.11206192 -0.26562262 -0.20060506
000290 fe 49 31 bf f7 f8 06 bf 7d 1a 69 3d 9e 6a e7 3e
       -0.6925353 -0.5272364 0.056910027 0.4519853
0002a0 f6 95 ef 3d e5 0c d4 3e 30 e1 1c 3b fa cf 86 3e
       0.11698525 0.41416088 0.0023937933 0.2633055
0002b0 33 41 5c be cb 32 ce 3e 11 e3 0b 3e 05 17 9c 3e
       -0.21509247 0.40273127 0.13660838 0.30486313
0002c0 94 d2 ed bd 26 85 c9 bd c7 50 4f bb 7a 0c d0 3c
       -0.1161243 -0.09839849 -0.003163384 0.025396574
0002d0 3f 00 0e bf 6e c4 9c be cd ac a7 3e 1a bc 5b 3e
       -0.55469126 -0.30618614 0.32749024 0.21458474
0002e0 1b e8 e3 3d 95 99 dc 3e 67 48 63 be 93 52 28 bd
       0.11128255 0.43085924 -0.22195588 -0.041094374
0002f0 b7 4b 90 be d7 3c d7 3d 2d 17 97 be 6d 5d 28 be
       -0.28182766 0.10509651 -0.2950987 -0.16441889
000300 e8 0e 96 bd 71 9b ca 3e 96 da 39 3e 67 99 40 be
       -0.07327062 0.39571717 0.1814979 -0.18808518
000310 b3 5c 1a be 79 a1 be bd a6 e2 06 3e f3 81 0b 3d
       -0.15074424 -0.09308142 0.13172397 0.034059476
000320 d6 fe 0c 3e 48 7a 04 be df 9f 0c 3e 30 e1 75 3d
       0.13769087 -0.12937272 0.13732861 0.06002921
000330 76 26 a6 bd a3 68 1f bb 97 00 9c 3e 1a 5b 82 3e
       -0.081128046 -0.0024323843 0.304692 0.2546013
000340 25 42 bb be c5 57 93 3d a4 ef 39 3e fa d2 8b 3d
       -0.36573902 0.07194475 0.18157822 0.0682735
000350 a6 25 9d be 33 3f cb bd a5 8d be 3e 88 ac d2 3c
       -0.30692786 -0.09924164 0.3721744 0.025717035
000360 72 9f d6 3d f0 96 66 3e 35 59 57 be 64 09 2f be
       0.104796305 0.22518516 -0.21030124 -0.17093426
000370 c0 d2 60 be a7 93 cb bd 3f bb 9f be 7e 8c 86 be
       -0.21955395 -0.09940272 -0.31197545 -0.26279062
000380 cb 86 76 be 62 f5 0f bf 88 e6 e5 bd d0 3a c0 3e
       -0.24074857 -0.562338 -0.11225611 0.3754487
000390 ef 55 31 3e fd 65 5a 3e 44 e8 ef 3c 3b 2b 0f be
       0.17317937 0.21327968 0.029285558 -0.13981335
0003a0 77 3d 29 be c8 ce 91 3e 28 ef b6 be 11 6a 80 be
       -0.16527353 0.28478074 -0.35729337 -0.25080922
0003b0 a9 58 cc 3b 72 26 1d be 5d e9 36 bf 57 9a 1f bf
       0.006236155 -0.15346697 -0.71449834 -0.6234488
0003c0 23 b1 38 bd ae d5 0d be 53 b4 82 bd 0f de 7a 3d
       -0.045090806 -0.13851044 -0.0638205 0.061246928
0003d0 ec 05 07 bd 5d 27 26 3b 4f 47 89 bb 39 c9 84 3b
       -0.032964632 0.0025353052 -0.004189409 0.004052308
0003e0 70 ba dc bc f5 b5 d4 3d 1c 83 9d bd 19 06 ca bc
       -0.02694437 0.10386268 -0.07691023 -0.02466111
0003f0 79 2b 58 bc 18 10 6d bc b4 b5 12 be 34 62 06 be
       -0.013193958 -0.014469169 -0.14327127 -0.13123399

net.0.bias f4 [64]
000000 b4 fd d4 3e 64 7f 48 3f f6 45 33 3f 05 cf 28 3f
       0.4159981 0.7831938 0.70028627 0.65940887
000010 3f 57 04 3f d4 5a e6 be 80 1a 1a bf 88 8c fc be
       0.51695627 -0.4499117 -0.60196686 -0.49325967
000020 fc 77 b7 3e 1f 19 2d 3f d2 f3 fe be 3b 70 98 3e
       0.35833728 0.67616457 -0.49795395 0.29773125
000030 32 e9 30 be f0 ea 07 bd c7 3b d3 3c 8e d5 3e 3f
       -0.17276457 -0.03318304 0.02578534 0.7454461
000040 f5 e4 f9 3e 37 b6 71 bf 70 f9 0b 3f 5c ee 51 3f
       0.48807493 -0.9441866 0.54677486 0.8200433
000050 e5 f6 a4 3e 9d fa 6a bf 11 4b d4 3e 24 eb 69 bf
       0.32219616 -0.91788656 0.4146352 -0.9137442
000060 af 74 14 3f 01 f2 1c be a4 7a d6 be fd 54 93 be
       0.57990545 -0.15326692 -0.41890442 -0.28775778
000070 cd 59 03 bf c3 66 3f 3e 0c 9b 36 3f 8e 2d f7 bd
       -0.513089 0.18691544 0.7133033 -0.12069236
000080 b1 6b 54 bf 29 bf 6e be 27 f4 8a bf 72 96 1f 3f
       -0.82976824 -0.2331511 -1.0855759 0.62338936
000090 a2 cf 05 3f 9b da 4f bf b3 91 e6 3e d7 2f d0 be
       0.5226995 -0.8119294 0.45033035 -0.406615
0000a0 6a 9d d8 be 65 ae b8 be 78 d1 02 bf 30 6f d7 bc
       -0.42307597 -0.36070552 -0.51100874 -0.026298136
0000b0 0f 8e 7c 3e 16 8b 2d 3f 09 81 0d be 85 dc 4d bf
       0.24663566 0.67790353 -0.13818754 -0.8041461
0000c0 44 09 6c bf 49 62 53 3f 60 e7 8b bd 61 43 df be
       -0.9220164 0.82571846 -0.06831241 -0.43606094
0000d0 c2 93 3d bf 4e 6b b8 bd 01 27 30 bf e2 23 6c be
       -0.74053586 -0.09004842 -0.68809515 -0.23060563
0000e0 4f 09 4a bd aa 98 e9 3e e1 23 ce 3e d6 00 34 bf
       -0.049325284 0.45624286 0.40261748 -0.70313776
0000f0 86 c8 39 3f f6 80 54 bf 8e b8 28 3f 64 5b d1 3e
       0.725716 -0.8300928 0.6590661 0.40890038

net.2.weight f4 [64, 64]
000000 ca 76 15 3d b3 1b b4 3e df ba fb 3d 1c 05 d9 3d
       0.03649024 0.35177383 0.12291502 0.10596678
000010 ae 70 95 3d 77 69 63 be cb 82 e9 bc c6 e4 d5 be
       0.072968826 -0.222082 -0.02850475 -0.41776103
000020 68 4e 73 bd d6 6f 0b 3e 08 e5 74 be a4 65 dc 3e
       -0.059400946 0.13616881 -0.23915493 0.43046296
000030 43 79 54 3d 04 8a 51 3e 84 3c cd be ff 6e f4 3d
       0.051873457 0.20462805 -0.40085232 0.11935233
000040 64 ff df 3d bb b2 3d 3d 21 4f c6 3d a8 85 5a 3e
       0.10937384 0.04631303 0.096830614 0.21340048
000050 e2 e6 14 3d ab ce ba bd aa 99 2e be c2 aa 91 bc
       0.036353 -0.0912145 -0.17050806 -0.017781619
000060 1b 19 10 3e 94 9a a6 bd 10 1f 3d bd e6 2e d9 3d
       0.14072077 -0.08134952 -0.0461722 0.10604648
000070 3b a8 0e bf 24 7f d2 3c ac 43 a4 bc 7e c0 1e 3e
       -0.5572545 0.025695391 -0.0200518 0.15503117
000080 03 69 18 3e c5 63 3b bd 9e 49 8e bf 8c 93 cd 3d
       0.14883809 -0.045749445 -1.1116216 0.10037908
000090 e9 94 67 3d e4 10 03 be 0b 99 81 3d 8c 72 ba 3d
       0.056538496 -0.12799412 0.06328019 0.09103879
0000a0 20 30 50 be 4e 4e 91 be f4 80 9e bc e3 a2 cd 3d
       -0.20330858 -0.28380054 -0.019348599 0.10040834
0000b0 c0 ae 9d 3e d4 3f 50 3e 53 e3 7c 3e 0c c0 83 bd
       0.30797386 0.20336848 0.24696092 -0.064331144
0000c0 ea 1b 2e 3e 0f 4e 5b 3d 26 2f 54 3e 7f 47 a1 bb
       0.17002836 0.05354124 0.2072111 -0.004921853
0000d0 6d c4 69 3e 1d 13 b3 3e 0f a5 05 be ad 78 7a bc
       0.22828837 0.3497552 -0.13051246 -0.01528756
0000e0 11 96 01 3c 0e e1 1e 3e 2e a7 45 bd dd 4a 50 3e
       0.007909314 0.15515539 -0.048255138 0.20341058
0000f0 f6 8b 51 3e de b9 ab 3d 6f 4a 9c bd 03 f0 75 bd
       0.20463547 0.08385061 -0.076313846 -0.060043346
000100 15 0b 51 be 8c 94 d7 bd b9 5e 48 be 02 c1 5d be
       -0.20414384 -0.1052638 -0.19567384 -0.21655658
000110 1a 15 a3 bd 16 63 8d 3d 30 07 02 3e 8d 81 f6 bd
       -0.07963009 0.06903665 0.12698054 -0.120364286
000120 35 42 ac 3d 18 c9 ea bd 4a e5 33 bd 54 d7 15 bc
       0.084110655 -0.11464137 -0.04391984 -0.0091455765
000130 79 cb bc bd d4 82 fb 3c 96 92 d5 bd c3 f6 42 be
       -0.09218497 0.030702032 -0.1042835 -0.19039445
000140 d2 4a 2c be 1e 84 93 3d 2d 09 f4 bd b7 92 82 be
       -0.16825417 0.07202934 -0.11915813 -0.2550256
000150 a1 1e 01 be 23 cd 4a 3e 5d 0a 00 3d ed 15 df 3d
       -0.1260934 0.19804816 0.031259883 0.10892854
000160 59 ed 30 be ab 1d f6 bd c3 b8 88 bc 9c 5a e7 bb
       -0.17278041 -0.120173775 -0.016689664 -0.007060362
000170 09 7c ed bd 97 0d 0e be 1d de 20 be 7d 05 0c 3e
       -0.115959235 -0.13872372 -0.1570973 0.13673969
000180 da 91 d0 bc 34 69 7d 3d e2 72 b2 3b d3 a7 0e be
       -0.025460172 0.061867908 0.005445824 -0.13931207
000190 4f 38 14 be d0 84 1c 3e f5 8b 50 be 4a 0d 05 3e
       -0.14474605 0.15285039 -0.2036589 0.1299335
0001a0 fb ab 3d bd 36 e8 ae bc 89 d8 2d 3e 09 2e a7 bb
       -0.04630659 -0.021350961 0.16977133 -0.0051019234
0001b0 20 12 0b bd 30 fb 82 be 73 b7 ca bd 58 5a c3 3d
       -0.033952832 -0.25582266 -0.098982714 0.09538716
0001c0 1f cd 2b 3e fe c7 1e be a4 ba 8f 3d 18 b6 28 bd
       0.16777466 -0.15505978 0.07018021 -0.041189283
0001d0 ac f3 b0 3d 04 93 43 3c e9 e5 a2 3d 34 f8 06 be
       0.08640227 0.011936907 0.07954008 -0.1318062
0001e0 6a b9 f4 3b 44 11 04 be e8 e0 36 bd a4 e4 85 bc
       0.007468392 -0.12897211 -0.04464808 -0.016344376
0001f0 a1 23 8c 3c 1d dd 58 bd 4f 57 23 be d1 0f 7e be
       0.017106833 -0.052945245 -0.15951274 -0.24810721
000200 49 02 4a be b3 ec 7b be b4 ea b8 bc ad 90 90 be
       -0.19727434 -0.24602012 -0.022572853 -0.2823538
000210 3e 44 c1 bd ad 13 aa 3d 00 d6 3c bd 0a cd 06 be
       -0.09436844 0.08304534 -0.046102524 -0.13164154
000220 76 85 1c bd e3 3e d5 bd b4 2d d6 bb af 9e 9e 3d
       -0.038213216 -0.10412385 -0.00653621 0.0774511
000230 f6 25 f6 bd bd 85 84 3d 42 1e 61 be 22 6b 80 bd
       -0.12018959 0.06470821 -0.21984199 -0.06270434
000240 5f 22 42 bd 29 ce 3c 3d 62 28 85 bd 84 ac 01 be
       -0.04739606 0.046095047 -0.06501843 -0.12663466
000250 7c ed de bd 39 ab 61 3d 4c ab 95 bd 17 df e2 3d
       -0.1088514 0.05509493 -0.07308063 0.11077707
000260 48 2d 20 be d0 7f c7 bd 2c 8e e0 3d 1b 6f f9 bd
       -0.15642273 -0.09741175 0.10964617 -0.12179395
000270 5f 04 0d bd be 45 65 be 66 41 e3 bd fe 78 a0 bd
       -0.034427997 -0.22389886 -0.11096458 -0.078355774
000280 66 4b 3d bd 99 9f f5 3c ee f5 ac ba 0d f1 a2 bd
       -0.046214484 0.029983329 -0.0013195851 -0.07956133
000290 2c ba e3 bd 1c c5 1a 3e 2b cf 12 be 95 95 86 3d
       -0.11119494 0.15114254 -0.14336841 0.06571499
0002a0 e2 41 f1 bb 1b de f6 3d 97 27 17 bd 14 4f 93 bc
       -0.00736259 0.12054082 -0.03690299 -0.017982043
0002b0 98 84 8d bd 62 37 10 be df a7 31 3d 27 62 11 3e
       -0.06910056 -0.14083627 0.043372985 0.14197598
0002c0 ae 13 13 bd 7d 07 d0 bd a5 e0 6e bc 99 a1 87 bd
       -0.03590744 -0.10157678 -0.014579927 -0.06622619
0002d0 66 93 7c 3b 37 37 02 bd c0 d5 9e bd 7b 13 c7 bd
       0.0038540005 -0.03179094 -0.07755613 -0.097205125
0002e0 1e 76 6e 3b 9b 07 15 be 1d bf 67 bd d4 76 01 3d
       0.0036386321 -0.14553683 -0.056578744 0.031607464
0002f0 27 15 48 be 87 26 de 3c 8e c4 90 be a7 e9 2a be
       -0.19539319 0.02711798 -0.2827496 -0.16690694
000300 e4 76 78 be 98 84 2c 3e 0b cc 73 bc ee 83 ee 3c
       -0.24264103 0.16847456 -0.014880191 0.029115643
000310 84 b8 b7 be 3a 9d ac bd 50 dc ab bd 5a 0f 05 ba
       -0.35882962 -0.08428426 -0.08391631 -0.0005075835
000320 5a 1b 39 bc 59 89 95 bc bd 17 1a 3e 7d e1 de 3d
       -0.011298025 -0.018253969 0.15048118 0.10882852
000330 f4 f0 da bd 25 6f 56 bd d7 db 65 3d 3c 05 b6 3d
       -0.106904894 -0.05235209 0.05611786 0.08887717
000340 88 9d e4 be 9d 45 4c 3e c6 b8 b8 3d 74 1a de 3d
       -0.44651437 0.1994843 0.09019618 0.10844889
000350 72 d5 3e bd dc 20 59 3d bf 81 43 bd de 94 85 3e
       -0.046590276 0.053009853 -0.047731157 0.2609014
000360 cc 22 22 3e 39 94 65 bd 06 34 6b bd 55 5d 58 3d
       0.15833586 -0.05604956 -0.05742266 0.052823383
000370 d1 fa b8 bd 6f e0 13 3d 1a b6 52 3c f5 e0 cd bd
       -0.090322144 0.03610271 0.012860799 -0.10052673
000380 d0 ce ae 3d 6e 5f 42 be cc f6 c6 3d bb 46 75 3d
       0.0853554 -0.18981716 0.097150415 0.059881907
000390 f8 43 42 bd 4b 18 11 3e d2 ed b5 3c b7 8b 77 3d
       -0.0474281 0.14169423 0.022208128 0.060435977
0003a0 5a ed 7f bd da b6 72 3d 2f db 63 bd da 85 46 3e
       -0.062482215 0.059256412 -0.05562895 0.19386998
0003b0 7e d8 d5 bd b8 0d f0 bb 3f c4 dd 3d f3 1c 3a bc
       -0.10441683 -0.007325854 0.108284466 -0.011359441
0003c0 7c a6 4b 3d 0e 75 26 3e 6a 36 11 bc 44 db 06 3e
       0.04971932 0.1625559 -0.008863071 0.1316958
0003d0 63 80 f1 3d 20 5a 1b be 12 fa 37 3c 16 7d e4 bd
       0.11792066 -0.15171099 0.011229055 -0.11156671
0003e0 06 ef 2f bb 2e 3d d0 3c d7 b2 e2 3d 3f d9 07 3e
       -0.002684535 0.025419798 0.11069267 0.13266467
0003f0 e4 06 fd 3d bd 72 53 3e 08 b4 89 3e ee 69 25 be
       0.1235483 0.20649238 0.26895165 -0.1615369

net.2.bias f4 [64]
000000 53 b6 b7 3e bd 17 a6 bd 72 f9 09 be 9e 89 33 3e
       0.3588129 -0.081099965 -0.13474062 0.17532966
000010 e8 d3 ce bc bf 85 0f 3e 9e ae 5a 3e aa 91 43 3d
       -0.02524753 0.14015864 0.21355674 0.047746338
000020 09 eb 96 be 16 63 65 be 7e f9 9e bd 7d a0 08 3e
       -0.29476193 -0.2240108 -0.077624306 0.13342471
000030 e4 8a 98 3e 3a 2a b2 be 43 86 54 be bd 6f b9 bd
       0.29793465 -0.3479784 -0.20754342 -0.090545155
000040 ab 48 68 be b6 05 17 3d 4a 43 83 be 84 e6 f6 bd
       -0.2268397 0.03687068 -0.25637275 -0.12055686
000050 53 00 90 3e 4e f2 01 3f a6 21 0f be e4 1e 0b 3e
       0.28125247 0.5076035 -0.1397768 0.13586003
000060 d1 00 80 3c b3 05 8b 3e 88 9b 6f bc b6 ea 44 be
       0.01562539 0.27152786 -0.014624484 -0.1923016
000070 b3 8b 9e 3e 39 87 d3 bd 73 c1 43 3e c3 94 8f bc
       0.30965957 -0.10328526 0.19116764 -0.01752699
000080 c6 a3 c4 3d 98 36 36 3e 99 99 91 bd a4 4c d7 bd
       0.0960155 0.17794263 -0.071093746 -0.10512665
000090 98 9d 80 ba e2 15 6f bc cc 48 5a 3e 5d 8a 9f 3d
       -0.0009812592 -0.01459262 0.21316832 0.077900626
0000a0 93 6b 17 3e 8e fb 90 3d 05 b3 0b be e1 79 67 3c
       0.1478713 0.0707923 -0.1364251 0.014128179
0000b0 cc 51 46 3d f3 f8 a8 3e fb 74 aa bd dc c6 41 3e
       0.04841785 0.33002433 -0.083230935 0.18923515
0000c0 bb 50 55 be 8b 07 8a 3b 49 e1 0d be 49 ae 60 3e
       -0.20831577 0.004212325 -0.1385547 0.21941485
0000d0 58 d7 ad 3e f8 19 ce bd ae 45 7c 3e 64 83 25 be
       0.33953357 -0.10063547 0.24635956 -0.16163403
0000e0 09 de e7 3d 43 64 7d bd 6e 5b 19 bd 9d b9 9a 3e
       0.11321647 -0.061863195 -0.03744071 0.30219737
0000f0 d8 0f 21 3e d8 d0 8f 3e f5 59 ff 3d 76 4e a3 bd
       0.157287 0.28089023 0.1246833 -0.079739496

net.4.weight f4 [5, 64]
000000 7c 9c 95 bb d9 1f 21 3e 26 a1 41 be bf b5 06 bf
       -0.0045657735 0.15734805 -0.1890913 -0.5262107
000010 09 cf a9 bd 45 b8 14 bd 0e b4 1a bf 3f aa 29 bf
       -0.08291442 -0.036308546 -0.6043099 -0.662754
000020 f2 40 2d bc 8a 7f b7 3d 20 68 3b 3e a8 c8 da bd
       -0.010574566 0.08959873 0.1830144 -0.106828034
000030 34 9e 45 3d 85 a2 9d bd 42 39 67 3d 10 31 5a 3d
       0.048246577 -0.07697014 0.05645109 0.053269446
000040 30 42 97 3d eb 8c ae 3d 9c de f0 3d 51 b6 01 3e
       0.07385671 0.08522972 0.11761209 0.12667204
000050 38 29 d5 3d 0d dd a2 3d 0c dc ba bd 1e f2 6e 3e
       0.104082525 0.07952318 -0.09124002 0.23334548
000060 5d 15 0a 3d 45 15 88 3e 6e 0c 16 3e 72 de 50 bd
       0.03371178 0.26578727 0.14653179 -0.05099339
000070 8a e2 bf bb d1 aa 0f 3d 18 2f f0 3e 5c b7 c2 3d
       -0.005855863 0.035075013 0.4691093 0.09507629
000080 52 02 a8 bd ab 48 16 be ea ca 4b be eb 20 bc bc
       -0.082035676 -0.14676158 -0.19901624 -0.022964915
000090 0a 0c 5a bd 53 13 42 3e 9f d7 dc 3d e8 6c 8c bd
       -0.053234138 0.18952684 0.10783314 -0.0685671
0000a0 aa 30 93 3d c9 5b 0b 3e 21 d8 ab bc e9 ba 82 3d
       0.07187016 0.13609232 -0.020977082 0.063833065
0000b0 ff b1 f8 3c 29 8e 00 be 90 ea d3 bd 9a 70 95 3d
       0.030358313 -0.1255423 -0.103474736 0.07296868
0000c0 2c 31 7f bd 8a 88 a2 bc c5 71 85 bd 11 6b 0b 3e
       -0.062302753 -0.019840498 -0.065158404 0.13615061
0000d0 23 6d 6b 3d f4 1f 85 3c 3b e0 80 3d 9d 97 56 3d
       0.057477128 0.016250588 0.062927686 0.052390683
0000e0 47 fe 1b be 4d 70 8e bd ff e0 9a bc f5 d7 95 3d
       -0.15233718 -0.069550134 -0.018906115 0.07316581
0000f0 79 24 d3 3d ca 22 4c 3e f9 c4 c1 3d 02 b9 64 bd
       0.10309691 0.19935146 0.09461398 -0.0558405
000100 ee 03 22 bd 33 ef d0 bd 9b 12 8e 3c 3a e7 d2 3c
       -0.03955453 -0.10201874 0.017342856 0.025745023
000110 db cb 78 bd bb ad 9e bc 04 d2 8c bc f0 c5 5a bb
       -0.060741287 -0.01936995 -0.017189987 -0.003338214
000120 d4 46 66 bd 21 08 ea 3c 16 21 22 3e 00 13 e7 bb
       -0.05621989 0.02856833 0.15832934 -0.0070518255
000130 e1 18 e1 bc c7 d7 ba bd 5c 91 11 3e 01 5c 23 3c
       -0.027477683 -0.091231875 0.14215606 0.009970666
000140 27 10 d3 bc 44 83 82 3d ab ad 1b 3c 86 e2 c3 3b
       -0.025764538 0.06372693 0.009501855 0.0059779314
000150 c8 52 81 be e2 a1 54 3f 46 d7 3c 3c bf 4e 9e be
       -0.2525847 0.83059514 0.011525935 -0.30919454
000160 20 5d 11 be b9 b6 6b 3c 29 bb cb 3c 71 46 e2 bd
       -0.1419568 0.014386826 0.024869518 -0.11048592
000170 4c ab b4 bd 6f 33 ac 3e eb db 86 bc 41 77 81 3c
       -0.08821735 0.3363299 -0.016462287 0.015803935
000180 30 8d f1 bd 8b 17 9d bc a8 21 d7 3d 6f 9a b1 bc
       -0.117945075 -0.019176265 0.10504466 -0.021680085
000190 f7 c0 e5 3c 35 9a 9d 3c 0b 35 9d bc e5 0a dd 3d
       0.028046114 0.01923857 -0.019190332 0.107930936
0001a0 28 96 96 3c 43 3b 7c 3c 92 46 8a 3d 0f 75 02 be
       0.018382147 0.0153949885 0.067517415 -0.12739967
0001b0 2b 43 11 3e 16 89 c3 3d cf 1d 02 3e 21 78 e8 bd
       0.14185779 0.095476314 0.12706684 -0.11351038
0001c0 64 97 9d bd ce d7 ce 3e 37 93 be bc 87 2f 98 3d
       -0.07694891 0.4039902 -0.023263557 0.0743094
0001d0 51 20 1e be ea 4d 7a 3d 2a d1 6b bd a4 51 44 be
       -0.15442015 0.06110946 -0.05757252 -0.19171768
0001e0 9d 04 3a bc d4 9e dc be 5e 65 9c bd 40 12 56 3c
       -0.011353639 -0.43089926 -0.07636522 0.013065875
0001f0 68 6b 98 bd c5 d2 0b be dc dd 77 be 73 01 0e 3e
       -0.07442361 -0.13654621 -0.24205726 0.1386774
000200 02 dc 44 3f a2 6b a6 bd af 21 bf bd ec 27 77 bd
       0.76898205 -0.08125998 -0.093325965 -0.060340807
000210 25 ae 18 be e5 d6 b5 3c 16 d8 21 3d f2 e4 b8 3b
       -0.14910181 0.022197196 0.039512716 0.005642527
000220 fc 47 c0 3d 73 c0 1a be 71 ef 0e 3e 26 f9 00 3f
       0.0938873 -0.15112476 0.13958527 0.5038017
000230 91 23 18 3f ad 1e 32 be a7 84 40 bd 3e 3b 69 bd
       0.5942927 -0.17394514 -0.047001507 -0.056941263
000240 c6 b9 6d be 80 4f 1b bd a2 b0 46 bd 01 d7 df be
       -0.23215398 -0.037917614 -0.048508294 -0.43718722
000250 31 f9 92 bc 2b 9a 5d bd 3a d3 2d 3d a7 51 0f 3e
       -0.01794109 -0.054102104 0.04243777 0.13995992
000260 ba 9e 56 3d 0c 15 88 3e 5e 1e 2d bd 42 58 3b 3e
       0.052397467 0.26578557 -0.04226529 0.18295386
000270 97 02 82 be 14 ec a1 3d 12 84 14 3c 29 52 17 be
       -0.253926 0.079063565 0.009064691 -0.14777435
000280 9a c5 52 3c c6 91 19 be 62 f6 bb 3c 95 6c 23 bd
       0.012864495 -0.14997014 0.022944633 -0.039898474
000290 07 43 ac 3f d0 26 27 bf 63 04 94 3f 47 b7 c8 bd
       1.3457955 -0.652936 1.1563839 -0.098005824
0002a0 76 b0 db 3c d3 ee 26 be 82 0a cf 3e 35 ca 91 bd
       0.026817542 -0.16302042 0.40437704 -0.07118646
0002b0 2b f2 0a 3d 5f 45 95 be b4 c8 1b 3d e6 98 7b be
       0.033922356 -0.29154488 0.038033202 -0.24570045
0002c0 a7 1d 04 3e 91 01 1a 3e 18 66 30 3d 68 ac f2 3d
       0.12901936 0.1503966 0.043066114 0.1184929
0002d0 66 f9 11 be 3f 0a de 3d aa 6b 4a be 18 7a 0f 3e
       -0.14255294 0.10841798 -0.19767633 0.14011419
0002e0 fe 57 53 be 29 03 0d 3e 08 de 9d 3e 36 c8 3a bf
       -0.20639035 0.13770737 0.3083346 -0.7296175
0002f0 88 03 67 be 79 d1 1e be f4 a4 a4 be 49 dc 20 be
       -0.22559941 -0.15509595 -0.321571 -0.15709032
000300 31 f1 a3 bc 43 ae 87 3e d5 3b 3a 3e 06 9a dc bc
       -0.02001247 0.2650014 0.18186887 -0.026928913
000310 91 08 53 3d 9f 6d 31 bd 87 a9 8c 3c 70 53 82 3a
       0.05152184 -0.043317433 0.01717068 0.0009943079
000320 0b 27 30 3e 63 1e a8 3e 70 78 34 3c 06 04 09 3d
       0.17202394 0.32835683 0.011015043 0.033451103
000330 53 fe 3a 3c 79 7e a1 3e b0 c1 7a 3d d4 b8 a1 3d
       0.011413175 0.31541803 0.06121987 0.07896581
000340 32 45 a2 3e c4 05 4e bd 0d cf be 3e b2 01 20 3c
       0.31693417 -0.050298467 0.37267342 0.009766029
000350 04 af 3b be 0c 80 2f bb 97 52 c2 3d 76 9d b9 bc
       -0.18328482 -0.0026779203 0.09488409 -0.022658091
000360 fd e9 27 3e 9f 15 75 bc 05 99 20 3c b9 37 4b 3e
       0.16397853 -0.014958768 0.009802108 0.19845475
000370 0e f8 71 bd 24 36 2b 3d 7d f5 1c 3a 03 65 98 bc
       -0.059074454 0.04179968 0.00059875083 -0.018602854
000380 86 be 16 bc 0c a3 78 3d d6 26 80 3d cf cd a0 3d
       -0.009200698 0.06070237 0.06257407 0.07851755
000390 a0 95 2a 3e 83 da 58 bc 30 b3 f8 bd 44 8a bc bd
       0.1665864 -0.013235691 -0.12143552 -0.092060596
0003a0 6c ff b3 bc d1 2e 56 b8 72 a3 b8 3a 63 f7 8f bc
       -0.02197238 -5.1065177e-05 0.0014086796 -0.017574018
0003b0 16 f8 58 3d 25 a9 12 be 78 5c 18 3e 51 01 ad bc
       0.05297097 -0.14322336 0.14879024 -0.021118792
0003c0 9b 32 4d 3e 91 b7 ef bd e9 67 e8 3d 6a 66 4d bd
       0.20038836 -0.117049344 0.11347944 -0.050146498
0003d0 12 19 20 be 12 1f 4e bc 23 02 e3 bd 69 b0 a2 3d
       -0.15634564 -0.01258065 -0.11084392 0.07943804
0003e0 b6 d3 18 3d 6e 0a 09 be 03 7a 64 3d 7c 7c 63 3b
       0.03731128 -0.13382885 0.055780422 0.003471165
0003f0 b3 aa a7 bd 97 5e 0d be ef 50 f8 3c 36 1a 80 bd
       -0.08186855 -0.13805614 0.03031203 -0.06254999

net.4.bias f4 [5]
000000 55 3a bd bd 0e d5 3c be 4a 02 4c be 04 3d 0a be
       -0.092396416 -0.18440649 -0.19922748 -0.13499838
000010 e8 e8 ba bd
       -0.091264546
